…
ts!starting_exp_num!l1!adapt_gauss!FinalTestAcc!architecture!Meanintracellular!cells!ValLoss!noise!Minintracellular!stim_type!poor_results!TrainLoss!Maxintracellular!FinalLoss!batch_size!FinalVal!save_folder!cell0!cell1!cell2!cell3!cell4!cell5!cell6!cell7!cell8!cell9!cell10!cell11!cell12!cell13!cell14!cell16!cell17!cell18!cell20!cell21!cell22!cell23!cell24!cell25!cell27!cell31!bnorm_momentum!linear_bias!shift
old_bncnn!0.0!15-10-07!0.05!0.26807584166526793!100.0!<class 'models.BN_CNN.BNCNN'>!False!!bncnn/results.txt!0.005!5.0!!0.001!!0.6592844066600281!BNCNN(#  (sequential): Sequential(#    (0): Conv2d(40, 8, kernel_size=(15, 15), stride=(1, 1), bias=False)#    (1): Flatten()#    (2): BatchNorm1d(10368, eps=0.001, momentum=0.99, affine=True, track_running_stats=True)#    (3): GaussianNoise(std=0.05)#    (4): ReLU()#    (5): Reshape()#    (6): Conv2d(8, 8, kernel_size=(11, 11), stride=(1, 1), bias=False)#    (7): Flatten()#    (8): BatchNorm1d(5408, eps=0.001, momentum=0.99, affine=True, track_running_stats=True)#    (9): GaussianNoise(std=0.05)#    (10): ReLU()#    (11): Linear(in_features=5408, out_features=5, bias=False)#    (12): BatchNorm1d(5, eps=1e-05, momentum=0.1, affine=True, track_running_stats=True)#    (13): Softplus(beta=1, threshold=20)#  )#)#!0.3795145769957826!!!0.05!0.09517904833334227!naturalscene!!!0.5524672679159908!-1.6604126444589318!512.0!-2.6593296825885773!bncnn/bncnn_0_lr0.005_l10.001_l20.05!!!!!!!!!!!!!!!!!!!!!!!!!!!!!
old_bncnn!0.0!15-10-07!0.01!0.28974696099758146!100.0!<class 'models.BN_CNN.BNCNN'>!False!!bncnn/results.txt!0.01!5.0!!0.001!!0.6838911355068593!BNCNN(#  (sequential): Sequential(#    (0): Conv2d(40, 8, kernel_size=(15, 15), stride=(1, 1), bias=False)#    (1): Flatten()#    (2): BatchNorm1d(10368, eps=0.001, momentum=0.99, affine=True, track_running_stats=True)#    (3): GaussianNoise(std=0.05)#    (4): ReLU()#    (5): Reshape()#    (6): Conv2d(8, 8, kernel_size=(11, 11), stride=(1, 1), bias=False)#    (7): Flatten()#    (8): BatchNorm1d(5408, eps=0.001, momentum=0.99, affine=True, track_running_stats=True)#    (9): GaussianNoise(std=0.05)#    (10): ReLU()#    (11): Linear(in_features=5408, out_features=5, bias=False)#    (12): BatchNorm1d(5, eps=1e-05, momentum=0.1, affine=True, track_running_stats=True)#    (13): Softplus(beta=1, threshold=20)#  )#)#!0.350699261944646!!!0.05!0.09730403659323912!naturalscene!!!0.5567608156701644!-2.330271990950111!512.0!-3.0405193567276!bncnn/bncnn_0_lr0.01_l10.001_l20.01!!!!!!!!!!!!!!!!!!!!!!!!!!!!!
old_bncnn!10.0!15-10-07!0.05!0.2926563441753388!100.0!<class 'models.BN_CNN.BNCNN'>!False!!bncnn/results.txt!0.0001!5.0!8.0!0.0005!!0.6794996650465238!BNCNN(#  (sequential): Sequential(#    (0): Conv2d(40, 8, kernel_size=(15, 15), stride=(1, 1), bias=False)#    (1): Flatten()#    (2): BatchNorm1d(10368, eps=0.001, momentum=0.99, affine=True, track_running_stats=True)#    (3): GaussianNoise(std=0.05)#    (4): ReLU()#    (5): Reshape()#    (6): Conv2d(8, 8, kernel_size=(11, 11), stride=(1, 1), bias=False)#    (7): Flatten()#    (8): BatchNorm1d(5408, eps=0.001, momentum=0.99, affine=True, track_running_stats=True)#    (9): GaussianNoise(std=0.05)#    (10): ReLU()#    (11): Linear(in_features=5408, out_features=5, bias=False)#    (12): BatchNorm1d(5, eps=1e-05, momentum=0.1, affine=True, track_running_stats=True)#    (13): Softplus(beta=1, threshold=20)#  )#)#!0.3118418064121629!!!0.05!0.07168566133707065!naturalscene!!!0.5651015650848275!-2.449850166185589!512.0!-3.092540889978409!bncnn/bncnn_10_lr0.0001_l10.0005_l20.05!!!!!!!!!!!!!!!!!!!!!!!!!!!!!
old_bncnn!11.0!15-10-07!0.005!0.32011770009994506!100.0!<class 'models.BN_CNN.BNCNN'>!False!!bncnn/results.txt!0.0001!5.0!8.0!0.0005!!0.6665564985426143!BNCNN(#  (sequential): Sequential(#    (0): Conv2d(40, 8, kernel_size=(15, 15), stride=(1, 1), bias=False)#    (1): Flatten()#    (2): BatchNorm1d(10368, eps=0.001, momentum=0.99, affine=True, track_running_stats=True)#    (3): GaussianNoise(std=0.05)#    (4): ReLU()#    (5): Reshape()#    (6): Conv2d(8, 8, kernel_size=(11, 11), stride=(1, 1), bias=False)#    (7): Flatten()#    (8): BatchNorm1d(5408, eps=0.001, momentum=0.99, affine=True, track_running_stats=True)#    (9): GaussianNoise(std=0.05)#    (10): ReLU()#    (11): Linear(in_features=5408, out_features=5, bias=False)#    (12): BatchNorm1d(5, eps=1e-05, momentum=0.1, affine=True, track_running_stats=True)#    (13): Softplus(beta=1, threshold=20)#  )#)#!0.3074646600014813!!!0.05!0.08009923906059634!naturalscene!!!0.5772527088261973!-2.977392490992538!512.0!-3.3360692262649536!bncnn/bncnn_11_lr0.0001_l10.0005_l20.005!!!!!!!!!!!!!!!!!!!!!!!!!!!!!
old_bncnn!12.0!15-10-07!0.05!0.2699589729309082!200.0!<class 'models.BN_CNN.BNCNN'>!False!!bncnn/results.txt!0.005!5.0!12.0!0.005!!0.6488477829676647!BNCNN(#  (sequential): Sequential(#    (0): Conv2d(40, 8, kernel_size=(15, 15), stride=(1, 1), bias=False)#    (1): Flatten()#    (2): BatchNorm1d(10368, eps=0.001, momentum=0.99, affine=True, track_running_stats=True)#    (3): GaussianNoise(std=0.05, trainable=False)#    (4): ReLU()#    (5): Reshape()#    (6): Conv2d(8, 8, kernel_size=(11, 11), stride=(1, 1), bias=False)#    (7): Flatten()#    (8): BatchNorm1d(5408, eps=0.001, momentum=0.99, affine=True, track_running_stats=True)#    (9): GaussianNoise(std=0.05, trainable=False)#    (10): ReLU()#    (11): Linear(in_features=5408, out_features=5, bias=False)#    (12): BatchNorm1d(5, eps=1e-05, momentum=0.1, affine=True, track_running_stats=True)#    (13): Softplus(beta=1, threshold=20)#  )#)#!0.3169602632774485!!!0.05!0.09303293717229387!naturalscene!!!0.5927013449169004!-2.768273057007208!4112.0!-2.6782466769218445!bncnn/bncnn_12_lr0.005_l10.005_l20.05!!!!!!!!!!!!!!!!!!!!!!!!!!!!!
old_bncnn!13.0!15-10-07!0.01!0.3026782929897308!200.0!<class 'models.BN_CNN.BNCNN'>!False!!bncnn/results.txt!0.005!5.0!12.0!0.005!!0.6742859373173559!BNCNN(#  (sequential): Sequential(#    (0): Conv2d(40, 8, kernel_size=(15, 15), stride=(1, 1), bias=False)#    (1): Flatten()#    (2): BatchNorm1d(10368, eps=0.001, momentum=0.99, affine=True, track_running_stats=True)#    (3): GaussianNoise(std=0.05, trainable=False)#    (4): ReLU()#    (5): Reshape()#    (6): Conv2d(8, 8, kernel_size=(11, 11), stride=(1, 1), bias=False)#    (7): Flatten()#    (8): BatchNorm1d(5408, eps=0.001, momentum=0.99, affine=True, track_running_stats=True)#    (9): GaussianNoise(std=0.05, trainable=False)#    (10): ReLU()#    (11): Linear(in_features=5408, out_features=5, bias=False)#    (12): BatchNorm1d(5, eps=1e-05, momentum=0.1, affine=True, track_running_stats=True)#    (13): Softplus(beta=1, threshold=20)#  )#)#!0.3060945328589913!!!0.05!0.08793679555702495!naturalscene!!!0.5599625858862325!-3.3871056161275725!4112.0!-3.2857366502285004!bncnn/bncnn_13_lr0.005_l10.005_l20.01!!!!!!!!!!!!!!!!!!!!!!!!!!!!!
old_bncnn!14.0!15-10-07!0.05!0.2803587347269058!200.0!<class 'models.BN_CNN.BNCNN'>!False!!bncnn/results.txt!0.005!5.0!14.0!0.001!!0.6529096385880558!BNCNN(#  (sequential): Sequential(#    (0): Conv2d(40, 8, kernel_size=(15, 15), stride=(1, 1), bias=False)#    (1): Flatten()#    (2): BatchNorm1d(10368, eps=0.001, momentum=0.99, affine=True, track_running_stats=True)#    (3): GaussianNoise(std=0.05, trainable=False)#    (4): ReLU()#    (5): Reshape()#    (6): Conv2d(8, 8, kernel_size=(11, 11), stride=(1, 1), bias=False)#    (7): Flatten()#    (8): BatchNorm1d(5408, eps=0.001, momentum=0.99, affine=True, track_running_stats=True)#    (9): GaussianNoise(std=0.05, trainable=False)#    (10): ReLU()#    (11): Linear(in_features=5408, out_features=5, bias=False)#    (12): BatchNorm1d(5, eps=1e-05, momentum=0.1, affine=True, track_running_stats=True)#    (13): Softplus(beta=1, threshold=20)#  )#)#!0.32553536120273635!!!0.05!0.11509497242855896!naturalscene!!!0.5491593532275196!-2.9588926245526572!4112.0!-2.807759553194046!bncnn/bncnn_14_lr0.005_l10.001_l20.05!!!!!!!!!!!!!!!!!!!!!!!!!!!!!
old_bncnn!15.0!15-10-07!0.01!0.29968140125274656!200.0!<class 'models.BN_CNN.BNCNN'>!False!!bncnn/results.txt!0.005!5.0!14.0!0.001!!0.6596532256035472!BNCNN(#  (sequential): Sequential(#    (0): Conv2d(40, 8, kernel_size=(15, 15), stride=(1, 1), bias=False)#    (1): Flatten()#    (2): BatchNorm1d(10368, eps=0.001, momentum=0.99, affine=True, track_running_stats=True)#    (3): GaussianNoise(std=0.05, trainable=False)#    (4): ReLU()#    (5): Reshape()#    (6): Conv2d(8, 8, kernel_size=(11, 11), stride=(1, 1), bias=False)#    (7): Flatten()#    (8): BatchNorm1d(5408, eps=0.001, momentum=0.99, affine=True, track_running_stats=True)#    (9): GaussianNoise(std=0.05, trainable=False)#    (10): ReLU()#    (11): Linear(in_features=5408, out_features=5, bias=False)#    (12): BatchNorm1d(5, eps=1e-05, momentum=0.1, affine=True, track_running_stats=True)#    (13): Softplus(beta=1, threshold=20)#  )#)#!0.33592207970732874!!!0.05!0.1224791544792954!naturalscene!!!0.5845827227034616!-3.446201449487268!4112.0!-3.30012121796608!bncnn/bncnn_15_lr0.005_l10.001_l20.01!!!!!!!!!!!!!!!!!!!!!!!!!!!!!
old_bncnn!1.0!15-10-07!0.005!0.2943964511156082!100.0!<class 'models.BN_CNN.BNCNN'>!False!!bncnn/results.txt!0.005!5.0!!0.001!!0.6705622844272344!BNCNN(#  (sequential): Sequential(#    (0): Conv2d(40, 8, kernel_size=(15, 15), stride=(1, 1), bias=False)#    (1): Flatten()#    (2): BatchNorm1d(10368, eps=0.001, momentum=0.99, affine=True, track_running_stats=True)#    (3): GaussianNoise(std=0.05)#    (4): ReLU()#    (5): Reshape()#    (6): Conv2d(8, 8, kernel_size=(11, 11), stride=(1, 1), bias=False)#    (7): Flatten()#    (8): BatchNorm1d(5408, eps=0.001, momentum=0.99, affine=True, track_running_stats=True)#    (9): GaussianNoise(std=0.05)#    (10): ReLU()#    (11): Linear(in_features=5408, out_features=5, bias=False)#    (12): BatchNorm1d(5, eps=1e-05, momentum=0.1, affine=True, track_running_stats=True)#    (13): Softplus(beta=1, threshold=20)#  )#)#!0.32173867095527503!!!0.05!0.10215570618911646!naturalscene!!!0.5809257830256338!-2.4527617585964694!512.0!-3.100699722766876!bncnn/bncnn_1_lr0.005_l10.001_l20.005!!!!!!!!!!!!!!!!!!!!!!!!!!!!!
old_bncnn!1.0!15-10-07!0.005!0.3029519408941269!100.0!<class 'models.BN_CNN.BNCNN'>!False!!bncnn/results.txt!0.01!5.0!!0.001!!0.6910587231197085!BNCNN(#  (sequential): Sequential(#    (0): Conv2d(40, 8, kernel_size=(15, 15), stride=(1, 1), bias=False)#    (1): Flatten()#    (2): BatchNorm1d(10368, eps=0.001, momentum=0.99, affine=True, track_running_stats=True)#    (3): GaussianNoise(std=0.05)#    (4): ReLU()#    (5): Reshape()#    (6): Conv2d(8, 8, kernel_size=(11, 11), stride=(1, 1), bias=False)#    (7): Flatten()#    (8): BatchNorm1d(5408, eps=0.001, momentum=0.99, affine=True, track_running_stats=True)#    (9): GaussianNoise(std=0.05)#    (10): ReLU()#    (11): Linear(in_features=5408, out_features=5, bias=False)#    (12): BatchNorm1d(5, eps=1e-05, momentum=0.1, affine=True, track_running_stats=True)#    (13): Softplus(beta=1, threshold=20)#  )#)#!0.3558324564421012!!!0.05!0.09858379314046596!naturalscene!!!0.6234735793374198!-2.441634095901817!512.0!-3.1876387000083923!bncnn/bncnn_1_lr0.01_l10.001_l20.005!!!!!!!!!!!!!!!!!!!!!!!!!!!!!
old_bncnn!2.0!15-10-07!0.05!0.2699183404445648!100.0!<class 'models.BN_CNN.BNCNN'>!False!!bncnn/results.txt!0.005!5.0!!0.0004!!0.651752960497895!BNCNN(#  (sequential): Sequential(#    (0): Conv2d(40, 8, kernel_size=(15, 15), stride=(1, 1), bias=False)#    (1): Flatten()#    (2): BatchNorm1d(10368, eps=0.001, momentum=0.99, affine=True, track_running_stats=True)#    (3): GaussianNoise(std=0.05)#    (4): ReLU()#    (5): Reshape()#    (6): Conv2d(8, 8, kernel_size=(11, 11), stride=(1, 1), bias=False)#    (7): Flatten()#    (8): BatchNorm1d(5408, eps=0.001, momentum=0.99, affine=True, track_running_stats=True)#    (9): GaussianNoise(std=0.05)#    (10): ReLU()#    (11): Linear(in_features=5408, out_features=5, bias=False)#    (12): BatchNorm1d(5, eps=1e-05, momentum=0.1, affine=True, track_running_stats=True)#    (13): Softplus(beta=1, threshold=20)#  )#)#!0.3764308844283011!!!0.05!0.08985114145908067!naturalscene!!!0.5982646323545929!-2.1979302520306043!512.0!-2.8875506818294525!bncnn/bncnn_2_lr0.005_l10.0004_l20.05!!!!!!!!!!!!!!!!!!!!!!!!!!!!!
old_bncnn!2.0!15-10-07!0.01!0.2865764439105988!100.0!<class 'models.BN_CNN.BNCNN'>!False!!bncnn/results.txt!0.01!5.0!!0.0001!!0.6663618661055609!BNCNN(#  (sequential): Sequential(#    (0): Conv2d(40, 8, kernel_size=(15, 15), stride=(1, 1), bias=False)#    (1): Flatten()#    (2): BatchNorm1d(10368, eps=0.001, momentum=0.99, affine=True, track_running_stats=True)#    (3): GaussianNoise(std=0.05)#    (4): ReLU()#    (5): Reshape()#    (6): Conv2d(8, 8, kernel_size=(11, 11), stride=(1, 1), bias=False)#    (7): Flatten()#    (8): BatchNorm1d(5408, eps=0.001, momentum=0.99, affine=True, track_running_stats=True)#    (9): GaussianNoise(std=0.05)#    (10): ReLU()#    (11): Linear(in_features=5408, out_features=5, bias=False)#    (12): BatchNorm1d(5, eps=1e-05, momentum=0.1, affine=True, track_running_stats=True)#    (13): Softplus(beta=1, threshold=20)#  )#)#!0.32026773030004474!!!0.05!0.10906479167383064!naturalscene!!!0.5672214962213591!-3.0946475279097463!512.0!-3.1920584738254547!bncnn/bncnn_2_lr0.01_l10.0001_l20.01!!!!!!!!!!!!!!!!!!!!!!!!!!!!!
old_bncnn!3.0!15-10-07!0.005!0.2980318605899811!100.0!<class 'models.BN_CNN.BNCNN'>!False!!bncnn/results.txt!0.005!5.0!!0.0004!!0.6683097635135341!BNCNN(#  (sequential): Sequential(#    (0): Conv2d(40, 8, kernel_size=(15, 15), stride=(1, 1), bias=False)#    (1): Flatten()#    (2): BatchNorm1d(10368, eps=0.001, momentum=0.99, affine=True, track_running_stats=True)#    (3): GaussianNoise(std=0.05)#    (4): ReLU()#    (5): Reshape()#    (6): Conv2d(8, 8, kernel_size=(11, 11), stride=(1, 1), bias=False)#    (7): Flatten()#    (8): BatchNorm1d(5408, eps=0.001, momentum=0.99, affine=True, track_running_stats=True)#    (9): GaussianNoise(std=0.05)#    (10): ReLU()#    (11): Linear(in_features=5408, out_features=5, bias=False)#    (12): BatchNorm1d(5, eps=1e-05, momentum=0.1, affine=True, track_running_stats=True)#    (13): Softplus(beta=1, threshold=20)#  )#)#!0.34538786409513417!!!0.05!0.12879368127915045!naturalscene!!!0.5622698042482571!-2.9017002486805032!512.0!-3.210655629634857!bncnn/bncnn_3_lr0.005_l10.0004_l20.005!!!!!!!!!!!!!!!!!!!!!!!!!!!!!
old_bncnn!3.0!15-10-07!0.005!0.2933768510818481!100.0!<class 'models.BN_CNN.BNCNN'>!False!!bncnn/results.txt!0.01!5.0!!0.0001!!0.6643007666527737!BNCNN(#  (sequential): Sequential(#    (0): Conv2d(40, 8, kernel_size=(15, 15), stride=(1, 1), bias=False)#    (1): Flatten()#    (2): BatchNorm1d(10368, eps=0.001, momentum=0.99, affine=True, track_running_stats=True)#    (3): GaussianNoise(std=0.05)#    (4): ReLU()#    (5): Reshape()#    (6): Conv2d(8, 8, kernel_size=(11, 11), stride=(1, 1), bias=False)#    (7): Flatten()#    (8): BatchNorm1d(5408, eps=0.001, momentum=0.99, affine=True, track_running_stats=True)#    (9): GaussianNoise(std=0.05)#    (10): ReLU()#    (11): Linear(in_features=5408, out_features=5, bias=False)#    (12): BatchNorm1d(5, eps=1e-05, momentum=0.1, affine=True, track_running_stats=True)#    (13): Softplus(beta=1, threshold=20)#  )#)#!0.3120804319298143!!!0.05!0.1027657520677335!naturalscene!!!0.5516002417211914!-3.135457885481114!512.0!-3.2142493724823!bncnn/bncnn_3_lr0.01_l10.0001_l20.005!!!!!!!!!!!!!!!!!!!!!!!!!!!!!
old_bncnn!4.0!15-10-07!0.05!0.28064668774604795!100.0!<class 'models.BN_CNN.BNCNN'>!False!!bncnn/results.txt!0.001!5.0!4.0!0.001!!0.6778796711959961!BNCNN(#  (sequential): Sequential(#    (0): Conv2d(40, 8, kernel_size=(15, 15), stride=(1, 1), bias=False)#    (1): Flatten()#    (2): BatchNorm1d(10368, eps=0.001, momentum=0.99, affine=True, track_running_stats=True)#    (3): GaussianNoise(std=0.05)#    (4): ReLU()#    (5): Reshape()#    (6): Conv2d(8, 8, kernel_size=(11, 11), stride=(1, 1), bias=False)#    (7): Flatten()#    (8): BatchNorm1d(5408, eps=0.001, momentum=0.99, affine=True, track_running_stats=True)#    (9): GaussianNoise(std=0.05)#    (10): ReLU()#    (11): Linear(in_features=5408, out_features=5, bias=False)#    (12): BatchNorm1d(5, eps=1e-05, momentum=0.1, affine=True, track_running_stats=True)#    (13): Softplus(beta=1, threshold=20)#  )#)#!0.34349513754092403!!!0.05!0.1248799254238244!naturalscene!!!0.5450897413757743!-1.888754046520676!512.0!-2.836896777153015!bncnn/bncnn_4_lr0.001_l10.001_l20.05!!!!!!!!!!!!!!!!!!!!!!!!!!!!!
old_bncnn!4.0!15-10-07!0.01!0.2880056232213974!100.0!<class 'models.BN_CNN.BNCNN'>!False!!bncnn/results.txt!0.01!5.0!!1e-06!!0.6730897186457734!BNCNN(#  (sequential): Sequential(#    (0): Conv2d(40, 8, kernel_size=(15, 15), stride=(1, 1), bias=False)#    (1): Flatten()#    (2): BatchNorm1d(10368, eps=0.001, momentum=0.99, affine=True, track_running_stats=True)#    (3): GaussianNoise(std=0.05)#    (4): ReLU()#    (5): Reshape()#    (6): Conv2d(8, 8, kernel_size=(11, 11), stride=(1, 1), bias=False)#    (7): Flatten()#    (8): BatchNorm1d(5408, eps=0.001, momentum=0.99, affine=True, track_running_stats=True)#    (9): GaussianNoise(std=0.05)#    (10): ReLU()#    (11): Linear(in_features=5408, out_features=5, bias=False)#    (12): BatchNorm1d(5, eps=1e-05, momentum=0.1, affine=True, track_running_stats=True)#    (13): Softplus(beta=1, threshold=20)#  )#)#!0.34261674699323824!!!0.05!0.10101590092723796!naturalscene!!!0.5732710286410219!-3.070826592668329!512.0!-3.3504150211811066!bncnn/bncnn_4_lr0.01_l11e-06_l20.01!!!!!!!!!!!!!!!!!!!!!!!!!!!!!
old_bncnn!5.0!15-10-07!0.005!0.3120621919631958!100.0!<class 'models.BN_CNN.BNCNN'>!False!!bncnn/results.txt!0.001!5.0!4.0!0.001!!0.6913328908296633!BNCNN(#  (sequential): Sequential(#    (0): Conv2d(40, 8, kernel_size=(15, 15), stride=(1, 1), bias=False)#    (1): Flatten()#    (2): BatchNorm1d(10368, eps=0.001, momentum=0.99, affine=True, track_running_stats=True)#    (3): GaussianNoise(std=0.05)#    (4): ReLU()#    (5): Reshape()#    (6): Conv2d(8, 8, kernel_size=(11, 11), stride=(1, 1), bias=False)#    (7): Flatten()#    (8): BatchNorm1d(5408, eps=0.001, momentum=0.99, affine=True, track_running_stats=True)#    (9): GaussianNoise(std=0.05)#    (10): ReLU()#    (11): Linear(in_features=5408, out_features=5, bias=False)#    (12): BatchNorm1d(5, eps=1e-05, momentum=0.1, affine=True, track_running_stats=True)#    (13): Softplus(beta=1, threshold=20)#  )#)#!0.3149741491396682!!!0.05!0.08654817888918041!naturalscene!!!0.5851836370903604!-2.6421851229883417!512.0!-3.2650347352027893!bncnn/bncnn_5_lr0.001_l10.001_l20.005!!!!!!!!!!!!!!!!!!!!!!!!!!!!!
old_bncnn!5.0!15-10-07!0.005!0.2569849669933319!100.0!<class 'models.BN_CNN.BNCNN'>!False!!bncnn/results.txt!0.01!5.0!!1e-06!!0.6170729220475681!BNCNN(#  (sequential): Sequential(#    (0): Conv2d(40, 8, kernel_size=(15, 15), stride=(1, 1), bias=False)#    (1): Flatten()#    (2): BatchNorm1d(10368, eps=0.001, momentum=0.99, affine=True, track_running_stats=True)#    (3): GaussianNoise(std=0.05)#    (4): ReLU()#    (5): Reshape()#    (6): Conv2d(8, 8, kernel_size=(11, 11), stride=(1, 1), bias=False)#    (7): Flatten()#    (8): BatchNorm1d(5408, eps=0.001, momentum=0.99, affine=True, track_running_stats=True)#    (9): GaussianNoise(std=0.05)#    (10): ReLU()#    (11): Linear(in_features=5408, out_features=5, bias=False)#    (12): BatchNorm1d(5, eps=1e-05, momentum=0.1, affine=True, track_running_stats=True)#    (13): Softplus(beta=1, threshold=20)#  )#)#!0.38926528494271656!!!0.05!0.11580588993882622!naturalscene!!!0.5905018305988693!-2.776932362877226!512.0!-2.702433913946152!bncnn/bncnn_5_lr0.01_l11e-06_l20.005!!!!!!!!!!!!!!!!!!!!!!!!!!!!!
old_bncnn!6.0!15-10-07!0.05!0.28103094696998604!100.0!<class 'models.BN_CNN.BNCNN'>!False!!bncnn/results.txt!0.001!5.0!4.0!0.0005!!0.6560782851246274!BNCNN(#  (sequential): Sequential(#    (0): Conv2d(40, 8, kernel_size=(15, 15), stride=(1, 1), bias=False)#    (1): Flatten()#    (2): BatchNorm1d(10368, eps=0.001, momentum=0.99, affine=True, track_running_stats=True)#    (3): GaussianNoise(std=0.05)#    (4): ReLU()#    (5): Reshape()#    (6): Conv2d(8, 8, kernel_size=(11, 11), stride=(1, 1), bias=False)#    (7): Flatten()#    (8): BatchNorm1d(5408, eps=0.001, momentum=0.99, affine=True, track_running_stats=True)#    (9): GaussianNoise(std=0.05)#    (10): ReLU()#    (11): Linear(in_features=5408, out_features=5, bias=False)#    (12): BatchNorm1d(5, eps=1e-05, momentum=0.1, affine=True, track_running_stats=True)#    (13): Softplus(beta=1, threshold=20)#  )#)#!0.32394247155461103!!!0.05!0.09605746288697158!naturalscene!!!0.5511382917879664!-2.309814518483336!512.0!-2.9435167610645294!bncnn/bncnn_6_lr0.001_l10.0005_l20.05!!!!!!!!!!!!!!!!!!!!!!!!!!!!!
old_bncnn!7.0!15-10-07!0.005!0.3097404271364212!100.0!<class 'models.BN_CNN.BNCNN'>!False!!bncnn/results.txt!0.001!5.0!4.0!0.0005!!0.6973197650591441!BNCNN(#  (sequential): Sequential(#    (0): Conv2d(40, 8, kernel_size=(15, 15), stride=(1, 1), bias=False)#    (1): Flatten()#    (2): BatchNorm1d(10368, eps=0.001, momentum=0.99, affine=True, track_running_stats=True)#    (3): GaussianNoise(std=0.05)#    (4): ReLU()#    (5): Reshape()#    (6): Conv2d(8, 8, kernel_size=(11, 11), stride=(1, 1), bias=False)#    (7): Flatten()#    (8): BatchNorm1d(5408, eps=0.001, momentum=0.99, affine=True, track_running_stats=True)#    (9): GaussianNoise(std=0.05)#    (10): ReLU()#    (11): Linear(in_features=5408, out_features=5, bias=False)#    (12): BatchNorm1d(5, eps=1e-05, momentum=0.1, affine=True, track_running_stats=True)#    (13): Softplus(beta=1, threshold=20)#  )#)#!0.3083804005261575!!!0.05!0.1025898221509242!naturalscene!!!0.5423800772484794!-2.958131029954683!512.0!-3.2007100582122803!bncnn/bncnn_7_lr0.001_l10.0005_l20.005!!!!!!!!!!!!!!!!!!!!!!!!!!!!!
old_bncnn!8.0!15-10-07!0.05!0.2893591344356537!100.0!<class 'models.BN_CNN.BNCNN'>!False!!bncnn/results.txt!0.0001!5.0!8.0!0.001!!0.683464325561319!BNCNN(#  (sequential): Sequential(#    (0): Conv2d(40, 8, kernel_size=(15, 15), stride=(1, 1), bias=False)#    (1): Flatten()#    (2): BatchNorm1d(10368, eps=0.001, momentum=0.99, affine=True, track_running_stats=True)#    (3): GaussianNoise(std=0.05)#    (4): ReLU()#    (5): Reshape()#    (6): Conv2d(8, 8, kernel_size=(11, 11), stride=(1, 1), bias=False)#    (7): Flatten()#    (8): BatchNorm1d(5408, eps=0.001, momentum=0.99, affine=True, track_running_stats=True)#    (9): GaussianNoise(std=0.05)#    (10): ReLU()#    (11): Linear(in_features=5408, out_features=5, bias=False)#    (12): BatchNorm1d(5, eps=1e-05, momentum=0.1, affine=True, track_running_stats=True)#    (13): Softplus(beta=1, threshold=20)#  )#)#!0.317109775320192!!!0.05!0.09352755294885116!naturalscene!!!0.544520206441398!-2.0004288054339665!512.0!-2.9295909702777863!bncnn/bncnn_8_lr0.0001_l10.001_l20.05!!!!!!!!!!!!!!!!!!!!!!!!!!!!!
old_bncnn!9.0!15-10-07!0.005!0.32908480167388915!100.0!<class 'models.BN_CNN.BNCNN'>!False!!bncnn/results.txt!0.0001!5.0!8.0!0.001!!0.6712703298635708!BNCNN(#  (sequential): Sequential(#    (0): Conv2d(40, 8, kernel_size=(15, 15), stride=(1, 1), bias=False)#    (1): Flatten()#    (2): BatchNorm1d(10368, eps=0.001, momentum=0.99, affine=True, track_running_stats=True)#    (3): GaussianNoise(std=0.05)#    (4): ReLU()#    (5): Reshape()#    (6): Conv2d(8, 8, kernel_size=(11, 11), stride=(1, 1), bias=False)#    (7): Flatten()#    (8): BatchNorm1d(5408, eps=0.001, momentum=0.99, affine=True, track_running_stats=True)#    (9): GaussianNoise(std=0.05)#    (10): ReLU()#    (11): Linear(in_features=5408, out_features=5, bias=False)#    (12): BatchNorm1d(5, eps=1e-05, momentum=0.1, affine=True, track_running_stats=True)#    (13): Softplus(beta=1, threshold=20)#  )#)#!0.3012468382101781!!!0.05!0.08338684926268652!naturalscene!!!0.5669792552988966!-2.6795138825478406!512.0!-3.368282526731491!bncnn/bncnn_9_lr0.0001_l10.001_l20.005!!!!!!!!!!!!!!!!!!!!!!!!!!!!!
bncnnadaptgauss!18.0!15-10-07!0.01!0.2644946545362473!100.0!<class 'models.BN_CNN.BNCNN'>!True!!bncnnadaptgauss/results.txt!0.005!!18.0!0.0001!True!0.6822579937763548!BNCNN(#  (sequential): Sequential(#    (0): Conv2d(40, 8, kernel_size=(15, 15), stride=(1, 1))#    (1): Flatten()#    (2): BatchNorm1d(10368, eps=0.001, momentum=0.99, affine=True, track_running_stats=True)#    (3): GaussianNoise(std=0.05, trainable=False, adapt=True)#    (4): ReLU()#    (5): Reshape()#    (6): Conv2d(8, 8, kernel_size=(11, 11), stride=(1, 1))#    (7): Flatten()#    (8): BatchNorm1d(5408, eps=0.001, momentum=0.99, affine=True, track_running_stats=True)#    (9): GaussianNoise(std=0.05, trainable=False, adapt=True)#    (10): ReLU()#    (11): Linear(in_features=5408, out_features=5, bias=True)#    (12): BatchNorm1d(5, eps=1e-05, momentum=0.1, affine=True, track_running_stats=True)#    (13): Softplus(beta=1, threshold=20)#  )#)#!0.4110192359758649!all!!0.05!0.08660399120265913!naturalscene!!!0.7286423057810992!-3.0286080792299037!512.0!-2.8390240524313413!bncnnadaptgauss/bncnnadaptgauss_18_noise0.05_lr0.005!!!!!!!!!!!!!!!!!!!!!!!!!!!!!
bncnnadaptgauss!19.0!15-10-07!0.01!0.3460561096668243!100.0!<class 'models.BN_CNN.BNCNN'>!True!!bncnnadaptgauss/results.txt!0.0001!!18.0!0.0001!True!0.6076298848880276!BNCNN(#  (sequential): Sequential(#    (0): Conv2d(40, 8, kernel_size=(15, 15), stride=(1, 1))#    (1): Flatten()#    (2): BatchNorm1d(10368, eps=0.001, momentum=0.99, affine=True, track_running_stats=True)#    (3): GaussianNoise(std=0.05, trainable=False, adapt=True)#    (4): ReLU()#    (5): Reshape()#    (6): Conv2d(8, 8, kernel_size=(11, 11), stride=(1, 1))#    (7): Flatten()#    (8): BatchNorm1d(5408, eps=0.001, momentum=0.99, affine=True, track_running_stats=True)#    (9): GaussianNoise(std=0.05, trainable=False, adapt=True)#    (10): ReLU()#    (11): Linear(in_features=5408, out_features=5, bias=True)#    (12): BatchNorm1d(5, eps=1e-05, momentum=0.1, affine=True, track_running_stats=True)#    (13): Softplus(beta=1, threshold=20)#  )#)#!0.34990806724582885!all!!0.05!0.09845016560535938!naturalscene!!!0.6058217338555625!-4.0079975396080085!512.0!-3.7224684934572!bncnnadaptgauss/bncnnadaptgauss_19_noise0.05_lr0.0001!!!!!!!!!!!!!!!!!!!!!!!!!!!!!
bncnnadaptgauss!20.0!15-10-07!0.01!0.2734157085418701!100.0!<class 'models.BN_CNN.BNCNN'>!True!!bncnnadaptgauss/results.txt!0.005!!18.0!0.0001!True!0.6896707683610707!BNCNN(#  (sequential): Sequential(#    (0): Conv2d(40, 8, kernel_size=(15, 15), stride=(1, 1))#    (1): Flatten()#    (2): BatchNorm1d(10368, eps=0.001, momentum=0.99, affine=True, track_running_stats=True)#    (3): GaussianNoise(std=0.1, trainable=False, adapt=True)#    (4): ReLU()#    (5): Reshape()#    (6): Conv2d(8, 8, kernel_size=(11, 11), stride=(1, 1))#    (7): Flatten()#    (8): BatchNorm1d(5408, eps=0.001, momentum=0.99, affine=True, track_running_stats=True)#    (9): GaussianNoise(std=0.1, trainable=False, adapt=True)#    (10): ReLU()#    (11): Linear(in_features=5408, out_features=5, bias=True)#    (12): BatchNorm1d(5, eps=1e-05, momentum=0.1, affine=True, track_running_stats=True)#    (13): Softplus(beta=1, threshold=20)#  )#)#!0.42689109445612!all!!0.1!0.12259060963922065!naturalscene!!!0.7382655769996813!-3.0049865288971778!512.0!-3.01822484314107!bncnnadaptgauss/bncnnadaptgauss_20_noise0.1_lr0.005!!!!!!!!!!!!!!!!!!!!!!!!!!!!!
bncnnadaptgauss!21.0!15-10-07!0.01!0.3432451367378235!100.0!<class 'models.BN_CNN.BNCNN'>!True!!bncnnadaptgauss/results.txt!0.0001!!18.0!0.0001!True!0.6027194689696783!BNCNN(#  (sequential): Sequential(#    (0): Conv2d(40, 8, kernel_size=(15, 15), stride=(1, 1))#    (1): Flatten()#    (2): BatchNorm1d(10368, eps=0.001, momentum=0.99, affine=True, track_running_stats=True)#    (3): GaussianNoise(std=0.1, trainable=False, adapt=True)#    (4): ReLU()#    (5): Reshape()#    (6): Conv2d(8, 8, kernel_size=(11, 11), stride=(1, 1))#    (7): Flatten()#    (8): BatchNorm1d(5408, eps=0.001, momentum=0.99, affine=True, track_running_stats=True)#    (9): GaussianNoise(std=0.1, trainable=False, adapt=True)#    (10): ReLU()#    (11): Linear(in_features=5408, out_features=5, bias=True)#    (12): BatchNorm1d(5, eps=1e-05, momentum=0.1, affine=True, track_running_stats=True)#    (13): Softplus(beta=1, threshold=20)#  )#)#!0.3261832811939704!all!!0.1!0.07768665194171942!naturalscene!!!0.5836776618107732!-3.8883606513700872!512.0!-3.5873113568577537!bncnnadaptgauss/bncnnadaptgauss_21_noise0.1_lr0.0001!!!!!!!!!!!!!!!!!!!!!!!!!!!!!
bncnnadaptgauss!22.0!15-10-07!0.01!0.2757522046566009!100.0!<class 'models.BN_CNN.BNCNN'>!True!!bncnnadaptgauss/results.txt!0.005!!18.0!0.0001!True!0.6819489429085139!BNCNN(#  (sequential): Sequential(#    (0): Conv2d(40, 8, kernel_size=(15, 15), stride=(1, 1))#    (1): Flatten()#    (2): BatchNorm1d(10368, eps=0.001, momentum=0.99, affine=True, track_running_stats=True)#    (3): GaussianNoise(std=0.15, trainable=False, adapt=True)#    (4): ReLU()#    (5): Reshape()#    (6): Conv2d(8, 8, kernel_size=(11, 11), stride=(1, 1))#    (7): Flatten()#    (8): BatchNorm1d(5408, eps=0.001, momentum=0.99, affine=True, track_running_stats=True)#    (9): GaussianNoise(std=0.15, trainable=False, adapt=True)#    (10): ReLU()#    (11): Linear(in_features=5408, out_features=5, bias=True)#    (12): BatchNorm1d(5, eps=1e-05, momentum=0.1, affine=True, track_running_stats=True)#    (13): Softplus(beta=1, threshold=20)#  )#)#!0.41972329691570026!all!!0.15!0.1230215041928751!naturalscene!!!0.7261115019676243!-2.9763224666115025!512.0!-3.2357531648522126!bncnnadaptgauss/bncnnadaptgauss_22_noise0.15_lr0.005!!!!!!!!!!!!!!!!!!!!!!!!!!!!!
bncnnadaptgauss!23.0!15-10-07!0.01!0.3395799696445465!100.0!<class 'models.BN_CNN.BNCNN'>!True!!bncnnadaptgauss/results.txt!0.0001!!18.0!0.0001!True!0.6314752061277641!BNCNN(#  (sequential): Sequential(#    (0): Conv2d(40, 8, kernel_size=(15, 15), stride=(1, 1))#    (1): Flatten()#    (2): BatchNorm1d(10368, eps=0.001, momentum=0.99, affine=True, track_running_stats=True)#    (3): GaussianNoise(std=0.15, trainable=False, adapt=True)#    (4): ReLU()#    (5): Reshape()#    (6): Conv2d(8, 8, kernel_size=(11, 11), stride=(1, 1))#    (7): Flatten()#    (8): BatchNorm1d(5408, eps=0.001, momentum=0.99, affine=True, track_running_stats=True)#    (9): GaussianNoise(std=0.15, trainable=False, adapt=True)#    (10): ReLU()#    (11): Linear(in_features=5408, out_features=5, bias=True)#    (12): BatchNorm1d(5, eps=1e-05, momentum=0.1, affine=True, track_running_stats=True)#    (13): Softplus(beta=1, threshold=20)#  )#)#!0.33250733339196525!all!!0.15!0.08600920750518162!naturalscene!!!0.5939521368800433!-3.8641697197118674!512.0!-3.555402797765056!bncnnadaptgauss/bncnnadaptgauss_23_noise0.15_lr0.0001!!!!!!!!!!!!!!!!!!!!!!!!!!!!!
bncnnadaptgauss!24.0!15-10-07!0.01!0.265457421541214!100.0!<class 'models.BN_CNN.BNCNN'>!True!!bncnnadaptgauss/results.txt!0.005!!18.0!0.0001!True!0.6738618273780567!BNCNN(#  (sequential): Sequential(#    (0): Conv2d(40, 8, kernel_size=(15, 15), stride=(1, 1))#    (1): Flatten()#    (2): BatchNorm1d(10368, eps=0.001, momentum=0.99, affine=True, track_running_stats=True)#    (3): GaussianNoise(std=0.2, trainable=False, adapt=True)#    (4): ReLU()#    (5): Reshape()#    (6): Conv2d(8, 8, kernel_size=(11, 11), stride=(1, 1))#    (7): Flatten()#    (8): BatchNorm1d(5408, eps=0.001, momentum=0.99, affine=True, track_running_stats=True)#    (9): GaussianNoise(std=0.2, trainable=False, adapt=True)#    (10): ReLU()#    (11): Linear(in_features=5408, out_features=5, bias=True)#    (12): BatchNorm1d(5, eps=1e-05, momentum=0.1, affine=True, track_running_stats=True)#    (13): Softplus(beta=1, threshold=20)#  )#)#!0.4000964533924263!all!!0.2!0.13082078326841273!naturalscene!!!0.6859029242338435!-2.996069474277813!512.0!-2.86758135996206!bncnnadaptgauss/bncnnadaptgauss_24_noise0.2_lr0.005!!!!!!!!!!!!!!!!!!!!!!!!!!!!!
bncnnadaptgauss!25.0!15-10-07!0.01!0.3392699182033539!100.0!<class 'models.BN_CNN.BNCNN'>!True!!bncnnadaptgauss/results.txt!0.0001!!18.0!0.0001!True!0.644997070611856!BNCNN(#  (sequential): Sequential(#    (0): Conv2d(40, 8, kernel_size=(15, 15), stride=(1, 1))#    (1): Flatten()#    (2): BatchNorm1d(10368, eps=0.001, momentum=0.99, affine=True, track_running_stats=True)#    (3): GaussianNoise(std=0.2, trainable=False, adapt=True)#    (4): ReLU()#    (5): Reshape()#    (6): Conv2d(8, 8, kernel_size=(11, 11), stride=(1, 1))#    (7): Flatten()#    (8): BatchNorm1d(5408, eps=0.001, momentum=0.99, affine=True, track_running_stats=True)#    (9): GaussianNoise(std=0.2, trainable=False, adapt=True)#    (10): ReLU()#    (11): Linear(in_features=5408, out_features=5, bias=True)#    (12): BatchNorm1d(5, eps=1e-05, momentum=0.1, affine=True, track_running_stats=True)#    (13): Softplus(beta=1, threshold=20)#  )#)#!0.3057663605212489!all!!0.2!0.08035830554916522!naturalscene!!!0.5267815661076192!-3.8112269873712576!512.0!-3.6268978357020383!bncnnadaptgauss/bncnnadaptgauss_25_noise0.2_lr0.0001!!!!!!!!!!!!!!!!!!!!!!!!!!!!!
bncnnadaptgauss!26.0!15-10-07!0.01!0.26090507209300995!100.0!<class 'models.BN_CNN.BNCNN'>!True!!bncnnadaptgauss/results.txt!0.005!!18.0!0.0001!True!0.668198398012396!BNCNN(#  (sequential): Sequential(#    (0): Conv2d(40, 8, kernel_size=(15, 15), stride=(1, 1))#    (1): Flatten()#    (2): BatchNorm1d(10368, eps=0.001, momentum=0.99, affine=True, track_running_stats=True)#    (3): GaussianNoise(std=0.3, trainable=False, adapt=True)#    (4): ReLU()#    (5): Reshape()#    (6): Conv2d(8, 8, kernel_size=(11, 11), stride=(1, 1))#    (7): Flatten()#    (8): BatchNorm1d(5408, eps=0.001, momentum=0.99, affine=True, track_running_stats=True)#    (9): GaussianNoise(std=0.3, trainable=False, adapt=True)#    (10): ReLU()#    (11): Linear(in_features=5408, out_features=5, bias=True)#    (12): BatchNorm1d(5, eps=1e-05, momentum=0.1, affine=True, track_running_stats=True)#    (13): Softplus(beta=1, threshold=20)#  )#)#!0.4173425565863354!all!!0.3!0.11964991214727735!naturalscene!!!0.7167171350282274!-2.8799847260140012!512.0!-2.7366478285875933!bncnnadaptgauss/bncnnadaptgauss_26_noise0.3_lr0.005!!!!!!!!!!!!!!!!!!!!!!!!!!!!!
bncnnadaptgauss!27.0!15-10-07!0.01!0.33581348657608034!100.0!<class 'models.BN_CNN.BNCNN'>!True!!bncnnadaptgauss/results.txt!0.0001!!18.0!0.0001!True!0.6695797433175401!BNCNN(#  (sequential): Sequential(#    (0): Conv2d(40, 8, kernel_size=(15, 15), stride=(1, 1))#    (1): Flatten()#    (2): BatchNorm1d(10368, eps=0.001, momentum=0.99, affine=True, track_running_stats=True)#    (3): GaussianNoise(std=0.3, trainable=False, adapt=True)#    (4): ReLU()#    (5): Reshape()#    (6): Conv2d(8, 8, kernel_size=(11, 11), stride=(1, 1))#    (7): Flatten()#    (8): BatchNorm1d(5408, eps=0.001, momentum=0.99, affine=True, track_running_stats=True)#    (9): GaussianNoise(std=0.3, trainable=False, adapt=True)#    (10): ReLU()#    (11): Linear(in_features=5408, out_features=5, bias=True)#    (12): BatchNorm1d(5, eps=1e-05, momentum=0.1, affine=True, track_running_stats=True)#    (13): Softplus(beta=1, threshold=20)#  )#)#!0.3264536414377582!all!!0.3!0.08526264950031781!naturalscene!!!0.5752519900348952!-3.6984103317534034!512.0!-3.5733742817537864!bncnnadaptgauss/bncnnadaptgauss_27_noise0.3_lr0.0001!!!!!!!!!!!!!!!!!!!!!!!!!!!!!
bncnnMultiData!0.0!15-10-07!0.01!0.2868324607610703!100.0!<class 'models.BN_CNN.BNCNN'>!True!!bncnnMultiData/results.txt!0.0075!!0.0!5e-05!!0.6793319699796211!BNCNN(#  (sequential): Sequential(#    (0): Conv2d(40, 8, kernel_size=(15, 15), stride=(1, 1))#    (1): Flatten()#    (2): BatchNorm1d(10368, eps=0.001, momentum=0.99, affine=True, track_running_stats=True)#    (3): GaussianNoise(std=0.05, trainable=False)#    (4): ReLU()#    (5): Reshape()#    (6): Conv2d(8, 8, kernel_size=(11, 11), stride=(1, 1))#    (7): Flatten()#    (8): BatchNorm1d(5408, eps=0.001, momentum=0.99, affine=True, track_running_stats=True)#    (9): GaussianNoise(std=0.05, trainable=False)#    (10): ReLU()#    (11): Linear(in_features=5408, out_features=5, bias=True)#    (12): BatchNorm1d(5, eps=1e-05, momentum=0.1, affine=True, track_running_stats=True)#    (13): Softplus(beta=1, threshold=20)#  )#)#!0.3974883697453256!all!-6.123912578674207!0.05!0.11913786957343153!whitenoise!!-6.3672059118118405!0.6969901000346024!!512.0!!bncnnMultiData/bncnnMultiData_0_dataset15-10-07_stim_typewhitenoise_lr0.0075_l20.01!!!!!!!!!!!!!!!!!!!!!!!!!!!!!
bncnnMultiData!10.0!15-10-07!0.01!0.2733999311923981!100.0!<class 'models.BN_CNN.BNCNN'>!True!!bncnnMultiData/results.txt!0.001!!0.0!5e-05!!0.6400031467795377!BNCNN(#  (sequential): Sequential(#    (0): Conv2d(40, 8, kernel_size=(15, 15), stride=(1, 1))#    (1): Flatten()#    (2): BatchNorm1d(10368, eps=0.001, momentum=0.99, affine=True, track_running_stats=True)#    (3): GaussianNoise(std=0.05, trainable=False)#    (4): ReLU()#    (5): Reshape()#    (6): Conv2d(8, 8, kernel_size=(11, 11), stride=(1, 1))#    (7): Flatten()#    (8): BatchNorm1d(5408, eps=0.001, momentum=0.99, affine=True, track_running_stats=True)#    (9): GaussianNoise(std=0.05, trainable=False)#    (10): ReLU()#    (11): Linear(in_features=5408, out_features=5, bias=True)#    (12): BatchNorm1d(5, eps=1e-05, momentum=0.1, affine=True, track_running_stats=True)#    (13): Softplus(beta=1, threshold=20)#  )#)#!0.36271566842774894!all!-2.929382500426982!0.05!0.1341944779313401!naturalscene!!-3.035741314449281!0.6044254954098309!!512.0!!bncnnMultiData/bncnnMultiData_10_dataset15-10-07_stim_typenaturalscene_lr0.001_l20.01!!!!!!!!!!!!!!!!!!!!!!!!!!!!!
bncnnMultiData!11.0!15-10-07!0.001!0.320021790266037!100.0!<class 'models.BN_CNN.BNCNN'>!True!!bncnnMultiData/results.txt!0.001!!0.0!5e-05!!0.6573384118857031!BNCNN(#  (sequential): Sequential(#    (0): Conv2d(40, 8, kernel_size=(15, 15), stride=(1, 1))#    (1): Flatten()#    (2): BatchNorm1d(10368, eps=0.001, momentum=0.99, affine=True, track_running_stats=True)#    (3): GaussianNoise(std=0.05, trainable=False)#    (4): ReLU()#    (5): Reshape()#    (6): Conv2d(8, 8, kernel_size=(11, 11), stride=(1, 1))#    (7): Flatten()#    (8): BatchNorm1d(5408, eps=0.001, momentum=0.99, affine=True, track_running_stats=True)#    (9): GaussianNoise(std=0.05, trainable=False)#    (10): ReLU()#    (11): Linear(in_features=5408, out_features=5, bias=True)#    (12): BatchNorm1d(5, eps=1e-05, momentum=0.1, affine=True, track_running_stats=True)#    (13): Softplus(beta=1, threshold=20)#  )#)#!0.3683138034366678!all!-3.6542506591949855!0.05!0.12782758748612522!naturalscene!!-3.6454120462656383!0.6033573834846543!!512.0!!bncnnMultiData/bncnnMultiData_11_dataset15-10-07_stim_typenaturalscene_lr0.001_l20.001!!!!!!!!!!!!!!!!!!!!!!!!!!!!!
bncnnMultiData!12.0!15-11-21a!0.01!0.2924223095178604!100.0!<class 'models.BN_CNN.BNCNN'>!True!!bncnnMultiData/results.txt!0.0075!!0.0!5e-05!!0.6678009638506995!BNCNN(#  (sequential): Sequential(#    (0): Conv2d(40, 8, kernel_size=(15, 15), stride=(1, 1))#    (1): Flatten()#    (2): BatchNorm1d(10368, eps=0.001, momentum=0.99, affine=True, track_running_stats=True)#    (3): GaussianNoise(std=0.05, trainable=False)#    (4): ReLU()#    (5): Reshape()#    (6): Conv2d(8, 8, kernel_size=(11, 11), stride=(1, 1))#    (7): Flatten()#    (8): BatchNorm1d(5408, eps=0.001, momentum=0.99, affine=True, track_running_stats=True)#    (9): GaussianNoise(std=0.05, trainable=False)#    (10): ReLU()#    (11): Linear(in_features=5408, out_features=4, bias=True)#    (12): BatchNorm1d(4, eps=1e-05, momentum=0.1, affine=True, track_running_stats=True)#    (13): Softplus(beta=1, threshold=20)#  )#)#!0.4879513783920154!all!-11.051765143149169!0.05!0.18600762405225849!whitenoise!!-11.326380866325461!0.7444942391184857!!512.0!!bncnnMultiData/bncnnMultiData_12_dataset15-11-21a_stim_typewhitenoise_lr0.0075_l20.01!!!!!!!!!!!!!!!!!!!!!!!!!!!!!
bncnnMultiData!13.0!15-11-21a!0.001!0.3061957955360413!100.0!<class 'models.BN_CNN.BNCNN'>!True!!bncnnMultiData/results.txt!0.0075!!0.0!5e-05!!0.6500944284704747!BNCNN(#  (sequential): Sequential(#    (0): Conv2d(40, 8, kernel_size=(15, 15), stride=(1, 1))#    (1): Flatten()#    (2): BatchNorm1d(10368, eps=0.001, momentum=0.99, affine=True, track_running_stats=True)#    (3): GaussianNoise(std=0.05, trainable=False)#    (4): ReLU()#    (5): Reshape()#    (6): Conv2d(8, 8, kernel_size=(11, 11), stride=(1, 1))#    (7): Flatten()#    (8): BatchNorm1d(5408, eps=0.001, momentum=0.99, affine=True, track_running_stats=True)#    (9): GaussianNoise(std=0.05, trainable=False)#    (10): ReLU()#    (11): Linear(in_features=5408, out_features=4, bias=True)#    (12): BatchNorm1d(4, eps=1e-05, momentum=0.1, affine=True, track_running_stats=True)#    (13): Softplus(beta=1, threshold=20)#  )#)#!0.4701018977568824!all!-11.602140332393901!0.05!0.1664547309252135!whitenoise!!-12.281162195795442!0.7210351912042816!!512.0!!bncnnMultiData/bncnnMultiData_13_dataset15-11-21a_stim_typewhitenoise_lr0.0075_l20.001!!!!!!!!!!!!!!!!!!!!!!!!!!!!!
bncnnMultiData!14.0!15-11-21a!0.01!0.2868110835552216!100.0!<class 'models.BN_CNN.BNCNN'>!True!!bncnnMultiData/results.txt!0.005!!0.0!5e-05!!0.6796824902101347!BNCNN(#  (sequential): Sequential(#    (0): Conv2d(40, 8, kernel_size=(15, 15), stride=(1, 1))#    (1): Flatten()#    (2): BatchNorm1d(10368, eps=0.001, momentum=0.99, affine=True, track_running_stats=True)#    (3): GaussianNoise(std=0.05, trainable=False)#    (4): ReLU()#    (5): Reshape()#    (6): Conv2d(8, 8, kernel_size=(11, 11), stride=(1, 1))#    (7): Flatten()#    (8): BatchNorm1d(5408, eps=0.001, momentum=0.99, affine=True, track_running_stats=True)#    (9): GaussianNoise(std=0.05, trainable=False)#    (10): ReLU()#    (11): Linear(in_features=5408, out_features=4, bias=True)#    (12): BatchNorm1d(4, eps=1e-05, momentum=0.1, affine=True, track_running_stats=True)#    (13): Softplus(beta=1, threshold=20)#  )#)#!0.4871235117557045!all!-10.62432303859714!0.05!0.1656474318916222!whitenoise!!-11.283817374688287!0.6904460482227118!!512.0!!bncnnMultiData/bncnnMultiData_14_dataset15-11-21a_stim_typewhitenoise_lr0.005_l20.01!!!!!!!!!!!!!!!!!!!!!!!!!!!!!
bncnnMultiData!15.0!15-11-21a!0.001!0.30617325007915497!100.0!<class 'models.BN_CNN.BNCNN'>!True!!bncnnMultiData/results.txt!0.005!!0.0!5e-05!!0.6312392851738721!BNCNN(#  (sequential): Sequential(#    (0): Conv2d(40, 8, kernel_size=(15, 15), stride=(1, 1))#    (1): Flatten()#    (2): BatchNorm1d(10368, eps=0.001, momentum=0.99, affine=True, track_running_stats=True)#    (3): GaussianNoise(std=0.05, trainable=False)#    (4): ReLU()#    (5): Reshape()#    (6): Conv2d(8, 8, kernel_size=(11, 11), stride=(1, 1))#    (7): Flatten()#    (8): BatchNorm1d(5408, eps=0.001, momentum=0.99, affine=True, track_running_stats=True)#    (9): GaussianNoise(std=0.05, trainable=False)#    (10): ReLU()#    (11): Linear(in_features=5408, out_features=4, bias=True)#    (12): BatchNorm1d(4, eps=1e-05, momentum=0.1, affine=True, track_running_stats=True)#    (13): Softplus(beta=1, threshold=20)#  )#)#!0.4693825690078666!all!-11.71170430291022!0.05!0.17263979850890349!whitenoise!!-12.494493153659825!0.6747675709305082!!512.0!!bncnnMultiData/bncnnMultiData_15_dataset15-11-21a_stim_typewhitenoise_lr0.005_l20.001!!!!!!!!!!!!!!!!!!!!!!!!!!!!!
bncnnMultiData!16.0!15-11-21a!0.01!0.2987440153956413!100.0!<class 'models.BN_CNN.BNCNN'>!True!!bncnnMultiData/results.txt!0.001!!0.0!5e-05!!0.6706390732372096!BNCNN(#  (sequential): Sequential(#    (0): Conv2d(40, 8, kernel_size=(15, 15), stride=(1, 1))#    (1): Flatten()#    (2): BatchNorm1d(10368, eps=0.001, momentum=0.99, affine=True, track_running_stats=True)#    (3): GaussianNoise(std=0.05, trainable=False)#    (4): ReLU()#    (5): Reshape()#    (6): Conv2d(8, 8, kernel_size=(11, 11), stride=(1, 1))#    (7): Flatten()#    (8): BatchNorm1d(5408, eps=0.001, momentum=0.99, affine=True, track_running_stats=True)#    (9): GaussianNoise(std=0.05, trainable=False)#    (10): ReLU()#    (11): Linear(in_features=5408, out_features=4, bias=True)#    (12): BatchNorm1d(4, eps=1e-05, momentum=0.1, affine=True, track_running_stats=True)#    (13): Softplus(beta=1, threshold=20)#  )#)#!0.5109365514398702!all!-10.974909796186692!0.05!0.20905054793775416!whitenoise!!-11.997479695540207!0.6968509098766363!!512.0!!bncnnMultiData/bncnnMultiData_16_dataset15-11-21a_stim_typewhitenoise_lr0.001_l20.01!!!!!!!!!!!!!!!!!!!!!!!!!!!!!
bncnnMultiData!17.0!15-11-21a!0.001!0.32659371197223663!100.0!<class 'models.BN_CNN.BNCNN'>!True!!bncnnMultiData/results.txt!0.001!!0.0!5e-05!!0.6047796035708028!BNCNN(#  (sequential): Sequential(#    (0): Conv2d(40, 8, kernel_size=(15, 15), stride=(1, 1))#    (1): Flatten()#    (2): BatchNorm1d(10368, eps=0.001, momentum=0.99, affine=True, track_running_stats=True)#    (3): GaussianNoise(std=0.05, trainable=False)#    (4): ReLU()#    (5): Reshape()#    (6): Conv2d(8, 8, kernel_size=(11, 11), stride=(1, 1))#    (7): Flatten()#    (8): BatchNorm1d(5408, eps=0.001, momentum=0.99, affine=True, track_running_stats=True)#    (9): GaussianNoise(std=0.05, trainable=False)#    (10): ReLU()#    (11): Linear(in_features=5408, out_features=4, bias=True)#    (12): BatchNorm1d(4, eps=1e-05, momentum=0.1, affine=True, track_running_stats=True)#    (13): Softplus(beta=1, threshold=20)#  )#)#!0.4877539534992345!all!-12.30976625967378!0.05!0.16839846397703806!whitenoise!!-12.938421925448365!0.6674773741308785!!512.0!!bncnnMultiData/bncnnMultiData_17_dataset15-11-21a_stim_typewhitenoise_lr0.001_l20.001!!!!!!!!!!!!!!!!!!!!!!!!!!!!!
bncnnMultiData!18.0!15-11-21a!0.01!0.2781483605504036!100.0!<class 'models.BN_CNN.BNCNN'>!True!!bncnnMultiData/results.txt!0.0075!!0.0!5e-05!!0.6808543872585126!BNCNN(#  (sequential): Sequential(#    (0): Conv2d(40, 8, kernel_size=(15, 15), stride=(1, 1))#    (1): Flatten()#    (2): BatchNorm1d(10368, eps=0.001, momentum=0.99, affine=True, track_running_stats=True)#    (3): GaussianNoise(std=0.05, trainable=False)#    (4): ReLU()#    (5): Reshape()#    (6): Conv2d(8, 8, kernel_size=(11, 11), stride=(1, 1))#    (7): Flatten()#    (8): BatchNorm1d(5408, eps=0.001, momentum=0.99, affine=True, track_running_stats=True)#    (9): GaussianNoise(std=0.05, trainable=False)#    (10): ReLU()#    (11): Linear(in_features=5408, out_features=4, bias=True)#    (12): BatchNorm1d(4, eps=1e-05, momentum=0.1, affine=True, track_running_stats=True)#    (13): Softplus(beta=1, threshold=20)#  )#)#!0.5603681239157472!all!-9.173741672319007!0.05!0.21471798547343826!naturalscene!!-9.688306241013883!0.7884715204007411!!512.0!!bncnnMultiData/bncnnMultiData_18_dataset15-11-21a_stim_typenaturalscene_lr0.0075_l20.01!!!!!!!!!!!!!!!!!!!!!!!!!!!!!
bncnnMultiData!19.0!15-11-21a!0.001!0.29840271919965744!100.0!<class 'models.BN_CNN.BNCNN'>!True!!bncnnMultiData/results.txt!0.0075!!0.0!5e-05!!0.7131443534622071!BNCNN(#  (sequential): Sequential(#    (0): Conv2d(40, 8, kernel_size=(15, 15), stride=(1, 1))#    (1): Flatten()#    (2): BatchNorm1d(10368, eps=0.001, momentum=0.99, affine=True, track_running_stats=True)#    (3): GaussianNoise(std=0.05, trainable=False)#    (4): ReLU()#    (5): Reshape()#    (6): Conv2d(8, 8, kernel_size=(11, 11), stride=(1, 1))#    (7): Flatten()#    (8): BatchNorm1d(5408, eps=0.001, momentum=0.99, affine=True, track_running_stats=True)#    (9): GaussianNoise(std=0.05, trainable=False)#    (10): ReLU()#    (11): Linear(in_features=5408, out_features=4, bias=True)#    (12): BatchNorm1d(4, eps=1e-05, momentum=0.1, affine=True, track_running_stats=True)#    (13): Softplus(beta=1, threshold=20)#  )#)#!0.4935455914291642!all!-10.73602004953318!0.05!0.18077070281228505!naturalscene!!-10.5492980095416!0.7585787030920409!!512.0!!bncnnMultiData/bncnnMultiData_19_dataset15-11-21a_stim_typenaturalscene_lr0.0075_l20.001!!!!!!!!!!!!!!!!!!!!!!!!!!!!!
bncnnMultiData!1.0!15-10-07!0.001!0.29539153873920443!100.0!<class 'models.BN_CNN.BNCNN'>!True!!bncnnMultiData/results.txt!0.0075!!0.0!5e-05!!0.6960563652675501!BNCNN(#  (sequential): Sequential(#    (0): Conv2d(40, 8, kernel_size=(15, 15), stride=(1, 1))#    (1): Flatten()#    (2): BatchNorm1d(10368, eps=0.001, momentum=0.99, affine=True, track_running_stats=True)#    (3): GaussianNoise(std=0.05, trainable=False)#    (4): ReLU()#    (5): Reshape()#    (6): Conv2d(8, 8, kernel_size=(11, 11), stride=(1, 1))#    (7): Flatten()#    (8): BatchNorm1d(5408, eps=0.001, momentum=0.99, affine=True, track_running_stats=True)#    (9): GaussianNoise(std=0.05, trainable=False)#    (10): ReLU()#    (11): Linear(in_features=5408, out_features=5, bias=True)#    (12): BatchNorm1d(5, eps=1e-05, momentum=0.1, affine=True, track_running_stats=True)#    (13): Softplus(beta=1, threshold=20)#  )#)#!0.3770604536471057!all!-6.462511945537701!0.05!0.13566057730360487!whitenoise!!-6.69658257195313!0.6253814984279613!!512.0!!bncnnMultiData/bncnnMultiData_1_dataset15-10-07_stim_typewhitenoise_lr0.0075_l20.001!!!!!!!!!!!!!!!!!!!!!!!!!!!!!
bncnnMultiData!20.0!15-11-21a!0.01!0.2823885455727577!100.0!<class 'models.BN_CNN.BNCNN'>!True!!bncnnMultiData/results.txt!0.005!!0.0!5e-05!!0.6763870904733795!BNCNN(#  (sequential): Sequential(#    (0): Conv2d(40, 8, kernel_size=(15, 15), stride=(1, 1))#    (1): Flatten()#    (2): BatchNorm1d(10368, eps=0.001, momentum=0.99, affine=True, track_running_stats=True)#    (3): GaussianNoise(std=0.05, trainable=False)#    (4): ReLU()#    (5): Reshape()#    (6): Conv2d(8, 8, kernel_size=(11, 11), stride=(1, 1))#    (7): Flatten()#    (8): BatchNorm1d(5408, eps=0.001, momentum=0.99, affine=True, track_running_stats=True)#    (9): GaussianNoise(std=0.05, trainable=False)#    (10): ReLU()#    (11): Linear(in_features=5408, out_features=4, bias=True)#    (12): BatchNorm1d(4, eps=1e-05, momentum=0.1, affine=True, track_running_stats=True)#    (13): Softplus(beta=1, threshold=20)#  )#)#!0.5305747053422311!all!-10.005396384805863!0.05!0.2178962829725969!naturalscene!!-9.88635465570165!0.7530752970248705!!512.0!!bncnnMultiData/bncnnMultiData_20_dataset15-11-21a_stim_typenaturalscene_lr0.005_l20.01!!!!!!!!!!!!!!!!!!!!!!!!!!!!!
bncnnMultiData!21.0!15-11-21a!0.001!0.3064836934208869!100.0!<class 'models.BN_CNN.BNCNN'>!True!!bncnnMultiData/results.txt!0.005!!0.0!5e-05!!0.7189628420612704!BNCNN(#  (sequential): Sequential(#    (0): Conv2d(40, 8, kernel_size=(15, 15), stride=(1, 1))#    (1): Flatten()#    (2): BatchNorm1d(10368, eps=0.001, momentum=0.99, affine=True, track_running_stats=True)#    (3): GaussianNoise(std=0.05, trainable=False)#    (4): ReLU()#    (5): Reshape()#    (6): Conv2d(8, 8, kernel_size=(11, 11), stride=(1, 1))#    (7): Flatten()#    (8): BatchNorm1d(5408, eps=0.001, momentum=0.99, affine=True, track_running_stats=True)#    (9): GaussianNoise(std=0.05, trainable=False)#    (10): ReLU()#    (11): Linear(in_features=5408, out_features=4, bias=True)#    (12): BatchNorm1d(4, eps=1e-05, momentum=0.1, affine=True, track_running_stats=True)#    (13): Softplus(beta=1, threshold=20)#  )#)#!0.5147491555241119!all!-10.87955951279946!0.05!0.17246602108773035!naturalscene!!-10.663349400458474!0.7672881635863223!!512.0!!bncnnMultiData/bncnnMultiData_21_dataset15-11-21a_stim_typenaturalscene_lr0.005_l20.001!!!!!!!!!!!!!!!!!!!!!!!!!!!!!
bncnnMultiData!22.0!15-11-21a!0.01!0.3070943579077721!100.0!<class 'models.BN_CNN.BNCNN'>!True!!bncnnMultiData/results.txt!0.001!!0.0!5e-05!!0.7170867380755459!BNCNN(#  (sequential): Sequential(#    (0): Conv2d(40, 8, kernel_size=(15, 15), stride=(1, 1))#    (1): Flatten()#    (2): BatchNorm1d(10368, eps=0.001, momentum=0.99, affine=True, track_running_stats=True)#    (3): GaussianNoise(std=0.05, trainable=False)#    (4): ReLU()#    (5): Reshape()#    (6): Conv2d(8, 8, kernel_size=(11, 11), stride=(1, 1))#    (7): Flatten()#    (8): BatchNorm1d(5408, eps=0.001, momentum=0.99, affine=True, track_running_stats=True)#    (9): GaussianNoise(std=0.05, trainable=False)#    (10): ReLU()#    (11): Linear(in_features=5408, out_features=4, bias=True)#    (12): BatchNorm1d(4, eps=1e-05, momentum=0.1, affine=True, track_running_stats=True)#    (13): Softplus(beta=1, threshold=20)#  )#)#!0.5015538353229688!all!-10.783156317975225!0.05!0.20464516793919565!naturalscene!!-10.366179163459561!0.7135020571426621!!512.0!!bncnnMultiData/bncnnMultiData_22_dataset15-11-21a_stim_typenaturalscene_lr0.001_l20.01!!!!!!!!!!!!!!!!!!!!!!!!!!!!!
bncnnMultiData!23.0!15-11-21a!0.001!0.33389949053525925!100.0!<class 'models.BN_CNN.BNCNN'>!True!!bncnnMultiData/results.txt!0.001!!0.0!5e-05!!0.6943337016376131!BNCNN(#  (sequential): Sequential(#    (0): Conv2d(40, 8, kernel_size=(15, 15), stride=(1, 1))#    (1): Flatten()#    (2): BatchNorm1d(10368, eps=0.001, momentum=0.99, affine=True, track_running_stats=True)#    (3): GaussianNoise(std=0.05, trainable=False)#    (4): ReLU()#    (5): Reshape()#    (6): Conv2d(8, 8, kernel_size=(11, 11), stride=(1, 1))#    (7): Flatten()#    (8): BatchNorm1d(5408, eps=0.001, momentum=0.99, affine=True, track_running_stats=True)#    (9): GaussianNoise(std=0.05, trainable=False)#    (10): ReLU()#    (11): Linear(in_features=5408, out_features=4, bias=True)#    (12): BatchNorm1d(4, eps=1e-05, momentum=0.1, affine=True, track_running_stats=True)#    (13): Softplus(beta=1, threshold=20)#  )#)#!0.4938812808390546!all!-11.271202168829406!0.05!0.21308139363643244!naturalscene!!-11.451386780400801!0.6925194195937722!!512.0!!bncnnMultiData/bncnnMultiData_23_dataset15-11-21a_stim_typenaturalscene_lr0.001_l20.001!!!!!!!!!!!!!!!!!!!!!!!!!!!!!
bncnnMultiData!24.0!15-11-21b!0.01!0.2521750681540545!100.0!<class 'models.BN_CNN.BNCNN'>!True!!bncnnMultiData/results.txt!0.0075!!0.0!5e-05!!0.5407395870944901!BNCNN(#  (sequential): Sequential(#    (0): Conv2d(40, 8, kernel_size=(15, 15), stride=(1, 1))#    (1): Flatten()#    (2): BatchNorm1d(10368, eps=0.001, momentum=0.99, affine=True, track_running_stats=True)#    (3): GaussianNoise(std=0.05, trainable=False)#    (4): ReLU()#    (5): Reshape()#    (6): Conv2d(8, 8, kernel_size=(11, 11), stride=(1, 1))#    (7): Flatten()#    (8): BatchNorm1d(5408, eps=0.001, momentum=0.99, affine=True, track_running_stats=True)#    (9): GaussianNoise(std=0.05, trainable=False)#    (10): ReLU()#    (11): Linear(in_features=5408, out_features=17, bias=True)#    (12): BatchNorm1d(17, eps=1e-05, momentum=0.1, affine=True, track_running_stats=True)#    (13): Softplus(beta=1, threshold=20)#  )#)#!0.4968423202010354!all!-7.571338038629618!0.05!0.17873731802378612!whitenoise!!-7.4761106777335025!0.7852338105809196!!512.0!!bncnnMultiData/bncnnMultiData_24_dataset15-11-21b_stim_typewhitenoise_lr0.0075_l20.01!!!!!!!!!!!!!!!!!!!!!!!!!!!!!
bncnnMultiData!25.0!15-11-21b!0.001!0.2587541674866396!100.0!<class 'models.BN_CNN.BNCNN'>!True!!bncnnMultiData/results.txt!0.0075!!0.0!5e-05!!0.5372881102039119!BNCNN(#  (sequential): Sequential(#    (0): Conv2d(40, 8, kernel_size=(15, 15), stride=(1, 1))#    (1): Flatten()#    (2): BatchNorm1d(10368, eps=0.001, momentum=0.99, affine=True, track_running_stats=True)#    (3): GaussianNoise(std=0.05, trainable=False)#    (4): ReLU()#    (5): Reshape()#    (6): Conv2d(8, 8, kernel_size=(11, 11), stride=(1, 1))#    (7): Flatten()#    (8): BatchNorm1d(5408, eps=0.001, momentum=0.99, affine=True, track_running_stats=True)#    (9): GaussianNoise(std=0.05, trainable=False)#    (10): ReLU()#    (11): Linear(in_features=5408, out_features=17, bias=True)#    (12): BatchNorm1d(17, eps=1e-05, momentum=0.1, affine=True, track_running_stats=True)#    (13): Softplus(beta=1, threshold=20)#  )#)#!0.4558197777855201!all!-7.7932577177052735!0.05!0.17067579449811762!whitenoise!!-7.933900985602699!0.8098636902013957!!512.0!!bncnnMultiData/bncnnMultiData_25_dataset15-11-21b_stim_typewhitenoise_lr0.0075_l20.001!!!!!!!!!!!!!!!!!!!!!!!!!!!!!
bncnnMultiData!26.0!15-11-21b!0.01!0.2530347065013997!100.0!<class 'models.BN_CNN.BNCNN'>!True!!bncnnMultiData/results.txt!0.005!!0.0!5e-05!!0.5523272703994171!BNCNN(#  (sequential): Sequential(#    (0): Conv2d(40, 8, kernel_size=(15, 15), stride=(1, 1))#    (1): Flatten()#    (2): BatchNorm1d(10368, eps=0.001, momentum=0.99, affine=True, track_running_stats=True)#    (3): GaussianNoise(std=0.05, trainable=False)#    (4): ReLU()#    (5): Reshape()#    (6): Conv2d(8, 8, kernel_size=(11, 11), stride=(1, 1))#    (7): Flatten()#    (8): BatchNorm1d(5408, eps=0.001, momentum=0.99, affine=True, track_running_stats=True)#    (9): GaussianNoise(std=0.05, trainable=False)#    (10): ReLU()#    (11): Linear(in_features=5408, out_features=17, bias=True)#    (12): BatchNorm1d(17, eps=1e-05, momentum=0.1, affine=True, track_running_stats=True)#    (13): Softplus(beta=1, threshold=20)#  )#)#!0.4654282702946741!all!-7.381643411616096!0.05!0.17083513348298662!whitenoise!!-7.462357761992947!0.7780810006268908!!512.0!!bncnnMultiData/bncnnMultiData_26_dataset15-11-21b_stim_typewhitenoise_lr0.005_l20.01!!!!!!!!!!!!!!!!!!!!!!!!!!!!!
bncnnMultiData!27.0!15-11-21b!0.001!0.2590035699746188!100.0!<class 'models.BN_CNN.BNCNN'>!True!!bncnnMultiData/results.txt!0.005!!0.0!5e-05!!0.5435113951515874!BNCNN(#  (sequential): Sequential(#    (0): Conv2d(40, 8, kernel_size=(15, 15), stride=(1, 1))#    (1): Flatten()#    (2): BatchNorm1d(10368, eps=0.001, momentum=0.99, affine=True, track_running_stats=True)#    (3): GaussianNoise(std=0.05, trainable=False)#    (4): ReLU()#    (5): Reshape()#    (6): Conv2d(8, 8, kernel_size=(11, 11), stride=(1, 1))#    (7): Flatten()#    (8): BatchNorm1d(5408, eps=0.001, momentum=0.99, affine=True, track_running_stats=True)#    (9): GaussianNoise(std=0.05, trainable=False)#    (10): ReLU()#    (11): Linear(in_features=5408, out_features=17, bias=True)#    (12): BatchNorm1d(17, eps=1e-05, momentum=0.1, affine=True, track_running_stats=True)#    (13): Softplus(beta=1, threshold=20)#  )#)#!0.4472834456263121!all!-7.785172635187338!0.05!0.1806492218562092!whitenoise!!-8.057339868214695!0.6777276667928263!!512.0!!bncnnMultiData/bncnnMultiData_27_dataset15-11-21b_stim_typewhitenoise_lr0.005_l20.001!!!!!!!!!!!!!!!!!!!!!!!!!!!!!
bncnnMultiData!28.0!15-11-21b!0.01!0.2578697879524792!100.0!<class 'models.BN_CNN.BNCNN'>!True!!bncnnMultiData/results.txt!0.001!!0.0!5e-05!!0.5503827705104624!BNCNN(#  (sequential): Sequential(#    (0): Conv2d(40, 8, kernel_size=(15, 15), stride=(1, 1))#    (1): Flatten()#    (2): BatchNorm1d(10368, eps=0.001, momentum=0.99, affine=True, track_running_stats=True)#    (3): GaussianNoise(std=0.05, trainable=False)#    (4): ReLU()#    (5): Reshape()#    (6): Conv2d(8, 8, kernel_size=(11, 11), stride=(1, 1))#    (7): Flatten()#    (8): BatchNorm1d(5408, eps=0.001, momentum=0.99, affine=True, track_running_stats=True)#    (9): GaussianNoise(std=0.05, trainable=False)#    (10): ReLU()#    (11): Linear(in_features=5408, out_features=17, bias=True)#    (12): BatchNorm1d(17, eps=1e-05, momentum=0.1, affine=True, track_running_stats=True)#    (13): Softplus(beta=1, threshold=20)#  )#)#!0.4563787486233729!all!-7.523301185865423!0.05!0.15727756370637833!whitenoise!!-7.611644941936968!0.8023967280526342!!512.0!!bncnnMultiData/bncnnMultiData_28_dataset15-11-21b_stim_typewhitenoise_lr0.001_l20.01!!!!!!!!!!!!!!!!!!!!!!!!!!!!!
bncnnMultiData!29.0!15-11-21b!0.001!0.285583438242183!100.0!<class 'models.BN_CNN.BNCNN'>!True!!bncnnMultiData/results.txt!0.001!!0.0!5e-05!!0.5064720789929841!BNCNN(#  (sequential): Sequential(#    (0): Conv2d(40, 8, kernel_size=(15, 15), stride=(1, 1))#    (1): Flatten()#    (2): BatchNorm1d(10368, eps=0.001, momentum=0.99, affine=True, track_running_stats=True)#    (3): GaussianNoise(std=0.05, trainable=False)#    (4): ReLU()#    (5): Reshape()#    (6): Conv2d(8, 8, kernel_size=(11, 11), stride=(1, 1))#    (7): Flatten()#    (8): BatchNorm1d(5408, eps=0.001, momentum=0.99, affine=True, track_running_stats=True)#    (9): GaussianNoise(std=0.05, trainable=False)#    (10): ReLU()#    (11): Linear(in_features=5408, out_features=17, bias=True)#    (12): BatchNorm1d(17, eps=1e-05, momentum=0.1, affine=True, track_running_stats=True)#    (13): Softplus(beta=1, threshold=20)#  )#)#!0.4316811266120768!all!-8.182165224156051!0.05!0.16463483840074475!whitenoise!!-8.615816801741472!0.6801757054441461!!512.0!!bncnnMultiData/bncnnMultiData_29_dataset15-11-21b_stim_typewhitenoise_lr0.001_l20.001!!!!!!!!!!!!!!!!!!!!!!!!!!!!!
bncnnMultiData!2.0!15-10-07!0.01!0.2850091099739075!100.0!<class 'models.BN_CNN.BNCNN'>!True!!bncnnMultiData/results.txt!0.005!!0.0!5e-05!!0.6887971575373046!BNCNN(#  (sequential): Sequential(#    (0): Conv2d(40, 8, kernel_size=(15, 15), stride=(1, 1))#    (1): Flatten()#    (2): BatchNorm1d(10368, eps=0.001, momentum=0.99, affine=True, track_running_stats=True)#    (3): GaussianNoise(std=0.05, trainable=False)#    (4): ReLU()#    (5): Reshape()#    (6): Conv2d(8, 8, kernel_size=(11, 11), stride=(1, 1))#    (7): Flatten()#    (8): BatchNorm1d(5408, eps=0.001, momentum=0.99, affine=True, track_running_stats=True)#    (9): GaussianNoise(std=0.05, trainable=False)#    (10): ReLU()#    (11): Linear(in_features=5408, out_features=5, bias=True)#    (12): BatchNorm1d(5, eps=1e-05, momentum=0.1, affine=True, track_running_stats=True)#    (13): Softplus(beta=1, threshold=20)#  )#)#!0.388661709618724!all!-6.096275690562834!0.05!0.12434725095590353!whitenoise!!-6.252487172548228!0.6119642834018648!!512.0!!bncnnMultiData/bncnnMultiData_2_dataset15-10-07_stim_typewhitenoise_lr0.005_l20.01!!!!!!!!!!!!!!!!!!!!!!!!!!!!!
bncnnMultiData!30.0!15-11-21b!0.01!0.2488526381990489!100.0!<class 'models.BN_CNN.BNCNN'>!True!!bncnnMultiData/results.txt!0.0075!!0.0!5e-05!!0.5778467689643436!BNCNN(#  (sequential): Sequential(#    (0): Conv2d(40, 8, kernel_size=(15, 15), stride=(1, 1))#    (1): Flatten()#    (2): BatchNorm1d(10368, eps=0.001, momentum=0.99, affine=True, track_running_stats=True)#    (3): GaussianNoise(std=0.05, trainable=False)#    (4): ReLU()#    (5): Reshape()#    (6): Conv2d(8, 8, kernel_size=(11, 11), stride=(1, 1))#    (7): Flatten()#    (8): BatchNorm1d(5408, eps=0.001, momentum=0.99, affine=True, track_running_stats=True)#    (9): GaussianNoise(std=0.05, trainable=False)#    (10): ReLU()#    (11): Linear(in_features=5408, out_features=17, bias=True)#    (12): BatchNorm1d(17, eps=1e-05, momentum=0.1, affine=True, track_running_stats=True)#    (13): Softplus(beta=1, threshold=20)#  )#)#!0.5302616240080354!all!-6.084598702283984!0.05!0.17824269112246285!naturalscene!!-6.544589216712732!0.7879918063931892!!512.0!!bncnnMultiData/bncnnMultiData_30_dataset15-11-21b_stim_typenaturalscene_lr0.0075_l20.01!!!!!!!!!!!!!!!!!!!!!!!!!!!!!
bncnnMultiData!31.0!15-11-21b!0.001!0.25650599248269024!100.0!<class 'models.BN_CNN.BNCNN'>!True!!bncnnMultiData/results.txt!0.0075!!0.0!5e-05!!0.5976446406924965!BNCNN(#  (sequential): Sequential(#    (0): Conv2d(40, 8, kernel_size=(15, 15), stride=(1, 1))#    (1): Flatten()#    (2): BatchNorm1d(10368, eps=0.001, momentum=0.99, affine=True, track_running_stats=True)#    (3): GaussianNoise(std=0.05, trainable=False)#    (4): ReLU()#    (5): Reshape()#    (6): Conv2d(8, 8, kernel_size=(11, 11), stride=(1, 1))#    (7): Flatten()#    (8): BatchNorm1d(5408, eps=0.001, momentum=0.99, affine=True, track_running_stats=True)#    (9): GaussianNoise(std=0.05, trainable=False)#    (10): ReLU()#    (11): Linear(in_features=5408, out_features=17, bias=True)#    (12): BatchNorm1d(17, eps=1e-05, momentum=0.1, affine=True, track_running_stats=True)#    (13): Softplus(beta=1, threshold=20)#  )#)#!0.4482985312677411!all!-7.134641542637838!0.05!0.16999042466393766!naturalscene!!-7.126306724404497!0.6666796273798069!!512.0!!bncnnMultiData/bncnnMultiData_31_dataset15-11-21b_stim_typenaturalscene_lr0.0075_l20.001!!!!!!!!!!!!!!!!!!!!!!!!!!!!!
bncnnMultiData!32.0!15-11-21b!0.01!0.2445958177832996!100.0!<class 'models.BN_CNN.BNCNN'>!True!!bncnnMultiData/results.txt!0.005!!0.0!5e-05!!0.5776648386725464!BNCNN(#  (sequential): Sequential(#    (0): Conv2d(40, 8, kernel_size=(15, 15), stride=(1, 1))#    (1): Flatten()#    (2): BatchNorm1d(10368, eps=0.001, momentum=0.99, affine=True, track_running_stats=True)#    (3): GaussianNoise(std=0.05, trainable=False)#    (4): ReLU()#    (5): Reshape()#    (6): Conv2d(8, 8, kernel_size=(11, 11), stride=(1, 1))#    (7): Flatten()#    (8): BatchNorm1d(5408, eps=0.001, momentum=0.99, affine=True, track_running_stats=True)#    (9): GaussianNoise(std=0.05, trainable=False)#    (10): ReLU()#    (11): Linear(in_features=5408, out_features=17, bias=True)#    (12): BatchNorm1d(17, eps=1e-05, momentum=0.1, affine=True, track_running_stats=True)#    (13): Softplus(beta=1, threshold=20)#  )#)#!0.5069953124555282!all!-6.561346385293291!0.05!0.19894654875368706!naturalscene!!-6.5299636235244325!0.7584446107598454!!512.0!!bncnnMultiData/bncnnMultiData_32_dataset15-11-21b_stim_typenaturalscene_lr0.005_l20.01!!!!!!!!!!!!!!!!!!!!!!!!!!!!!
bncnnMultiData!33.0!15-11-21b!0.001!0.258773527601186!100.0!<class 'models.BN_CNN.BNCNN'>!True!!bncnnMultiData/results.txt!0.005!!0.0!5e-05!!0.6079556333166005!BNCNN(#  (sequential): Sequential(#    (0): Conv2d(40, 8, kernel_size=(15, 15), stride=(1, 1))#    (1): Flatten()#    (2): BatchNorm1d(10368, eps=0.001, momentum=0.99, affine=True, track_running_stats=True)#    (3): GaussianNoise(std=0.05, trainable=False)#    (4): ReLU()#    (5): Reshape()#    (6): Conv2d(8, 8, kernel_size=(11, 11), stride=(1, 1))#    (7): Flatten()#    (8): BatchNorm1d(5408, eps=0.001, momentum=0.99, affine=True, track_running_stats=True)#    (9): GaussianNoise(std=0.05, trainable=False)#    (10): ReLU()#    (11): Linear(in_features=5408, out_features=17, bias=True)#    (12): BatchNorm1d(17, eps=1e-05, momentum=0.1, affine=True, track_running_stats=True)#    (13): Softplus(beta=1, threshold=20)#  )#)#!0.4697992079565391!all!-6.889546940961736!0.05!0.13109817648004568!naturalscene!!-7.214726417132993!0.7043272317043654!!512.0!!bncnnMultiData/bncnnMultiData_33_dataset15-11-21b_stim_typenaturalscene_lr0.005_l20.001!!!!!!!!!!!!!!!!!!!!!!!!!!!!!
bncnnMultiData!34.0!15-11-21b!0.01!0.2583026360062992!100.0!<class 'models.BN_CNN.BNCNN'>!True!!bncnnMultiData/results.txt!0.001!!0.0!5e-05!!0.6119351340752966!BNCNN(#  (sequential): Sequential(#    (0): Conv2d(40, 8, kernel_size=(15, 15), stride=(1, 1))#    (1): Flatten()#    (2): BatchNorm1d(10368, eps=0.001, momentum=0.99, affine=True, track_running_stats=True)#    (3): GaussianNoise(std=0.05, trainable=False)#    (4): ReLU()#    (5): Reshape()#    (6): Conv2d(8, 8, kernel_size=(11, 11), stride=(1, 1))#    (7): Flatten()#    (8): BatchNorm1d(5408, eps=0.001, momentum=0.99, affine=True, track_running_stats=True)#    (9): GaussianNoise(std=0.05, trainable=False)#    (10): ReLU()#    (11): Linear(in_features=5408, out_features=17, bias=True)#    (12): BatchNorm1d(17, eps=1e-05, momentum=0.1, affine=True, track_running_stats=True)#    (13): Softplus(beta=1, threshold=20)#  )#)#!0.4513875882493898!all!-6.904045589879388!0.05!0.1971225914929648!naturalscene!!-6.8776693581455985!0.7213053277939234!!512.0!!bncnnMultiData/bncnnMultiData_34_dataset15-11-21b_stim_typenaturalscene_lr0.001_l20.01!!!!!!!!!!!!!!!!!!!!!!!!!!!!!
bncnnMultiData!35.0!15-11-21b!0.001!0.3016632839160807!100.0!<class 'models.BN_CNN.BNCNN'>!True!!bncnnMultiData/results.txt!0.001!!0.0!5e-05!!0.6314158247574402!BNCNN(#  (sequential): Sequential(#    (0): Conv2d(40, 8, kernel_size=(15, 15), stride=(1, 1))#    (1): Flatten()#    (2): BatchNorm1d(10368, eps=0.001, momentum=0.99, affine=True, track_running_stats=True)#    (3): GaussianNoise(std=0.05, trainable=False)#    (4): ReLU()#    (5): Reshape()#    (6): Conv2d(8, 8, kernel_size=(11, 11), stride=(1, 1))#    (7): Flatten()#    (8): BatchNorm1d(5408, eps=0.001, momentum=0.99, affine=True, track_running_stats=True)#    (9): GaussianNoise(std=0.05, trainable=False)#    (10): ReLU()#    (11): Linear(in_features=5408, out_features=17, bias=True)#    (12): BatchNorm1d(17, eps=1e-05, momentum=0.1, affine=True, track_running_stats=True)#    (13): Softplus(beta=1, threshold=20)#  )#)#!0.43600620558488895!all!-7.733497176741366!0.05!0.1756207685225197!naturalscene!!-7.788147585424363!0.6693177470687516!!512.0!!bncnnMultiData/bncnnMultiData_35_dataset15-11-21b_stim_typenaturalscene_lr0.001_l20.001!!!!!!!!!!!!!!!!!!!!!!!!!!!!!
bncnnMultiData!3.0!15-10-07!0.001!0.2980498075485229!100.0!<class 'models.BN_CNN.BNCNN'>!True!!bncnnMultiData/results.txt!0.005!!0.0!5e-05!!0.6991853264542872!BNCNN(#  (sequential): Sequential(#    (0): Conv2d(40, 8, kernel_size=(15, 15), stride=(1, 1))#    (1): Flatten()#    (2): BatchNorm1d(10368, eps=0.001, momentum=0.99, affine=True, track_running_stats=True)#    (3): GaussianNoise(std=0.05, trainable=False)#    (4): ReLU()#    (5): Reshape()#    (6): Conv2d(8, 8, kernel_size=(11, 11), stride=(1, 1))#    (7): Flatten()#    (8): BatchNorm1d(5408, eps=0.001, momentum=0.99, affine=True, track_running_stats=True)#    (9): GaussianNoise(std=0.05, trainable=False)#    (10): ReLU()#    (11): Linear(in_features=5408, out_features=5, bias=True)#    (12): BatchNorm1d(5, eps=1e-05, momentum=0.1, affine=True, track_running_stats=True)#    (13): Softplus(beta=1, threshold=20)#  )#)#!0.4073694789226051!all!-6.344308251456822!0.05!0.14116873451473164!whitenoise!!-6.802044641198436!0.6471854207798946!!512.0!!bncnnMultiData/bncnnMultiData_3_dataset15-10-07_stim_typewhitenoise_lr0.005_l20.001!!!!!!!!!!!!!!!!!!!!!!!!!!!!!
bncnnMultiData!4.0!15-10-07!0.01!0.2871490627527237!100.0!<class 'models.BN_CNN.BNCNN'>!True!!bncnnMultiData/results.txt!0.001!!0.0!5e-05!!0.6823301259133511!BNCNN(#  (sequential): Sequential(#    (0): Conv2d(40, 8, kernel_size=(15, 15), stride=(1, 1))#    (1): Flatten()#    (2): BatchNorm1d(10368, eps=0.001, momentum=0.99, affine=True, track_running_stats=True)#    (3): GaussianNoise(std=0.05, trainable=False)#    (4): ReLU()#    (5): Reshape()#    (6): Conv2d(8, 8, kernel_size=(11, 11), stride=(1, 1))#    (7): Flatten()#    (8): BatchNorm1d(5408, eps=0.001, momentum=0.99, affine=True, track_running_stats=True)#    (9): GaussianNoise(std=0.05, trainable=False)#    (10): ReLU()#    (11): Linear(in_features=5408, out_features=5, bias=True)#    (12): BatchNorm1d(5, eps=1e-05, momentum=0.1, affine=True, track_running_stats=True)#    (13): Softplus(beta=1, threshold=20)#  )#)#!0.408663518134674!all!-6.11048324978583!0.05!0.11540447157004932!whitenoise!!-6.5007076838796864!0.6304988655346723!!512.0!!bncnnMultiData/bncnnMultiData_4_dataset15-10-07_stim_typewhitenoise_lr0.001_l20.01!!!!!!!!!!!!!!!!!!!!!!!!!!!!!
bncnnMultiData!5.0!15-10-07!0.001!0.3151333868503571!100.0!<class 'models.BN_CNN.BNCNN'>!True!!bncnnMultiData/results.txt!0.001!!0.0!5e-05!!0.6453954409788691!BNCNN(#  (sequential): Sequential(#    (0): Conv2d(40, 8, kernel_size=(15, 15), stride=(1, 1))#    (1): Flatten()#    (2): BatchNorm1d(10368, eps=0.001, momentum=0.99, affine=True, track_running_stats=True)#    (3): GaussianNoise(std=0.05, trainable=False)#    (4): ReLU()#    (5): Reshape()#    (6): Conv2d(8, 8, kernel_size=(11, 11), stride=(1, 1))#    (7): Flatten()#    (8): BatchNorm1d(5408, eps=0.001, momentum=0.99, affine=True, track_running_stats=True)#    (9): GaussianNoise(std=0.05, trainable=False)#    (10): ReLU()#    (11): Linear(in_features=5408, out_features=5, bias=True)#    (12): BatchNorm1d(5, eps=1e-05, momentum=0.1, affine=True, track_running_stats=True)#    (13): Softplus(beta=1, threshold=20)#  )#)#!0.4205349404438368!all!-6.453591085044536!0.05!0.12084235487670693!whitenoise!!-7.256368660099728!0.7024659545440932!!512.0!!bncnnMultiData/bncnnMultiData_5_dataset15-10-07_stim_typewhitenoise_lr0.001_l20.001!!!!!!!!!!!!!!!!!!!!!!!!!!!!!
bncnnMultiData!6.0!15-10-07!0.01!0.2172516256570816!100.0!<class 'models.BN_CNN.BNCNN'>!True!!bncnnMultiData/results.txt!0.0075!!0.0!5e-05!!0.4616338257502819!BNCNN(#  (sequential): Sequential(#    (0): Conv2d(40, 8, kernel_size=(15, 15), stride=(1, 1))#    (1): Flatten()#    (2): BatchNorm1d(10368, eps=0.001, momentum=0.99, affine=True, track_running_stats=True)#    (3): GaussianNoise(std=0.05, trainable=False)#    (4): ReLU()#    (5): Reshape()#    (6): Conv2d(8, 8, kernel_size=(11, 11), stride=(1, 1))#    (7): Flatten()#    (8): BatchNorm1d(5408, eps=0.001, momentum=0.99, affine=True, track_running_stats=True)#    (9): GaussianNoise(std=0.05, trainable=False)#    (10): ReLU()#    (11): Linear(in_features=5408, out_features=5, bias=True)#    (12): BatchNorm1d(5, eps=1e-05, momentum=0.1, affine=True, track_running_stats=True)#    (13): Softplus(beta=1, threshold=20)#  )#)#!!all!-2.1112063786003996!0.05!!naturalscene!True!-2.0734269743501508!!!512.0!!bncnnMultiData/bncnnMultiData_6_dataset15-10-07_stim_typenaturalscene_lr0.0075_l20.01!!!!!!!!!!!!!!!!!!!!!!!!!!!!!
bncnnMultiData!7.0!15-10-07!0.001!0.28571744859218595!100.0!<class 'models.BN_CNN.BNCNN'>!True!!bncnnMultiData/results.txt!0.0075!!0.0!5e-05!!0.6668072171890986!BNCNN(#  (sequential): Sequential(#    (0): Conv2d(40, 8, kernel_size=(15, 15), stride=(1, 1))#    (1): Flatten()#    (2): BatchNorm1d(10368, eps=0.001, momentum=0.99, affine=True, track_running_stats=True)#    (3): GaussianNoise(std=0.05, trainable=False)#    (4): ReLU()#    (5): Reshape()#    (6): Conv2d(8, 8, kernel_size=(11, 11), stride=(1, 1))#    (7): Flatten()#    (8): BatchNorm1d(5408, eps=0.001, momentum=0.99, affine=True, track_running_stats=True)#    (9): GaussianNoise(std=0.05, trainable=False)#    (10): ReLU()#    (11): Linear(in_features=5408, out_features=5, bias=True)#    (12): BatchNorm1d(5, eps=1e-05, momentum=0.1, affine=True, track_running_stats=True)#    (13): Softplus(beta=1, threshold=20)#  )#)#!0.3723497406757073!all!-3.1485856967401564!0.05!0.12070745365216108!naturalscene!!-3.153685093105828!0.5870971197830647!!512.0!!bncnnMultiData/bncnnMultiData_7_dataset15-10-07_stim_typenaturalscene_lr0.0075_l20.001!!!!!!!!!!!!!!!!!!!!!!!!!!!!!
bncnnMultiData!8.0!15-10-07!0.01!0.2437457263469696!100.0!<class 'models.BN_CNN.BNCNN'>!True!!bncnnMultiData/results.txt!0.005!!0.0!5e-05!!0.5740217706715142!BNCNN(#  (sequential): Sequential(#    (0): Conv2d(40, 8, kernel_size=(15, 15), stride=(1, 1))#    (1): Flatten()#    (2): BatchNorm1d(10368, eps=0.001, momentum=0.99, affine=True, track_running_stats=True)#    (3): GaussianNoise(std=0.05, trainable=False)#    (4): ReLU()#    (5): Reshape()#    (6): Conv2d(8, 8, kernel_size=(11, 11), stride=(1, 1))#    (7): Flatten()#    (8): BatchNorm1d(5408, eps=0.001, momentum=0.99, affine=True, track_running_stats=True)#    (9): GaussianNoise(std=0.05, trainable=False)#    (10): ReLU()#    (11): Linear(in_features=5408, out_features=5, bias=True)#    (12): BatchNorm1d(5, eps=1e-05, momentum=0.1, affine=True, track_running_stats=True)#    (13): Softplus(beta=1, threshold=20)#  )#)#!0.4377584101208357!all!-2.4190701031984645!0.05!0.14786982507476146!naturalscene!!-2.5716453645024364!0.6652647287353727!!512.0!!bncnnMultiData/bncnnMultiData_8_dataset15-10-07_stim_typenaturalscene_lr0.005_l20.01!!!!!!!!!!!!!!!!!!!!!!!!!!!!!
bncnnMultiData!9.0!15-10-07!0.001!0.29248878359794617!100.0!<class 'models.BN_CNN.BNCNN'>!True!!bncnnMultiData/results.txt!0.005!!0.0!5e-05!!0.6726014261687671!BNCNN(#  (sequential): Sequential(#    (0): Conv2d(40, 8, kernel_size=(15, 15), stride=(1, 1))#    (1): Flatten()#    (2): BatchNorm1d(10368, eps=0.001, momentum=0.99, affine=True, track_running_stats=True)#    (3): GaussianNoise(std=0.05, trainable=False)#    (4): ReLU()#    (5): Reshape()#    (6): Conv2d(8, 8, kernel_size=(11, 11), stride=(1, 1))#    (7): Flatten()#    (8): BatchNorm1d(5408, eps=0.001, momentum=0.99, affine=True, track_running_stats=True)#    (9): GaussianNoise(std=0.05, trainable=False)#    (10): ReLU()#    (11): Linear(in_features=5408, out_features=5, bias=True)#    (12): BatchNorm1d(5, eps=1e-05, momentum=0.1, affine=True, track_running_stats=True)#    (13): Softplus(beta=1, threshold=20)#  )#)#!0.3810822258431268!all!-3.2485794612803147!0.05!0.12690297381223542!naturalscene!!-3.2568226547442585!0.6791119288153065!!512.0!!bncnnMultiData/bncnnMultiData_9_dataset15-10-07_stim_typenaturalscene_lr0.005_l20.001!!!!!!!!!!!!!!!!!!!!!!!!!!!!!
bncnn2d!0.0!15-10-07!0.005!0.2396474480628968!100.0!<class 'models.BN_CNN_2D.BNCNN2D'>!True![8, 8]!bncnn2d/results.txt!0.005!!0.0!0.0001!!0.6095151539917546!BNCNN2D(#  (sequential): Sequential(#    (0): Conv2d(40, 8, kernel_size=(15, 15), stride=(1, 1))#    (1): BatchNorm2d(8, eps=0.001, momentum=0.99, affine=True, track_running_stats=True)#    (2): GaussianNoise(std=0.05, trainable=False)#    (3): ReLU()#    (4): Conv2d(8, 8, kernel_size=(11, 11), stride=(1, 1))#    (5): BatchNorm2d(8, eps=0.001, momentum=0.99, affine=True, track_running_stats=True)#    (6): GaussianNoise(std=0.05, trainable=False)#    (7): ReLU()#    (8): Flatten()#    (9): Linear(in_features=5408, out_features=5, bias=True)#    (10): BatchNorm1d(5, eps=1e-05, momentum=0.1, affine=True, track_running_stats=True)#    (11): Softplus(beta=1, threshold=20)#  )#)#!0.4811019783467924!all!!0.05!0.15491514901228184!naturalscene!!!0.7374032387747695!-2.516583958182759!512.0!-2.402319110286044!bncnn2d/bncnn2d_0_chans[8, 8]_lr0.005!!!!!!!!!!!!!!!!!!!!!!!!!!!!!
bncnn2d!10.0!15-10-07!0.005!0.3551689386367798!100.0!<class 'models.BN_CNN_2D.BNCNN2D'>!True![16, 16]!bncnn2d/results.txt!0.0001!!0.0!0.0001!!0.5820094899530177!BNCNN2D(#  (sequential): Sequential(#    (0): Conv2d(40, 16, kernel_size=(15, 15), stride=(1, 1))#    (1): BatchNorm2d(16, eps=0.001, momentum=0.99, affine=True, track_running_stats=True)#    (2): GaussianNoise(std=0.05, trainable=False)#    (3): ReLU()#    (4): Conv2d(16, 16, kernel_size=(11, 11), stride=(1, 1))#    (5): BatchNorm2d(16, eps=0.001, momentum=0.99, affine=True, track_running_stats=True)#    (6): GaussianNoise(std=0.05, trainable=False)#    (7): ReLU()#    (8): Flatten()#    (9): Linear(in_features=10816, out_features=5, bias=True)#    (10): BatchNorm1d(5, eps=1e-05, momentum=0.1, affine=True, track_running_stats=True)#    (11): Softplus(beta=1, threshold=20)#  )#)#!!all!!0.05!!naturalscene!!!!-4.094026690334935!512.0!-3.7610721656365063!bncnn2d/bncnn2d_10_chans[16, 16]_lr0.0001!!!!!!!!!!!!!!!!!!!!!!!!!!!!!
bncnn2d!11.0!15-10-07!0.005!0.32189394235610963!100.0!<class 'models.BN_CNN_2D.BNCNN2D'>!True![16, 16]!bncnn2d/results.txt!1e-05!!0.0!0.0001!!0.5536489169974569!BNCNN2D(#  (sequential): Sequential(#    (0): Conv2d(40, 16, kernel_size=(15, 15), stride=(1, 1))#    (1): BatchNorm2d(16, eps=0.001, momentum=0.99, affine=True, track_running_stats=True)#    (2): GaussianNoise(std=0.05, trainable=False)#    (3): ReLU()#    (4): Conv2d(16, 16, kernel_size=(11, 11), stride=(1, 1))#    (5): BatchNorm2d(16, eps=0.001, momentum=0.99, affine=True, track_running_stats=True)#    (6): GaussianNoise(std=0.05, trainable=False)#    (7): ReLU()#    (8): Flatten()#    (9): Linear(in_features=10816, out_features=5, bias=True)#    (10): BatchNorm1d(5, eps=1e-05, momentum=0.1, affine=True, track_running_stats=True)#    (11): Softplus(beta=1, threshold=20)#  )#)#!0.2836724491218233!all!!0.05!0.08257324274256153!naturalscene!!!0.509565442613882!-3.3343827214715707!512.0!-3.033449789843872!bncnn2d/bncnn2d_11_chans[16, 16]_lr1e-05!!!!!!!!!!!!!!!!!!!!!!!!!!!!!
bncnn2d!12.0!15-10-07!0.005!0.21380957961082456!100.0!<class 'models.BN_CNN_2D.BNCNN2D'>!True![16, 24]!bncnn2d/results.txt!0.005!!0.0!0.0001!!0.538086200242363!BNCNN2D(#  (sequential): Sequential(#    (0): Conv2d(40, 16, kernel_size=(15, 15), stride=(1, 1))#    (1): BatchNorm2d(16, eps=0.001, momentum=0.99, affine=True, track_running_stats=True)#    (2): GaussianNoise(std=0.05, trainable=False)#    (3): ReLU()#    (4): Conv2d(16, 16, kernel_size=(11, 11), stride=(1, 1))#    (5): BatchNorm2d(16, eps=0.001, momentum=0.99, affine=True, track_running_stats=True)#    (6): GaussianNoise(std=0.05, trainable=False)#    (7): ReLU()#    (8): Flatten()#    (9): Linear(in_features=10816, out_features=5, bias=True)#    (10): BatchNorm1d(5, eps=1e-05, momentum=0.1, affine=True, track_running_stats=True)#    (11): Softplus(beta=1, threshold=20)#  )#)#!0.5032931025500382!all!!0.05!0.17697173026068105!naturalscene!!!0.7293868424872103!-2.0521556450613123!512.0!-2.0904616799452924!bncnn2d/bncnn2d_12_chans[16, 24]_lr0.005!!!!!!!!!!!!!!!!!!!!!!!!!!!!!
bncnn2d!13.0!15-10-07!0.005!0.3485188722610474!100.0!<class 'models.BN_CNN_2D.BNCNN2D'>!True![16, 24]!bncnn2d/results.txt!0.0001!!0.0!0.0001!!0.5755810735167104!BNCNN2D(#  (sequential): Sequential(#    (0): Conv2d(40, 16, kernel_size=(15, 15), stride=(1, 1))#    (1): BatchNorm2d(16, eps=0.001, momentum=0.99, affine=True, track_running_stats=True)#    (2): GaussianNoise(std=0.05, trainable=False)#    (3): ReLU()#    (4): Conv2d(16, 16, kernel_size=(11, 11), stride=(1, 1))#    (5): BatchNorm2d(16, eps=0.001, momentum=0.99, affine=True, track_running_stats=True)#    (6): GaussianNoise(std=0.05, trainable=False)#    (7): ReLU()#    (8): Flatten()#    (9): Linear(in_features=10816, out_features=5, bias=True)#    (10): BatchNorm1d(5, eps=1e-05, momentum=0.1, affine=True, track_running_stats=True)#    (11): Softplus(beta=1, threshold=20)#  )#)#!0.3252606870796317!all!!0.05!0.08443573053057872!naturalscene!!!0.5829486690404723!-4.039354828148406!512.0!-3.7298359931482974!bncnn2d/bncnn2d_13_chans[16, 24]_lr0.0001!!!!!!!!!!!!!!!!!!!!!!!!!!!!!
bncnn2d!14.0!15-10-07!0.005!0.32524179816246035!100.0!<class 'models.BN_CNN_2D.BNCNN2D'>!True![16, 24]!bncnn2d/results.txt!1e-05!!0.0!0.0001!!0.5843237399535344!BNCNN2D(#  (sequential): Sequential(#    (0): Conv2d(40, 16, kernel_size=(15, 15), stride=(1, 1))#    (1): BatchNorm2d(16, eps=0.001, momentum=0.99, affine=True, track_running_stats=True)#    (2): GaussianNoise(std=0.05, trainable=False)#    (3): ReLU()#    (4): Conv2d(16, 16, kernel_size=(11, 11), stride=(1, 1))#    (5): BatchNorm2d(16, eps=0.001, momentum=0.99, affine=True, track_running_stats=True)#    (6): GaussianNoise(std=0.05, trainable=False)#    (7): ReLU()#    (8): Flatten()#    (9): Linear(in_features=10816, out_features=5, bias=True)#    (10): BatchNorm1d(5, eps=1e-05, momentum=0.1, affine=True, track_running_stats=True)#    (11): Softplus(beta=1, threshold=20)#  )#)#!0.2820439904172353!all!!0.05!0.07464802118123293!naturalscene!!!0.4855691862151149!-3.231320998068129!512.0!-2.8366938762883365!bncnn2d/bncnn2d_14_chans[16, 24]_lr1e-05!!!!!!!!!!!!!!!!!!!!!!!!!!!!!
bncnn2d!15.0!15-10-07!0.005!0.2451569467782974!100.0!<class 'models.BN_CNN_2D.BNCNN2D'>!True![24, 24]!bncnn2d/results.txt!0.005!!0.0!0.0001!!0.6329141272892251!BNCNN2D(#  (sequential): Sequential(#    (0): Conv2d(40, 24, kernel_size=(15, 15), stride=(1, 1))#    (1): BatchNorm2d(24, eps=0.001, momentum=0.99, affine=True, track_running_stats=True)#    (2): GaussianNoise(std=0.05, trainable=False)#    (3): ReLU()#    (4): Conv2d(24, 24, kernel_size=(11, 11), stride=(1, 1))#    (5): BatchNorm2d(24, eps=0.001, momentum=0.99, affine=True, track_running_stats=True)#    (6): GaussianNoise(std=0.05, trainable=False)#    (7): ReLU()#    (8): Flatten()#    (9): Linear(in_features=16224, out_features=5, bias=True)#    (10): BatchNorm1d(5, eps=1e-05, momentum=0.1, affine=True, track_running_stats=True)#    (11): Softplus(beta=1, threshold=20)#  )#)#!0.4896181525429837!all!!0.05!0.1774855560923119!naturalscene!!!0.7404427799119806!-2.7220527354408715!512.0!-2.594066132634908!bncnn2d/bncnn2d_15_chans[24, 24]_lr0.005!!!!!!!!!!!!!!!!!!!!!!!!!!!!!
bncnn2d!16.0!15-10-07!0.005!0.3652187407016754!100.0!<class 'models.BN_CNN_2D.BNCNN2D'>!True![24, 24]!bncnn2d/results.txt!0.0001!!0.0!0.0001!!0.5931992286414779!BNCNN2D(#  (sequential): Sequential(#    (0): Conv2d(40, 24, kernel_size=(15, 15), stride=(1, 1))#    (1): BatchNorm2d(24, eps=0.001, momentum=0.99, affine=True, track_running_stats=True)#    (2): GaussianNoise(std=0.05, trainable=False)#    (3): ReLU()#    (4): Conv2d(24, 24, kernel_size=(11, 11), stride=(1, 1))#    (5): BatchNorm2d(24, eps=0.001, momentum=0.99, affine=True, track_running_stats=True)#    (6): GaussianNoise(std=0.05, trainable=False)#    (7): ReLU()#    (8): Flatten()#    (9): Linear(in_features=16224, out_features=5, bias=True)#    (10): BatchNorm1d(5, eps=1e-05, momentum=0.1, affine=True, track_running_stats=True)#    (11): Softplus(beta=1, threshold=20)#  )#)#!0.36637294863663744!all!!0.05!0.11245676699428307!naturalscene!!!0.6573628759905598!-4.1296972012987325!512.0!-3.9617609331180574!bncnn2d/bncnn2d_16_chans[24, 24]_lr0.0001!!!!!!!!!!!!!!!!!!!!!!!!!!!!!
bncnn2d!17.0!15-10-07!0.005!0.3485775589942932!100.0!<class 'models.BN_CNN_2D.BNCNN2D'>!True![24, 24]!bncnn2d/results.txt!1e-05!!0.0!0.0001!!0.502563263518213!BNCNN2D(#  (sequential): Sequential(#    (0): Conv2d(40, 24, kernel_size=(15, 15), stride=(1, 1))#    (1): BatchNorm2d(24, eps=0.001, momentum=0.99, affine=True, track_running_stats=True)#    (2): GaussianNoise(std=0.05, trainable=False)#    (3): ReLU()#    (4): Conv2d(24, 24, kernel_size=(11, 11), stride=(1, 1))#    (5): BatchNorm2d(24, eps=0.001, momentum=0.99, affine=True, track_running_stats=True)#    (6): GaussianNoise(std=0.05, trainable=False)#    (7): ReLU()#    (8): Flatten()#    (9): Linear(in_features=16224, out_features=5, bias=True)#    (10): BatchNorm1d(5, eps=1e-05, momentum=0.1, affine=True, track_running_stats=True)#    (11): Softplus(beta=1, threshold=20)#  )#)#!0.2608884941065941!all!!0.05!0.08755797266678983!naturalscene!!!0.4679163178272095!-3.332151396601808!512.0!-3.062038137632044!bncnn2d/bncnn2d_17_chans[24, 24]_lr1e-05!!!!!!!!!!!!!!!!!!!!!!!!!!!!!
bncnn2d!18.0!15-10-07!0.005!0.23577538430690764!100.0!<class 'models.BN_CNN_2D.BNCNN2D'>!True![8, 16]!bncnn2d/results.txt!0.005!!18.0!0.0001!!0.6037131944045191!BNCNN2D(#  (sequential): Sequential(#    (0): Conv2d(40, 8, kernel_size=(15, 15), stride=(1, 1))#    (1): BatchNorm2d(8, eps=0.001, momentum=0.99, affine=True, track_running_stats=True)#    (2): GaussianNoise(std=0.05, trainable=False)#    (3): ReLU()#    (4): Conv2d(8, 16, kernel_size=(11, 11), stride=(1, 1))#    (5): BatchNorm2d(16, eps=0.001, momentum=0.99, affine=True, track_running_stats=True)#    (6): GaussianNoise(std=0.05, trainable=False)#    (7): ReLU()#    (8): Flatten()#    (9): Linear(in_features=10816, out_features=5, bias=True)#    (10): BatchNorm1d(5, eps=1e-05, momentum=0.1, affine=True, track_running_stats=True)#    (11): Softplus(beta=1, threshold=20)#  )#)#!0.4897871381934679!all!!0.05!0.15124838320400993!naturalscene!!!0.7133525952123582!-2.5367267256768398!512.0!-2.406477446904318!bncnn2d/bncnn2d_18_chans[8, 16]_lr0.005!!!!!!!!!!!!!!!!!!!!!!!!!!!!!
bncnn2d!19.0!15-10-07!0.005!0.3379562854766845!100.0!<class 'models.BN_CNN_2D.BNCNN2D'>!True![8, 16]!bncnn2d/results.txt!0.0001!!18.0!0.0001!!0.5843325278612934!BNCNN2D(#  (sequential): Sequential(#    (0): Conv2d(40, 8, kernel_size=(15, 15), stride=(1, 1))#    (1): BatchNorm2d(8, eps=0.001, momentum=0.99, affine=True, track_running_stats=True)#    (2): GaussianNoise(std=0.05, trainable=False)#    (3): ReLU()#    (4): Conv2d(8, 16, kernel_size=(11, 11), stride=(1, 1))#    (5): BatchNorm2d(16, eps=0.001, momentum=0.99, affine=True, track_running_stats=True)#    (6): GaussianNoise(std=0.05, trainable=False)#    (7): ReLU()#    (8): Flatten()#    (9): Linear(in_features=10816, out_features=5, bias=True)#    (10): BatchNorm1d(5, eps=1e-05, momentum=0.1, affine=True, track_running_stats=True)#    (11): Softplus(beta=1, threshold=20)#  )#)#!0.33356367948708304!all!!0.05!0.096196442972102!naturalscene!!!0.5145177176991725!-3.9201623913389527!512.0!-3.6646640085728!bncnn2d/bncnn2d_19_chans[8, 16]_lr0.0001!!!!!!!!!!!!!!!!!!!!!!!!!!!!!
bncnn2d!1.0!15-10-07!0.005!0.3250949561595917!100.0!<class 'models.BN_CNN_2D.BNCNN2D'>!True![8, 8]!bncnn2d/results.txt!0.0001!!0.0!0.0001!!0.5879189750804921!BNCNN2D(#  (sequential): Sequential(#    (0): Conv2d(40, 8, kernel_size=(15, 15), stride=(1, 1))#    (1): BatchNorm2d(8, eps=0.001, momentum=0.99, affine=True, track_running_stats=True)#    (2): GaussianNoise(std=0.05, trainable=False)#    (3): ReLU()#    (4): Conv2d(8, 8, kernel_size=(11, 11), stride=(1, 1))#    (5): BatchNorm2d(8, eps=0.001, momentum=0.99, affine=True, track_running_stats=True)#    (6): GaussianNoise(std=0.05, trainable=False)#    (7): ReLU()#    (8): Flatten()#    (9): Linear(in_features=5408, out_features=5, bias=True)#    (10): BatchNorm1d(5, eps=1e-05, momentum=0.1, affine=True, track_running_stats=True)#    (11): Softplus(beta=1, threshold=20)#  )#)#!0.3295070206134971!all!!0.05!0.08075780367609295!naturalscene!!!0.569665307552361!-3.7927821085284017!512.0!-3.4950920866231168!bncnn2d/bncnn2d_1_chans[8, 8]_lr0.0001!!!!!!!!!!!!!!!!!!!!!!!!!!!!!
bncnn2d!20.0!15-10-07!0.005!0.3105713188648224!100.0!<class 'models.BN_CNN_2D.BNCNN2D'>!True![8, 16]!bncnn2d/results.txt!1e-05!!18.0!0.0001!!0.5927915243476669!BNCNN2D(#  (sequential): Sequential(#    (0): Conv2d(40, 8, kernel_size=(15, 15), stride=(1, 1))#    (1): BatchNorm2d(8, eps=0.001, momentum=0.99, affine=True, track_running_stats=True)#    (2): GaussianNoise(std=0.05, trainable=False)#    (3): ReLU()#    (4): Conv2d(8, 16, kernel_size=(11, 11), stride=(1, 1))#    (5): BatchNorm2d(16, eps=0.001, momentum=0.99, affine=True, track_running_stats=True)#    (6): GaussianNoise(std=0.05, trainable=False)#    (7): ReLU()#    (8): Flatten()#    (9): Linear(in_features=10816, out_features=5, bias=True)#    (10): BatchNorm1d(5, eps=1e-05, momentum=0.1, affine=True, track_running_stats=True)#    (11): Softplus(beta=1, threshold=20)#  )#)#!0.2841934920821713!all!!0.05!0.07765905148678505!naturalscene!!!0.4567957837633137!-3.161814030029475!512.0!-2.9722528987913392!bncnn2d/bncnn2d_20_chans[8, 16]_lr1e-05!!!!!!!!!!!!!!!!!!!!!!!!!!!!!
bncnn2d!21.0!15-10-07!0.005!0.2323254317045212!100.0!<class 'models.BN_CNN_2D.BNCNN2D'>!True![8, 24]!bncnn2d/results.txt!0.005!!18.0!0.0001!!0.5762333361428504!BNCNN2D(#  (sequential): Sequential(#    (0): Conv2d(40, 8, kernel_size=(15, 15), stride=(1, 1))#    (1): BatchNorm2d(8, eps=0.001, momentum=0.99, affine=True, track_running_stats=True)#    (2): GaussianNoise(std=0.05, trainable=False)#    (3): ReLU()#    (4): Conv2d(8, 24, kernel_size=(11, 11), stride=(1, 1))#    (5): BatchNorm2d(24, eps=0.001, momentum=0.99, affine=True, track_running_stats=True)#    (6): GaussianNoise(std=0.05, trainable=False)#    (7): ReLU()#    (8): Flatten()#    (9): Linear(in_features=16224, out_features=5, bias=True)#    (10): BatchNorm1d(5, eps=1e-05, momentum=0.1, affine=True, track_running_stats=True)#    (11): Softplus(beta=1, threshold=20)#  )#)#!0.5099110976786655!all!!0.05!0.14727750842706985!naturalscene!!!0.6835495260750682!-2.4318936604719896!512.0!-2.3733506607459285!bncnn2d/bncnn2d_21_chans[8, 24]_lr0.005!!!!!!!!!!!!!!!!!!!!!!!!!!!!!
bncnn2d!22.0!15-10-07!0.005!0.3559685468673706!100.0!<class 'models.BN_CNN_2D.BNCNN2D'>!True![8, 24]!bncnn2d/results.txt!0.0001!!18.0!0.0001!!0.5600541474784396!BNCNN2D(#  (sequential): Sequential(#    (0): Conv2d(40, 8, kernel_size=(15, 15), stride=(1, 1))#    (1): BatchNorm2d(8, eps=0.001, momentum=0.99, affine=True, track_running_stats=True)#    (2): GaussianNoise(std=0.05, trainable=False)#    (3): ReLU()#    (4): Conv2d(8, 24, kernel_size=(11, 11), stride=(1, 1))#    (5): BatchNorm2d(24, eps=0.001, momentum=0.99, affine=True, track_running_stats=True)#    (6): GaussianNoise(std=0.05, trainable=False)#    (7): ReLU()#    (8): Flatten()#    (9): Linear(in_features=16224, out_features=5, bias=True)#    (10): BatchNorm1d(5, eps=1e-05, momentum=0.1, affine=True, track_running_stats=True)#    (11): Softplus(beta=1, threshold=20)#  )#)#!0.34834614276877424!all!!0.05!0.0931842690618746!naturalscene!!!0.6050355085329936!-4.05318673793367!512.0!-4.073971342102595!bncnn2d/bncnn2d_22_chans[8, 24]_lr0.0001!!!!!!!!!!!!!!!!!!!!!!!!!!!!!
bncnn2d!23.0!15-10-07!0.005!0.32477580904960635!100.0!<class 'models.BN_CNN_2D.BNCNN2D'>!True![8, 24]!bncnn2d/results.txt!1e-05!!18.0!0.0001!!0.5466669869455674!BNCNN2D(#  (sequential): Sequential(#    (0): Conv2d(40, 8, kernel_size=(15, 15), stride=(1, 1))#    (1): BatchNorm2d(8, eps=0.001, momentum=0.99, affine=True, track_running_stats=True)#    (2): GaussianNoise(std=0.05, trainable=False)#    (3): ReLU()#    (4): Conv2d(8, 24, kernel_size=(11, 11), stride=(1, 1))#    (5): BatchNorm2d(24, eps=0.001, momentum=0.99, affine=True, track_running_stats=True)#    (6): GaussianNoise(std=0.05, trainable=False)#    (7): ReLU()#    (8): Flatten()#    (9): Linear(in_features=16224, out_features=5, bias=True)#    (10): BatchNorm1d(5, eps=1e-05, momentum=0.1, affine=True, track_running_stats=True)#    (11): Softplus(beta=1, threshold=20)#  )#)#!0.2894556693935482!all!!0.05!0.08713872606889979!naturalscene!!!0.4933167551729818!-2.910623882510904!512.0!-2.5811585933697643!bncnn2d/bncnn2d_23_chans[8, 24]_lr1e-05!!!!!!!!!!!!!!!!!!!!!!!!!!!!!
bncnn2d!24.0!15-10-07!0.005!0.2370947033166885!100.0!<class 'models.BN_CNN_2D.BNCNN2D'>!True![16, 24]!bncnn2d/results.txt!0.005!!18.0!0.0001!!0.60412893187586!BNCNN2D(#  (sequential): Sequential(#    (0): Conv2d(40, 16, kernel_size=(15, 15), stride=(1, 1))#    (1): BatchNorm2d(16, eps=0.001, momentum=0.99, affine=True, track_running_stats=True)#    (2): GaussianNoise(std=0.05, trainable=False)#    (3): ReLU()#    (4): Conv2d(16, 24, kernel_size=(11, 11), stride=(1, 1))#    (5): BatchNorm2d(24, eps=0.001, momentum=0.99, affine=True, track_running_stats=True)#    (6): GaussianNoise(std=0.05, trainable=False)#    (7): ReLU()#    (8): Flatten()#    (9): Linear(in_features=16224, out_features=5, bias=True)#    (10): BatchNorm1d(5, eps=1e-05, momentum=0.1, affine=True, track_running_stats=True)#    (11): Softplus(beta=1, threshold=20)#  )#)#!0.5151799342046083!all!!0.05!0.14635401457519426!naturalscene!!!0.7243266509342909!-2.479807004130264!512.0!-2.3787243939586915!bncnn2d/bncnn2d_24_chans[16, 24]_lr0.005!!!!!!!!!!!!!!!!!!!!!!!!!!!!!
bncnn2d!25.0!15-10-07!0.005!0.37137873768806456!100.0!<class 'models.BN_CNN_2D.BNCNN2D'>!True![16, 24]!bncnn2d/results.txt!0.0001!!18.0!0.0001!!0.5801508311620928!BNCNN2D(#  (sequential): Sequential(#    (0): Conv2d(40, 16, kernel_size=(15, 15), stride=(1, 1))#    (1): BatchNorm2d(16, eps=0.001, momentum=0.99, affine=True, track_running_stats=True)#    (2): GaussianNoise(std=0.05, trainable=False)#    (3): ReLU()#    (4): Conv2d(16, 24, kernel_size=(11, 11), stride=(1, 1))#    (5): BatchNorm2d(24, eps=0.001, momentum=0.99, affine=True, track_running_stats=True)#    (6): GaussianNoise(std=0.05, trainable=False)#    (7): ReLU()#    (8): Flatten()#    (9): Linear(in_features=16224, out_features=5, bias=True)#    (10): BatchNorm1d(5, eps=1e-05, momentum=0.1, affine=True, track_running_stats=True)#    (11): Softplus(beta=1, threshold=20)#  )#)#!0.34867285454179536!all!!0.05!0.11768002116650472!naturalscene!!!0.5970740105237343!-4.117349857298677!512.0!-3.8453309377036935!bncnn2d/bncnn2d_25_chans[16, 24]_lr0.0001!!!!!!!!!!!!!!!!!!!!!!!!!!!!!
bncnn2d!26.0!15-10-07!0.005!0.3395167589187622!100.0!<class 'models.BN_CNN_2D.BNCNN2D'>!True![16, 24]!bncnn2d/results.txt!1e-05!!18.0!0.0001!!0.5403235186782546!BNCNN2D(#  (sequential): Sequential(#    (0): Conv2d(40, 16, kernel_size=(15, 15), stride=(1, 1))#    (1): BatchNorm2d(16, eps=0.001, momentum=0.99, affine=True, track_running_stats=True)#    (2): GaussianNoise(std=0.05, trainable=False)#    (3): ReLU()#    (4): Conv2d(16, 24, kernel_size=(11, 11), stride=(1, 1))#    (5): BatchNorm2d(24, eps=0.001, momentum=0.99, affine=True, track_running_stats=True)#    (6): GaussianNoise(std=0.05, trainable=False)#    (7): ReLU()#    (8): Flatten()#    (9): Linear(in_features=16224, out_features=5, bias=True)#    (10): BatchNorm1d(5, eps=1e-05, momentum=0.1, affine=True, track_running_stats=True)#    (11): Softplus(beta=1, threshold=20)#  )#)#!0.2718244752663593!all!!0.05!0.0808347812540322!naturalscene!!!0.4541661631720218!-3.516608736813518!512.0!-3.097332831399399!bncnn2d/bncnn2d_26_chans[16, 24]_lr1e-05!!!!!!!!!!!!!!!!!!!!!!!!!!!!!
bncnn2d!2.0!15-10-07!0.005!0.29721114337444304!100.0!<class 'models.BN_CNN_2D.BNCNN2D'>!True![8, 8]!bncnn2d/results.txt!1e-05!!0.0!0.0001!!0.6144405821197075!BNCNN2D(#  (sequential): Sequential(#    (0): Conv2d(40, 8, kernel_size=(15, 15), stride=(1, 1))#    (1): BatchNorm2d(8, eps=0.001, momentum=0.99, affine=True, track_running_stats=True)#    (2): GaussianNoise(std=0.05, trainable=False)#    (3): ReLU()#    (4): Conv2d(8, 8, kernel_size=(11, 11), stride=(1, 1))#    (5): BatchNorm2d(8, eps=0.001, momentum=0.99, affine=True, track_running_stats=True)#    (6): GaussianNoise(std=0.05, trainable=False)#    (7): ReLU()#    (8): Flatten()#    (9): Linear(in_features=5408, out_features=5, bias=True)#    (10): BatchNorm1d(5, eps=1e-05, momentum=0.1, affine=True, track_running_stats=True)#    (11): Softplus(beta=1, threshold=20)#  )#)#!0.29844573204725794!all!!0.05!0.08480535008470495!naturalscene!!!0.5185624978485007!-2.6932328854930527!512.0!-2.5887704432352616!bncnn2d/bncnn2d_2_chans[8, 8]_lr1e-05!!!!!!!!!!!!!!!!!!!!!!!!!!!!!
bncnn2d!3.0!15-10-07!0.005!0.2075755000114441!100.0!<class 'models.BN_CNN_2D.BNCNN2D'>!True![8, 16]!bncnn2d/results.txt!0.005!!0.0!0.0001!!0.5262150913020512!BNCNN2D(#  (sequential): Sequential(#    (0): Conv2d(40, 8, kernel_size=(15, 15), stride=(1, 1))#    (1): BatchNorm2d(8, eps=0.001, momentum=0.99, affine=True, track_running_stats=True)#    (2): GaussianNoise(std=0.05, trainable=False)#    (3): ReLU()#    (4): Conv2d(8, 8, kernel_size=(11, 11), stride=(1, 1))#    (5): BatchNorm2d(8, eps=0.001, momentum=0.99, affine=True, track_running_stats=True)#    (6): GaussianNoise(std=0.05, trainable=False)#    (7): ReLU()#    (8): Flatten()#    (9): Linear(in_features=5408, out_features=5, bias=True)#    (10): BatchNorm1d(5, eps=1e-05, momentum=0.1, affine=True, track_running_stats=True)#    (11): Softplus(beta=1, threshold=20)#  )#)#!0.5312787589836219!all!!0.05!0.1393757434389251!naturalscene!!!0.7488522190314076!-1.900460073831147!512.0!-1.8673216458919344!bncnn2d/bncnn2d_3_chans[8, 16]_lr0.005!!!!!!!!!!!!!!!!!!!!!!!!!!!!!
bncnn2d!4.0!15-10-07!0.005!0.3217299163341522!100.0!<class 'models.BN_CNN_2D.BNCNN2D'>!True![8, 16]!bncnn2d/results.txt!0.0001!!0.0!0.0001!!0.6095407111823968!BNCNN2D(#  (sequential): Sequential(#    (0): Conv2d(40, 8, kernel_size=(15, 15), stride=(1, 1))#    (1): BatchNorm2d(8, eps=0.001, momentum=0.99, affine=True, track_running_stats=True)#    (2): GaussianNoise(std=0.05, trainable=False)#    (3): ReLU()#    (4): Conv2d(8, 8, kernel_size=(11, 11), stride=(1, 1))#    (5): BatchNorm2d(8, eps=0.001, momentum=0.99, affine=True, track_running_stats=True)#    (6): GaussianNoise(std=0.05, trainable=False)#    (7): ReLU()#    (8): Flatten()#    (9): Linear(in_features=5408, out_features=5, bias=True)#    (10): BatchNorm1d(5, eps=1e-05, momentum=0.1, affine=True, track_running_stats=True)#    (11): Softplus(beta=1, threshold=20)#  )#)#!0.3464899204771029!all!!0.05!0.08747147962325001!naturalscene!!!0.6012408955531018!-3.720360573060912!512.0!-3.6734515724347134!bncnn2d/bncnn2d_4_chans[8, 16]_lr0.0001!!!!!!!!!!!!!!!!!!!!!!!!!!!!!
bncnn2d!5.0!15-10-07!0.005!0.2846454679965973!100.0!<class 'models.BN_CNN_2D.BNCNN2D'>!True![8, 16]!bncnn2d/results.txt!1e-05!!0.0!0.0001!!0.5749501149451375!BNCNN2D(#  (sequential): Sequential(#    (0): Conv2d(40, 8, kernel_size=(15, 15), stride=(1, 1))#    (1): BatchNorm2d(8, eps=0.001, momentum=0.99, affine=True, track_running_stats=True)#    (2): GaussianNoise(std=0.05, trainable=False)#    (3): ReLU()#    (4): Conv2d(8, 8, kernel_size=(11, 11), stride=(1, 1))#    (5): BatchNorm2d(8, eps=0.001, momentum=0.99, affine=True, track_running_stats=True)#    (6): GaussianNoise(std=0.05, trainable=False)#    (7): ReLU()#    (8): Flatten()#    (9): Linear(in_features=5408, out_features=5, bias=True)#    (10): BatchNorm1d(5, eps=1e-05, momentum=0.1, affine=True, track_running_stats=True)#    (11): Softplus(beta=1, threshold=20)#  )#)#!0.2660278724728276!all!!0.05!0.08728348055713664!naturalscene!!!0.4692500753645447!-2.8397139992289597!512.0!-2.5351984405497205!bncnn2d/bncnn2d_5_chans[8, 16]_lr1e-05!!!!!!!!!!!!!!!!!!!!!!!!!!!!!
bncnn2d!6.0!15-10-07!0.005!0.1653338149189949!100.0!<class 'models.BN_CNN_2D.BNCNN2D'>!True![8, 24]!bncnn2d/results.txt!0.005!!0.0!0.0001!!0.4120146506813885!BNCNN2D(#  (sequential): Sequential(#    (0): Conv2d(40, 8, kernel_size=(15, 15), stride=(1, 1))#    (1): BatchNorm2d(8, eps=0.001, momentum=0.99, affine=True, track_running_stats=True)#    (2): GaussianNoise(std=0.05, trainable=False)#    (3): ReLU()#    (4): Conv2d(8, 8, kernel_size=(11, 11), stride=(1, 1))#    (5): BatchNorm2d(8, eps=0.001, momentum=0.99, affine=True, track_running_stats=True)#    (6): GaussianNoise(std=0.05, trainable=False)#    (7): ReLU()#    (8): Flatten()#    (9): Linear(in_features=5408, out_features=5, bias=True)#    (10): BatchNorm1d(5, eps=1e-05, momentum=0.1, affine=True, track_running_stats=True)#    (11): Softplus(beta=1, threshold=20)#  )#)#!!all!!0.05!!naturalscene!True!!!-1.3490059537374801!512.0!-1.2329231532021367!bncnn2d/bncnn2d_6_chans[8, 24]_lr0.005!!!!!!!!!!!!!!!!!!!!!!!!!!!!!
bncnn2d!7.0!15-10-07!0.005!0.3228377938270569!100.0!<class 'models.BN_CNN_2D.BNCNN2D'>!True![8, 24]!bncnn2d/results.txt!0.0001!!0.0!0.0001!!0.6007429461390252!BNCNN2D(#  (sequential): Sequential(#    (0): Conv2d(40, 8, kernel_size=(15, 15), stride=(1, 1))#    (1): BatchNorm2d(8, eps=0.001, momentum=0.99, affine=True, track_running_stats=True)#    (2): GaussianNoise(std=0.05, trainable=False)#    (3): ReLU()#    (4): Conv2d(8, 8, kernel_size=(11, 11), stride=(1, 1))#    (5): BatchNorm2d(8, eps=0.001, momentum=0.99, affine=True, track_running_stats=True)#    (6): GaussianNoise(std=0.05, trainable=False)#    (7): ReLU()#    (8): Flatten()#    (9): Linear(in_features=5408, out_features=5, bias=True)#    (10): BatchNorm1d(5, eps=1e-05, momentum=0.1, affine=True, track_running_stats=True)#    (11): Softplus(beta=1, threshold=20)#  )#)#!0.3376898483185583!all!!0.05!0.09157053517337882!naturalscene!!!0.6036185240372285!-3.769027955571631!512.0!-3.4532900137637625!bncnn2d/bncnn2d_7_chans[8, 24]_lr0.0001!!!!!!!!!!!!!!!!!!!!!!!!!!!!!
scaleshift!0.0!15-10-07!0.01!0.2407427221536637!75.0!<class 'models.SS_CNN.SSCNN'>!!!scaleshift/results.txt!0.001!5.0!!0.001!!0.6855743462508185!SSCNN(#  (sequential): Sequential(#    (0): Conv2d(40, 8, kernel_size=(15, 15), stride=(1, 1))#    (1): ScaleShift(shape=(8, 36, 36), scale=True, shift=True)#    (2): GaussianNoise(std=0.05)#    (3): ReLU()#    (4): Conv2d(8, 8, kernel_size=(11, 11), stride=(1, 1))#    (5): ScaleShift(shape=(8, 26, 26), scale=True, shift=True)#    (6): GaussianNoise(std=0.05)#    (7): ReLU()#    (8): Flatten()#    (9): Linear(in_features=5408, out_features=5, bias=True)#    (10): ScaleShift(shape=5, scale=True, shift=True)#    (11): Softplus(beta=1, threshold=20)#  )#)#!0.3704573413187191!!!0.05!0.11589328951303984!naturalscene!!!0.6159668664123644!-2.463419062429604!512.0!-1.5649061352014542!scaleshift/scaleshift_0_lr0.001_l10.001_l20.01!!!!!!!!!!!!!!!!!!!!!!!!!!!!!
scaleshift!0.0!15-10-07!0.01!0.17330580204725266!100.0!<class 'models.SS_CNN.SSCNN'>!!!scaleshift/results.txt!0.001!5.0!!1.4999999999999999e-05!!0.4328873040264739!SSCNN(#  (sequential): Sequential(#    (0): Conv2d(40, 8, kernel_size=(15, 15), stride=(1, 1))#    (1): ScaleShift(shape=(8, 36, 36), scale=True, shift=True)#    (2): GaussianNoise(std=0.05)#    (3): ReLU()#    (4): Conv2d(8, 8, kernel_size=(11, 11), stride=(1, 1))#    (5): ScaleShift(shape=(8, 26, 26), scale=True, shift=True)#    (6): GaussianNoise(std=0.05)#    (7): ReLU()#    (8): Flatten()#    (9): Linear(in_features=5408, out_features=5, bias=True)#    (10): ScaleShift(shape=5, scale=True, shift=True)#    (11): Softplus(beta=1, threshold=20)#  )#)#!!!!0.05!!naturalscene!True!!!-1.5315083903492306!512.0!-0.9549724273383616!scaleshift/scaleshift_0_lr0.001_l11.5e-05!!!!!!!!!!!!!!!!!!!!!!!!!!!!!
scaleshift!10.0!15-10-07!0.01!0.2488165915012361!75.0!<class 'models.SS_CNN.SSCNN'>!!!scaleshift/results.txt!0.0001!5.0!!1e-06!!0.7093136759504562!SSCNN(#  (sequential): Sequential(#    (0): Conv2d(40, 8, kernel_size=(15, 15), stride=(1, 1))#    (1): ScaleShift(shape=(8, 36, 36), scale=True, shift=True)#    (2): GaussianNoise(std=0.05)#    (3): ReLU()#    (4): Conv2d(8, 8, kernel_size=(11, 11), stride=(1, 1))#    (5): ScaleShift(shape=(8, 26, 26), scale=True, shift=True)#    (6): GaussianNoise(std=0.05)#    (7): ReLU()#    (8): Flatten()#    (9): Linear(in_features=5408, out_features=5, bias=True)#    (10): ScaleShift(shape=5, scale=True, shift=True)#    (11): Softplus(beta=1, threshold=20)#  )#)#!0.39519473554908396!!!0.05!0.13886162476483074!naturalscene!!!0.6697885695558737!-3.199815031629882!512.0!-1.8815754055976868!scaleshift/scaleshift_10_lr0.0001_l11e-06_l20.01!!!!!!!!!!!!!!!!!!!!!!!!!!!!!
scaleshift!11.0!15-10-07!0.001!0.2374926656484604!75.0!<class 'models.SS_CNN.SSCNN'>!!!scaleshift/results.txt!0.0001!5.0!!1e-06!!0.7080015545814039!SSCNN(#  (sequential): Sequential(#    (0): Conv2d(40, 8, kernel_size=(15, 15), stride=(1, 1))#    (1): ScaleShift(shape=(8, 36, 36), scale=True, shift=True)#    (2): GaussianNoise(std=0.05)#    (3): ReLU()#    (4): Conv2d(8, 8, kernel_size=(11, 11), stride=(1, 1))#    (5): ScaleShift(shape=(8, 26, 26), scale=True, shift=True)#    (6): GaussianNoise(std=0.05)#    (7): ReLU()#    (8): Flatten()#    (9): Linear(in_features=5408, out_features=5, bias=True)#    (10): ScaleShift(shape=5, scale=True, shift=True)#    (11): Softplus(beta=1, threshold=20)#  )#)#!0.36665262149686895!!!0.05!0.08537354684417785!naturalscene!!!0.6520220266698833!-3.614816650545975!512.0!-1.8523718416690824!scaleshift/scaleshift_11_lr0.0001_l11e-06_l20.001!!!!!!!!!!!!!!!!!!!!!!!!!!!!!
scaleshift!12.0!15-10-07!0.01!0.2219993561506272!75.0!<class 'models.SS_CNN.SSCNN'>!!!scaleshift/results.txt!1e-05!5.0!!0.001!!0.5974578411221219!SSCNN(#  (sequential): Sequential(#    (0): Conv2d(40, 8, kernel_size=(15, 15), stride=(1, 1))#    (1): ScaleShift(shape=(8, 36, 36), scale=True, shift=True)#    (2): GaussianNoise(std=0.05)#    (3): ReLU()#    (4): Conv2d(8, 8, kernel_size=(11, 11), stride=(1, 1))#    (5): ScaleShift(shape=(8, 26, 26), scale=True, shift=True)#    (6): GaussianNoise(std=0.05)#    (7): ReLU()#    (8): Flatten()#    (9): Linear(in_features=5408, out_features=5, bias=True)#    (10): ScaleShift(shape=5, scale=True, shift=True)#    (11): Softplus(beta=1, threshold=20)#  )#)#!0.4348234286872042!!!0.05!0.10968388308951288!naturalscene!!!0.6627894308571295!-1.6647153478312458!512.0!-1.4257049225270748!scaleshift/scaleshift_12_lr1e-05_l10.001_l20.01!!!!!!!!!!!!!!!!!!!!!!!!!!!!!
scaleshift!13.0!15-10-07!0.001!0.2288499295711517!75.0!<class 'models.SS_CNN.SSCNN'>!!!scaleshift/results.txt!1e-05!5.0!!0.001!!0.6233573335611011!SSCNN(#  (sequential): Sequential(#    (0): Conv2d(40, 8, kernel_size=(15, 15), stride=(1, 1))#    (1): ScaleShift(shape=(8, 36, 36), scale=True, shift=True)#    (2): GaussianNoise(std=0.05)#    (3): ReLU()#    (4): Conv2d(8, 8, kernel_size=(11, 11), stride=(1, 1))#    (5): ScaleShift(shape=(8, 26, 26), scale=True, shift=True)#    (6): GaussianNoise(std=0.05)#    (7): ReLU()#    (8): Flatten()#    (9): Linear(in_features=5408, out_features=5, bias=True)#    (10): ScaleShift(shape=5, scale=True, shift=True)#    (11): Softplus(beta=1, threshold=20)#  )#)#!0.3683559418548623!!!0.05!0.09186884612125963!naturalscene!!!0.5939788038562992!-1.835440117039832!512.0!-1.6225657165050509!scaleshift/scaleshift_13_lr1e-05_l10.001_l20.001!!!!!!!!!!!!!!!!!!!!!!!!!!!!!
scaleshift!14.0!15-10-07!0.01!0.2268190234899521!75.0!<class 'models.SS_CNN.SSCNN'>!!!scaleshift/results.txt!1e-05!5.0!!1.4999999999999999e-05!!0.617343669821948!SSCNN(#  (sequential): Sequential(#    (0): Conv2d(40, 8, kernel_size=(15, 15), stride=(1, 1))#    (1): ScaleShift(shape=(8, 36, 36), scale=True, shift=True)#    (2): GaussianNoise(std=0.05)#    (3): ReLU()#    (4): Conv2d(8, 8, kernel_size=(11, 11), stride=(1, 1))#    (5): ScaleShift(shape=(8, 26, 26), scale=True, shift=True)#    (6): GaussianNoise(std=0.05)#    (7): ReLU()#    (8): Flatten()#    (9): Linear(in_features=5408, out_features=5, bias=True)#    (10): ScaleShift(shape=5, scale=True, shift=True)#    (11): Softplus(beta=1, threshold=20)#  )#)#!0.4213389841460547!!!0.05!0.13091914858198572!naturalscene!!!0.626776996177932!-2.6950158038110565!512.0!-1.7456312030553818!scaleshift/scaleshift_14_lr1e-05_l11.5e-05_l20.01!!!!!!!!!!!!!!!!!!!!!!!!!!!!!
scaleshift!15.0!15-10-07!0.001!0.22175245583057404!75.0!<class 'models.SS_CNN.SSCNN'>!!!scaleshift/results.txt!1e-05!5.0!!1.4999999999999999e-05!!0.596236595421303!SSCNN(#  (sequential): Sequential(#    (0): Conv2d(40, 8, kernel_size=(15, 15), stride=(1, 1))#    (1): ScaleShift(shape=(8, 36, 36), scale=True, shift=True)#    (2): GaussianNoise(std=0.05)#    (3): ReLU()#    (4): Conv2d(8, 8, kernel_size=(11, 11), stride=(1, 1))#    (5): ScaleShift(shape=(8, 26, 26), scale=True, shift=True)#    (6): GaussianNoise(std=0.05)#    (7): ReLU()#    (8): Flatten()#    (9): Linear(in_features=5408, out_features=5, bias=True)#    (10): ScaleShift(shape=5, scale=True, shift=True)#    (11): Softplus(beta=1, threshold=20)#  )#)#!0.4030705483818183!!!0.05!0.10718719707620583!naturalscene!!!0.5949978483515106!-2.7414672222791934!512.0!-1.6938060894608498!scaleshift/scaleshift_15_lr1e-05_l11.5e-05_l20.001!!!!!!!!!!!!!!!!!!!!!!!!!!!!!
scaleshift!16.0!15-10-07!0.01!0.2195628136396408!75.0!<class 'models.SS_CNN.SSCNN'>!!!scaleshift/results.txt!1e-05!5.0!!1e-06!!0.5935128394924899!SSCNN(#  (sequential): Sequential(#    (0): Conv2d(40, 8, kernel_size=(15, 15), stride=(1, 1))#    (1): ScaleShift(shape=(8, 36, 36), scale=True, shift=True)#    (2): GaussianNoise(std=0.05)#    (3): ReLU()#    (4): Conv2d(8, 8, kernel_size=(11, 11), stride=(1, 1))#    (5): ScaleShift(shape=(8, 26, 26), scale=True, shift=True)#    (6): GaussianNoise(std=0.05)#    (7): ReLU()#    (8): Flatten()#    (9): Linear(in_features=5408, out_features=5, bias=True)#    (10): ScaleShift(shape=5, scale=True, shift=True)#    (11): Softplus(beta=1, threshold=20)#  )#)#!0.3702226880329752!!!0.05!0.10235925759367336!naturalscene!!!0.5528020381289971!-2.6371132377226068!512.0!-1.6377380564808846!scaleshift/scaleshift_16_lr1e-05_l11e-06_l20.01!!!!!!!!!!!!!!!!!!!!!!!!!!!!!
scaleshift!17.0!15-10-07!0.001!0.21973221004009247!75.0!<class 'models.SS_CNN.SSCNN'>!!!scaleshift/results.txt!1e-05!5.0!!1e-06!!0.6120505855636736!SSCNN(#  (sequential): Sequential(#    (0): Conv2d(40, 8, kernel_size=(15, 15), stride=(1, 1))#    (1): ScaleShift(shape=(8, 36, 36), scale=True, shift=True)#    (2): GaussianNoise(std=0.05)#    (3): ReLU()#    (4): Conv2d(8, 8, kernel_size=(11, 11), stride=(1, 1))#    (5): ScaleShift(shape=(8, 26, 26), scale=True, shift=True)#    (6): GaussianNoise(std=0.05)#    (7): ReLU()#    (8): Flatten()#    (9): Linear(in_features=5408, out_features=5, bias=True)#    (10): ScaleShift(shape=5, scale=True, shift=True)#    (11): Softplus(beta=1, threshold=20)#  )#)#!0.3397585884278545!!!0.05!0.08723849357110118!naturalscene!!!0.5671574386251155!-2.7523635800248!512.0!-1.6626795008778572!scaleshift/scaleshift_17_lr1e-05_l11e-06_l20.001!!!!!!!!!!!!!!!!!!!!!!!!!!!!!
scaleshift!1.0!15-10-07!0.001!!75.0!<class 'models.SS_CNN.SSCNN'>!!!scaleshift/results.txt!0.001!5.0!!0.001!!!SSCNN(#  (sequential): Sequential(#    (0): Conv2d(40, 8, kernel_size=(15, 15), stride=(1, 1))#    (1): ScaleShift(shape=(8, 36, 36), scale=True, shift=True)#    (2): GaussianNoise(std=0.05)#    (3): ReLU()#    (4): Conv2d(8, 8, kernel_size=(11, 11), stride=(1, 1))#    (5): ScaleShift(shape=(8, 26, 26), scale=True, shift=True)#    (6): GaussianNoise(std=0.05)#    (7): ReLU()#    (8): Flatten()#    (9): Linear(in_features=5408, out_features=5, bias=True)#    (10): ScaleShift(shape=5, scale=True, shift=True)#    (11): Softplus(beta=1, threshold=20)#  )#)#!!!!0.05!!naturalscene!True!!!!512.0!!scaleshift/scaleshift_1_lr0.001_l10.001_l20.001!!!!!!!!!!!!!!!!!!!!!!!!!!!!!
scaleshift!2.0!15-10-07!0.01!0.2490630656480789!75.0!<class 'models.SS_CNN.SSCNN'>!!!scaleshift/results.txt!0.001!5.0!!1.4999999999999999e-05!!0.7125906678927421!SSCNN(#  (sequential): Sequential(#    (0): Conv2d(40, 8, kernel_size=(15, 15), stride=(1, 1))#    (1): ScaleShift(shape=(8, 36, 36), scale=True, shift=True)#    (2): GaussianNoise(std=0.05)#    (3): ReLU()#    (4): Conv2d(8, 8, kernel_size=(11, 11), stride=(1, 1))#    (5): ScaleShift(shape=(8, 26, 26), scale=True, shift=True)#    (6): GaussianNoise(std=0.05)#    (7): ReLU()#    (8): Flatten()#    (9): Linear(in_features=5408, out_features=5, bias=True)#    (10): ScaleShift(shape=5, scale=True, shift=True)#    (11): Softplus(beta=1, threshold=20)#  )#)#!0.35620822843746536!!!0.05!0.12782697231256376!naturalscene!!!0.6447559842185122!-3.3589101181130965!512.0!-2.0119057968258858!scaleshift/scaleshift_2_lr0.001_l11.5e-05_l20.01!!!!!!!!!!!!!!!!!!!!!!!!!!!!!
scaleshift!3.0!15-10-07!0.001!0.15746675282716752!75.0!<class 'models.SS_CNN.SSCNN'>!!!scaleshift/results.txt!0.001!5.0!!1.4999999999999999e-05!!0.3808415297618127!SSCNN(#  (sequential): Sequential(#    (0): Conv2d(40, 8, kernel_size=(15, 15), stride=(1, 1))#    (1): ScaleShift(shape=(8, 36, 36), scale=True, shift=True)#    (2): GaussianNoise(std=0.05)#    (3): ReLU()#    (4): Conv2d(8, 8, kernel_size=(11, 11), stride=(1, 1))#    (5): ScaleShift(shape=(8, 26, 26), scale=True, shift=True)#    (6): GaussianNoise(std=0.05)#    (7): ReLU()#    (8): Flatten()#    (9): Linear(in_features=5408, out_features=5, bias=True)#    (10): ScaleShift(shape=5, scale=True, shift=True)#    (11): Softplus(beta=1, threshold=20)#  )#)#!!!!0.05!!naturalscene!True!!!-1.3651550165286248!512.0!-0.8190112199736177!scaleshift/scaleshift_3_lr0.001_l11.5e-05_l20.001!!!!!!!!!!!!!!!!!!!!!!!!!!!!!
scaleshift!4.0!15-10-07!0.01!0.2381403267383576!75.0!<class 'models.SS_CNN.SSCNN'>!!!scaleshift/results.txt!0.001!5.0!!1e-06!!0.6711624914045874!SSCNN(#  (sequential): Sequential(#    (0): Conv2d(40, 8, kernel_size=(15, 15), stride=(1, 1))#    (1): ScaleShift(shape=(8, 36, 36), scale=True, shift=True)#    (2): GaussianNoise(std=0.05)#    (3): ReLU()#    (4): Conv2d(8, 8, kernel_size=(11, 11), stride=(1, 1))#    (5): ScaleShift(shape=(8, 26, 26), scale=True, shift=True)#    (6): GaussianNoise(std=0.05)#    (7): ReLU()#    (8): Flatten()#    (9): Linear(in_features=5408, out_features=5, bias=True)#    (10): ScaleShift(shape=5, scale=True, shift=True)#    (11): Softplus(beta=1, threshold=20)#  )#)#!0.3542906671801013!!!0.05!0.1072918241479135!naturalscene!!!0.6103154366152057!-3.1916316501335498!512.0!-1.9605396911501884!scaleshift/scaleshift_4_lr0.001_l11e-06_l20.01!!!!!!!!!!!!!!!!!!!!!!!!!!!!!
scaleshift!5.0!15-10-07!0.001!0.22027964890003204!75.0!<class 'models.SS_CNN.SSCNN'>!!!scaleshift/results.txt!0.001!5.0!!1e-06!!0.6475569516386791!SSCNN(#  (sequential): Sequential(#    (0): Conv2d(40, 8, kernel_size=(15, 15), stride=(1, 1))#    (1): ScaleShift(shape=(8, 36, 36), scale=True, shift=True)#    (2): GaussianNoise(std=0.05)#    (3): ReLU()#    (4): Conv2d(8, 8, kernel_size=(11, 11), stride=(1, 1))#    (5): ScaleShift(shape=(8, 26, 26), scale=True, shift=True)#    (6): GaussianNoise(std=0.05)#    (7): ReLU()#    (8): Flatten()#    (9): Linear(in_features=5408, out_features=5, bias=True)#    (10): ScaleShift(shape=5, scale=True, shift=True)#    (11): Softplus(beta=1, threshold=20)#  )#)#!0.3494390880389517!!!0.05!0.10106697987968784!naturalscene!!!0.6162352181954829!-3.685817895252061!512.0!-1.2021647151559591!scaleshift/scaleshift_5_lr0.001_l11e-06_l20.001!!!!!!!!!!!!!!!!!!!!!!!!!!!!!
scaleshift!6.0!15-10-07!0.01!0.2527062773704529!75.0!<class 'models.SS_CNN.SSCNN'>!!!scaleshift/results.txt!0.0001!5.0!!0.001!!0.7039951638585468!SSCNN(#  (sequential): Sequential(#    (0): Conv2d(40, 8, kernel_size=(15, 15), stride=(1, 1))#    (1): ScaleShift(shape=(8, 36, 36), scale=True, shift=True)#    (2): GaussianNoise(std=0.05)#    (3): ReLU()#    (4): Conv2d(8, 8, kernel_size=(11, 11), stride=(1, 1))#    (5): ScaleShift(shape=(8, 26, 26), scale=True, shift=True)#    (6): GaussianNoise(std=0.05)#    (7): ReLU()#    (8): Flatten()#    (9): Linear(in_features=5408, out_features=5, bias=True)#    (10): ScaleShift(shape=5, scale=True, shift=True)#    (11): Softplus(beta=1, threshold=20)#  )#)#!0.3804870366912617!!!0.05!0.12023490632313125!naturalscene!!!0.693167301358866!-2.3792380677089437!512.0!-1.7785890325903893!scaleshift/scaleshift_6_lr0.0001_l10.001_l20.01!!!!!!!!!!!!!!!!!!!!!!!!!!!!!
scaleshift!7.0!15-10-07!0.001!0.2422324538230896!75.0!<class 'models.SS_CNN.SSCNN'>!!!scaleshift/results.txt!0.0001!5.0!!0.001!!0.688285531051823!SSCNN(#  (sequential): Sequential(#    (0): Conv2d(40, 8, kernel_size=(15, 15), stride=(1, 1))#    (1): ScaleShift(shape=(8, 36, 36), scale=True, shift=True)#    (2): GaussianNoise(std=0.05)#    (3): ReLU()#    (4): Conv2d(8, 8, kernel_size=(11, 11), stride=(1, 1))#    (5): ScaleShift(shape=(8, 26, 26), scale=True, shift=True)#    (6): GaussianNoise(std=0.05)#    (7): ReLU()#    (8): Flatten()#    (9): Linear(in_features=5408, out_features=5, bias=True)#    (10): ScaleShift(shape=5, scale=True, shift=True)#    (11): Softplus(beta=1, threshold=20)#  )#)#!0.3710510636879465!!!0.05!0.1076017435050566!naturalscene!!!0.6485892540964462!-2.617954254240292!512.0!-1.8298200219869607!scaleshift/scaleshift_7_lr0.0001_l10.001_l20.001!!!!!!!!!!!!!!!!!!!!!!!!!!!!!
scaleshift!8.0!15-10-07!0.01!0.2481389909982681!75.0!<class 'models.SS_CNN.SSCNN'>!!!scaleshift/results.txt!0.0001!5.0!!1.4999999999999999e-05!!0.7072228077412549!SSCNN(#  (sequential): Sequential(#    (0): Conv2d(40, 8, kernel_size=(15, 15), stride=(1, 1))#    (1): ScaleShift(shape=(8, 36, 36), scale=True, shift=True)#    (2): GaussianNoise(std=0.05)#    (3): ReLU()#    (4): Conv2d(8, 8, kernel_size=(11, 11), stride=(1, 1))#    (5): ScaleShift(shape=(8, 26, 26), scale=True, shift=True)#    (6): GaussianNoise(std=0.05)#    (7): ReLU()#    (8): Flatten()#    (9): Linear(in_features=5408, out_features=5, bias=True)#    (10): ScaleShift(shape=5, scale=True, shift=True)#    (11): Softplus(beta=1, threshold=20)#  )#)#!0.3632599734938954!!!0.05!0.09568278246671236!naturalscene!!!0.7028351647384029!-3.1212219625576587!512.0!-1.876933880150318!scaleshift/scaleshift_8_lr0.0001_l11.5e-05_l20.01!!!!!!!!!!!!!!!!!!!!!!!!!!!!!
scaleshift!9.0!15-10-07!0.001!0.2394813358783722!75.0!<class 'models.SS_CNN.SSCNN'>!!!scaleshift/results.txt!0.0001!5.0!!1.4999999999999999e-05!!0.6957102571173547!SSCNN(#  (sequential): Sequential(#    (0): Conv2d(40, 8, kernel_size=(15, 15), stride=(1, 1))#    (1): ScaleShift(shape=(8, 36, 36), scale=True, shift=True)#    (2): GaussianNoise(std=0.05)#    (3): ReLU()#    (4): Conv2d(8, 8, kernel_size=(11, 11), stride=(1, 1))#    (5): ScaleShift(shape=(8, 26, 26), scale=True, shift=True)#    (6): GaussianNoise(std=0.05)#    (7): ReLU()#    (8): Flatten()#    (9): Linear(in_features=5408, out_features=5, bias=True)#    (10): ScaleShift(shape=5, scale=True, shift=True)#    (11): Softplus(beta=1, threshold=20)#  )#)#!0.37005213425640215!!!0.05!0.10568389870538432!naturalscene!!!0.6701860040755101!-3.4941024014313298!512.0!-1.8472004979848864!scaleshift/scaleshift_9_lr0.0001_l11.5e-05_l20.001!!!!!!!!!!!!!!!!!!!!!!!!!!!!!
bncnnDataSearch!0.0!15-10-07!0.005!0.28865116834640503!100.0!<class 'models.BN_CNN.BNCNN'>!True!!bncnnDataSearch/results.txt!0.005!!0.0!0.0001!!0.7101083157633391!BNCNN(#  (sequential): Sequential(#    (0): Conv2d(40, 8, kernel_size=(15, 15), stride=(1, 1))#    (1): Flatten()#    (2): BatchNorm1d(10368, eps=0.001, momentum=0.99, affine=True, track_running_stats=True)#    (3): GaussianNoise(std=0.05, trainable=False)#    (4): ReLU()#    (5): Reshape()#    (6): Conv2d(8, 8, kernel_size=(11, 11), stride=(1, 1))#    (7): Flatten()#    (8): BatchNorm1d(5408, eps=0.001, momentum=0.99, affine=True, track_running_stats=True)#    (9): GaussianNoise(std=0.05, trainable=False)#    (10): ReLU()#    (11): Linear(in_features=5408, out_features=5, bias=True)#    (12): BatchNorm1d(5, eps=1e-05, momentum=0.1, affine=True, track_running_stats=True)#    (13): Softplus(beta=1, threshold=20)#  )#)#!0.3931215212157214!all!!0.05!0.1114723291734634!whitenoise!!!0.6089647691862174!-6.345135047964381!512.0!-6.239952645559241!bncnnDataSearch/bncnnDataSearch_0_dataset15-10-07_stim_typewhitenoise!!!!!!!!!!!!!!!!!!!!!!!!!!!!!
bncnnDataSearch!1.0!15-10-07!0.005!0.263962921500206!100.0!<class 'models.BN_CNN.BNCNN'>!True!!bncnnDataSearch/results.txt!0.005!!0.0!0.0001!!0.6005618335318751!BNCNN(#  (sequential): Sequential(#    (0): Conv2d(40, 8, kernel_size=(15, 15), stride=(1, 1))#    (1): Flatten()#    (2): BatchNorm1d(10368, eps=0.001, momentum=0.99, affine=True, track_running_stats=True)#    (3): GaussianNoise(std=0.05, trainable=False)#    (4): ReLU()#    (5): Reshape()#    (6): Conv2d(8, 8, kernel_size=(11, 11), stride=(1, 1))#    (7): Flatten()#    (8): BatchNorm1d(5408, eps=0.001, momentum=0.99, affine=True, track_running_stats=True)#    (9): GaussianNoise(std=0.05, trainable=False)#    (10): ReLU()#    (11): Linear(in_features=5408, out_features=5, bias=True)#    (12): BatchNorm1d(5, eps=1e-05, momentum=0.1, affine=True, track_running_stats=True)#    (13): Softplus(beta=1, threshold=20)#  )#)#!0.4251755735065839!all!!0.05!0.12301767201749418!naturalscene!!!0.6998710448606947!-2.8738065580437087!512.0!-2.8419340202381136!bncnnDataSearch/bncnnDataSearch_1_dataset15-10-07_stim_typenaturalscene!!!!!!!!!!!!!!!!!!!!!!!!!!!!!
bncnnDataSearch!2.0!15-11-21a!0.005!0.2941647842526436!100.0!<class 'models.BN_CNN.BNCNN'>!True!!bncnnDataSearch/results.txt!0.005!!0.0!0.0001!!0.6720275398049208!BNCNN(#  (sequential): Sequential(#    (0): Conv2d(40, 8, kernel_size=(15, 15), stride=(1, 1))#    (1): Flatten()#    (2): BatchNorm1d(10368, eps=0.001, momentum=0.99, affine=True, track_running_stats=True)#    (3): GaussianNoise(std=0.05, trainable=False)#    (4): ReLU()#    (5): Reshape()#    (6): Conv2d(8, 8, kernel_size=(11, 11), stride=(1, 1))#    (7): Flatten()#    (8): BatchNorm1d(5408, eps=0.001, momentum=0.99, affine=True, track_running_stats=True)#    (9): GaussianNoise(std=0.05, trainable=False)#    (10): ReLU()#    (11): Linear(in_features=5408, out_features=4, bias=True)#    (12): BatchNorm1d(4, eps=1e-05, momentum=0.1, affine=True, track_running_stats=True)#    (13): Softplus(beta=1, threshold=20)#  )#)#!0.4959976343102039!all!!0.05!0.16516153649565846!whitenoise!!!0.7379224371937374!-11.600523145310301!512.0!-11.207152033275634!bncnnDataSearch/bncnnDataSearch_2_dataset15-11-21a_stim_typewhitenoise!!!!!!!!!!!!!!!!!!!!!!!!!!!!!
bncnnDataSearch!3.0!15-11-21a!0.005!0.29321836680173874!100.0!<class 'models.BN_CNN.BNCNN'>!True!!bncnnDataSearch/results.txt!0.005!!0.0!0.0001!!0.6944496989703658!BNCNN(#  (sequential): Sequential(#    (0): Conv2d(40, 8, kernel_size=(15, 15), stride=(1, 1))#    (1): Flatten()#    (2): BatchNorm1d(10368, eps=0.001, momentum=0.99, affine=True, track_running_stats=True)#    (3): GaussianNoise(std=0.05, trainable=False)#    (4): ReLU()#    (5): Reshape()#    (6): Conv2d(8, 8, kernel_size=(11, 11), stride=(1, 1))#    (7): Flatten()#    (8): BatchNorm1d(5408, eps=0.001, momentum=0.99, affine=True, track_running_stats=True)#    (9): GaussianNoise(std=0.05, trainable=False)#    (10): ReLU()#    (11): Linear(in_features=5408, out_features=4, bias=True)#    (12): BatchNorm1d(4, eps=1e-05, momentum=0.1, affine=True, track_running_stats=True)#    (13): Softplus(beta=1, threshold=20)#  )#)#!0.5337798085444823!all!!0.05!0.1930652143128745!naturalscene!!!0.7856839493455436!-10.1273848345197!512.0!-10.488153753798544!bncnnDataSearch/bncnnDataSearch_3_dataset15-11-21a_stim_typenaturalscene!!!!!!!!!!!!!!!!!!!!!!!!!!!!!
bncnnDataSearch!4.0!15-11-21b!0.005!0.25304175299756665!100.0!<class 'models.BN_CNN.BNCNN'>!True!!bncnnDataSearch/results.txt!0.005!!0.0!0.0001!!0.5386035418496716!BNCNN(#  (sequential): Sequential(#    (0): Conv2d(40, 8, kernel_size=(15, 15), stride=(1, 1))#    (1): Flatten()#    (2): BatchNorm1d(10368, eps=0.001, momentum=0.99, affine=True, track_running_stats=True)#    (3): GaussianNoise(std=0.05, trainable=False)#    (4): ReLU()#    (5): Reshape()#    (6): Conv2d(8, 8, kernel_size=(11, 11), stride=(1, 1))#    (7): Flatten()#    (8): BatchNorm1d(5408, eps=0.001, momentum=0.99, affine=True, track_running_stats=True)#    (9): GaussianNoise(std=0.05, trainable=False)#    (10): ReLU()#    (11): Linear(in_features=5408, out_features=17, bias=True)#    (12): BatchNorm1d(17, eps=1e-05, momentum=0.1, affine=True, track_running_stats=True)#    (13): Softplus(beta=1, threshold=20)#  )#)#!0.42343086136190417!all!!0.05!0.13512096186734995!whitenoise!!!0.6849903204289949!-7.591547675442013!512.0!-7.615744121925672!bncnnDataSearch/bncnnDataSearch_4_dataset15-11-21b_stim_typewhitenoise!!!!!!!!!!!!!!!!!!!!!!!!!!!!!
bncnnDataSearch!5.0!15-11-21b!0.005!0.2475559926208328!100.0!<class 'models.BN_CNN.BNCNN'>!True!!bncnnDataSearch/results.txt!0.005!!0.0!0.0001!!0.5873056410120121!BNCNN(#  (sequential): Sequential(#    (0): Conv2d(40, 8, kernel_size=(15, 15), stride=(1, 1))#    (1): Flatten()#    (2): BatchNorm1d(10368, eps=0.001, momentum=0.99, affine=True, track_running_stats=True)#    (3): GaussianNoise(std=0.05, trainable=False)#    (4): ReLU()#    (5): Reshape()#    (6): Conv2d(8, 8, kernel_size=(11, 11), stride=(1, 1))#    (7): Flatten()#    (8): BatchNorm1d(5408, eps=0.001, momentum=0.99, affine=True, track_running_stats=True)#    (9): GaussianNoise(std=0.05, trainable=False)#    (10): ReLU()#    (11): Linear(in_features=5408, out_features=17, bias=True)#    (12): BatchNorm1d(17, eps=1e-05, momentum=0.1, affine=True, track_running_stats=True)#    (13): Softplus(beta=1, threshold=20)#  )#)#!0.5058986893587799!all!!0.05!0.21519630336188947!naturalscene!!!0.7584739710930275!-6.799598386744387!512.0!-6.591351803741418!bncnnDataSearch/bncnnDataSearch_5_dataset15-11-21b_stim_typenaturalscene!!!!!!!!!!!!!!!!!!!!!!!!!!!!!
dalesBNnobias!0.0!15-10-07!0.01!0.20998119115829467!100.0!<class 'models.Dales_BN_CNN.DalesBNCNN'>!False!!dalesBNnobias/results.txt!0.01!5.0!!0.0001!!0.5410685926690426!DalesBNCNN(#  (sequential): Sequential(#    (0): AbsConv2d(#      (conv): Conv2d(40, 8, kernel_size=(15, 15), stride=(1, 1), bias=False)#    )#    (1): Flatten()#    (2): BatchNorm1d(10368, eps=0.001, momentum=0.1, affine=True, track_running_stats=True)#    (3): GaussianNoise(std=0.05)#    (4): ReLU()#    (5): Reshape()#    (6): DaleActivations(n_chan=8, neg_p=0.5, n_neg_chan=4)#    (7): AbsConv2d(#      (conv): Conv2d(8, 8, kernel_size=(11, 11), stride=(1, 1), bias=False)#    )#    (8): Flatten()#    (9): BatchNorm1d(5408, eps=0.001, momentum=0.1, affine=True, track_running_stats=True)#    (10): GaussianNoise(std=0.05)#    (11): ReLU()#    (12): Reshape()#    (13): DaleActivations(n_chan=8, neg_p=0.5, n_neg_chan=4)#    (14): Flatten()#    (15): AbsLinear(#      (linear): Linear(in_features=5408, out_features=5, bias=False)#    )#    (16): BatchNorm1d(5, eps=1e-05, momentum=0.1, affine=True, track_running_stats=True)#    (17): Softplus(beta=1, threshold=20)#  )#)#!0.4105270675474717!!!0.05!0.08220664595026637!naturalscene!!!0.6305695605976558!-1.7645855871216023!512.0!-1.3699727393686771!dalesBNnobias/dalesBNnobias_0_lr0.01_l10.0001_l20.01!!!!!!!!!!!!!!!!!!!!!!!!!!!!!
dalesBNnobias!10.0!15-10-07!0.01!0.17123459577560424!100.0!<class 'models.Dales_BN_CNN.DalesBNCNN'>!False!!dalesBNnobias/results.txt!0.0001!5.0!!1e-06!!0.4325971056599165!DalesBNCNN(#  (sequential): Sequential(#    (0): AbsConv2d(#      (conv): Conv2d(40, 8, kernel_size=(15, 15), stride=(1, 1), bias=False)#    )#    (1): Flatten()#    (2): BatchNorm1d(10368, eps=0.001, momentum=0.1, affine=True, track_running_stats=True)#    (3): GaussianNoise(std=0.05)#    (4): ReLU()#    (5): Reshape()#    (6): DaleActivations(n_chan=8, neg_p=0.5, n_neg_chan=4)#    (7): AbsConv2d(#      (conv): Conv2d(8, 8, kernel_size=(11, 11), stride=(1, 1), bias=False)#    )#    (8): Flatten()#    (9): BatchNorm1d(5408, eps=0.001, momentum=0.1, affine=True, track_running_stats=True)#    (10): GaussianNoise(std=0.05)#    (11): ReLU()#    (12): Reshape()#    (13): DaleActivations(n_chan=8, neg_p=0.5, n_neg_chan=4)#    (14): Flatten()#    (15): AbsLinear(#      (linear): Linear(in_features=5408, out_features=5, bias=False)#    )#    (16): BatchNorm1d(5, eps=1e-05, momentum=0.1, affine=True, track_running_stats=True)#    (17): Softplus(beta=1, threshold=20)#  )#)#!!!!0.05!!naturalscene!True!!!-1.4787932115341471!512.0!0.12345318729057908!dalesBNnobias/dalesBNnobias_10_lr0.0001_l11e-06_l20.01!!!!!!!!!!!!!!!!!!!!!!!!!!!!!
dalesBNnobias!11.0!15-10-07!0.005!0.21238057911396027!100.0!<class 'models.Dales_BN_CNN.DalesBNCNN'>!False!!dalesBNnobias/results.txt!0.0001!5.0!!1e-06!!0.5624644861958158!DalesBNCNN(#  (sequential): Sequential(#    (0): AbsConv2d(#      (conv): Conv2d(40, 8, kernel_size=(15, 15), stride=(1, 1), bias=False)#    )#    (1): Flatten()#    (2): BatchNorm1d(10368, eps=0.001, momentum=0.1, affine=True, track_running_stats=True)#    (3): GaussianNoise(std=0.05)#    (4): ReLU()#    (5): Reshape()#    (6): DaleActivations(n_chan=8, neg_p=0.5, n_neg_chan=4)#    (7): AbsConv2d(#      (conv): Conv2d(8, 8, kernel_size=(11, 11), stride=(1, 1), bias=False)#    )#    (8): Flatten()#    (9): BatchNorm1d(5408, eps=0.001, momentum=0.1, affine=True, track_running_stats=True)#    (10): GaussianNoise(std=0.05)#    (11): ReLU()#    (12): Reshape()#    (13): DaleActivations(n_chan=8, neg_p=0.5, n_neg_chan=4)#    (14): Flatten()#    (15): AbsLinear(#      (linear): Linear(in_features=5408, out_features=5, bias=False)#    )#    (16): BatchNorm1d(5, eps=1e-05, momentum=0.1, affine=True, track_running_stats=True)#    (17): Softplus(beta=1, threshold=20)#  )#)#!0.4100437671525088!!!0.05!0.06499846424044657!naturalscene!!!0.646130596207032!-2.111505495387145!512.0!-1.2992218770086763!dalesBNnobias/dalesBNnobias_11_lr0.0001_l11e-06_l20.005!!!!!!!!!!!!!!!!!!!!!!!!!!!!!
dalesBNnobias!12.0!15-10-07!0.01!0.2091442495584488!100.0!<class 'models.Dales_BN_CNN.DalesBNCNN'>!False!!dalesBNnobias/results.txt!1e-05!5.0!!0.0001!!0.5287990473445106!DalesBNCNN(#  (sequential): Sequential(#    (0): AbsConv2d(#      (conv): Conv2d(40, 8, kernel_size=(15, 15), stride=(1, 1), bias=False)#    )#    (1): Flatten()#    (2): BatchNorm1d(10368, eps=0.001, momentum=0.1, affine=True, track_running_stats=True)#    (3): GaussianNoise(std=0.05)#    (4): ReLU()#    (5): Reshape()#    (6): DaleActivations(n_chan=8, neg_p=0.5, n_neg_chan=4)#    (7): AbsConv2d(#      (conv): Conv2d(8, 8, kernel_size=(11, 11), stride=(1, 1), bias=False)#    )#    (8): Flatten()#    (9): BatchNorm1d(5408, eps=0.001, momentum=0.1, affine=True, track_running_stats=True)#    (10): GaussianNoise(std=0.05)#    (11): ReLU()#    (12): Reshape()#    (13): DaleActivations(n_chan=8, neg_p=0.5, n_neg_chan=4)#    (14): Flatten()#    (15): AbsLinear(#      (linear): Linear(in_features=5408, out_features=5, bias=False)#    )#    (16): BatchNorm1d(5, eps=1e-05, momentum=0.1, affine=True, track_running_stats=True)#    (17): Softplus(beta=1, threshold=20)#  )#)#!0.4356627832031891!!!0.05!0.1126467229295554!naturalscene!!!0.6431506268365578!-1.2731858505382796!512.0!-0.8662288542836905!dalesBNnobias/dalesBNnobias_12_lr1e-05_l10.0001_l20.01!!!!!!!!!!!!!!!!!!!!!!!!!!!!!
dalesBNnobias!13.0!15-10-07!0.005!0.2131082594394684!100.0!<class 'models.Dales_BN_CNN.DalesBNCNN'>!False!!dalesBNnobias/results.txt!1e-05!5.0!!0.0001!!0.5424386036570541!DalesBNCNN(#  (sequential): Sequential(#    (0): AbsConv2d(#      (conv): Conv2d(40, 8, kernel_size=(15, 15), stride=(1, 1), bias=False)#    )#    (1): Flatten()#    (2): BatchNorm1d(10368, eps=0.001, momentum=0.1, affine=True, track_running_stats=True)#    (3): GaussianNoise(std=0.05)#    (4): ReLU()#    (5): Reshape()#    (6): DaleActivations(n_chan=8, neg_p=0.5, n_neg_chan=4)#    (7): AbsConv2d(#      (conv): Conv2d(8, 8, kernel_size=(11, 11), stride=(1, 1), bias=False)#    )#    (8): Flatten()#    (9): BatchNorm1d(5408, eps=0.001, momentum=0.1, affine=True, track_running_stats=True)#    (10): GaussianNoise(std=0.05)#    (11): ReLU()#    (12): Reshape()#    (13): DaleActivations(n_chan=8, neg_p=0.5, n_neg_chan=4)#    (14): Flatten()#    (15): AbsLinear(#      (linear): Linear(in_features=5408, out_features=5, bias=False)#    )#    (16): BatchNorm1d(5, eps=1e-05, momentum=0.1, affine=True, track_running_stats=True)#    (17): Softplus(beta=1, threshold=20)#  )#)#!0.4355214811538875!!!0.05!0.1346661634300058!naturalscene!!!0.656561191022213!-1.3796734002785445!512.0!-0.91594102664385!dalesBNnobias/dalesBNnobias_13_lr1e-05_l10.0001_l20.005!!!!!!!!!!!!!!!!!!!!!!!!!!!!!
dalesBNnobias!14.0!15-10-07!0.01!0.19645922482013706!100.0!<class 'models.Dales_BN_CNN.DalesBNCNN'>!False!!dalesBNnobias/results.txt!1e-05!5.0!!1e-06!!0.5052647606488173!DalesBNCNN(#  (sequential): Sequential(#    (0): AbsConv2d(#      (conv): Conv2d(40, 8, kernel_size=(15, 15), stride=(1, 1), bias=False)#    )#    (1): Flatten()#    (2): BatchNorm1d(10368, eps=0.001, momentum=0.1, affine=True, track_running_stats=True)#    (3): GaussianNoise(std=0.05)#    (4): ReLU()#    (5): Reshape()#    (6): DaleActivations(n_chan=8, neg_p=0.5, n_neg_chan=4)#    (7): AbsConv2d(#      (conv): Conv2d(8, 8, kernel_size=(11, 11), stride=(1, 1), bias=False)#    )#    (8): Flatten()#    (9): BatchNorm1d(5408, eps=0.001, momentum=0.1, affine=True, track_running_stats=True)#    (10): GaussianNoise(std=0.05)#    (11): ReLU()#    (12): Reshape()#    (13): DaleActivations(n_chan=8, neg_p=0.5, n_neg_chan=4)#    (14): Flatten()#    (15): AbsLinear(#      (linear): Linear(in_features=5408, out_features=5, bias=False)#    )#    (16): BatchNorm1d(5, eps=1e-05, momentum=0.1, affine=True, track_running_stats=True)#    (17): Softplus(beta=1, threshold=20)#  )#)#!0.472910335917174!!!0.05!0.029118654784905176!naturalscene!!!0.6993743539068307!-1.4939398777532091!512.0!-0.6580499354749918!dalesBNnobias/dalesBNnobias_14_lr1e-05_l11e-06_l20.01!!!!!!!!!!!!!!!!!!!!!!!!!!!!!
dalesBNnobias!15.0!15-10-07!0.005!0.21036735475063328!100.0!<class 'models.Dales_BN_CNN.DalesBNCNN'>!False!!dalesBNnobias/results.txt!1e-05!5.0!!1e-06!!0.5294248227768976!DalesBNCNN(#  (sequential): Sequential(#    (0): AbsConv2d(#      (conv): Conv2d(40, 8, kernel_size=(15, 15), stride=(1, 1), bias=False)#    )#    (1): Flatten()#    (2): BatchNorm1d(10368, eps=0.001, momentum=0.1, affine=True, track_running_stats=True)#    (3): GaussianNoise(std=0.05)#    (4): ReLU()#    (5): Reshape()#    (6): DaleActivations(n_chan=8, neg_p=0.5, n_neg_chan=4)#    (7): AbsConv2d(#      (conv): Conv2d(8, 8, kernel_size=(11, 11), stride=(1, 1), bias=False)#    )#    (8): Flatten()#    (9): BatchNorm1d(5408, eps=0.001, momentum=0.1, affine=True, track_running_stats=True)#    (10): GaussianNoise(std=0.05)#    (11): ReLU()#    (12): Reshape()#    (13): DaleActivations(n_chan=8, neg_p=0.5, n_neg_chan=4)#    (14): Flatten()#    (15): AbsLinear(#      (linear): Linear(in_features=5408, out_features=5, bias=False)#    )#    (16): BatchNorm1d(5, eps=1e-05, momentum=0.1, affine=True, track_running_stats=True)#    (17): Softplus(beta=1, threshold=20)#  )#)#!0.4542341873581275!!!0.05!0.14333388539538452!naturalscene!!!0.6997778843244284!-1.5902262359947459!512.0!-0.955880330875516!dalesBNnobias/dalesBNnobias_15_lr1e-05_l11e-06_l20.005!!!!!!!!!!!!!!!!!!!!!!!!!!!!!
dalesBNnobias!1.0!15-10-07!0.005!0.21652593910694126!100.0!<class 'models.Dales_BN_CNN.DalesBNCNN'>!False!!dalesBNnobias/results.txt!0.01!5.0!!0.0001!!0.5609970504739661!DalesBNCNN(#  (sequential): Sequential(#    (0): AbsConv2d(#      (conv): Conv2d(40, 8, kernel_size=(15, 15), stride=(1, 1), bias=False)#    )#    (1): Flatten()#    (2): BatchNorm1d(10368, eps=0.001, momentum=0.1, affine=True, track_running_stats=True)#    (3): GaussianNoise(std=0.05)#    (4): ReLU()#    (5): Reshape()#    (6): DaleActivations(n_chan=8, neg_p=0.5, n_neg_chan=4)#    (7): AbsConv2d(#      (conv): Conv2d(8, 8, kernel_size=(11, 11), stride=(1, 1), bias=False)#    )#    (8): Flatten()#    (9): BatchNorm1d(5408, eps=0.001, momentum=0.1, affine=True, track_running_stats=True)#    (10): GaussianNoise(std=0.05)#    (11): ReLU()#    (12): Reshape()#    (13): DaleActivations(n_chan=8, neg_p=0.5, n_neg_chan=4)#    (14): Flatten()#    (15): AbsLinear(#      (linear): Linear(in_features=5408, out_features=5, bias=False)#    )#    (16): BatchNorm1d(5, eps=1e-05, momentum=0.1, affine=True, track_running_stats=True)#    (17): Softplus(beta=1, threshold=20)#  )#)#!0.4869991810896508!!!0.05!0.10559742489192142!naturalscene!!!0.7186257347653939!-2.0150045446410982!512.0!-1.5305927842855451!dalesBNnobias/dalesBNnobias_1_lr0.01_l10.0001_l20.005!!!!!!!!!!!!!!!!!!!!!!!!!!!!!
dalesBNnobias!2.0!15-10-07!0.01!0.19849066883325567!100.0!<class 'models.Dales_BN_CNN.DalesBNCNN'>!False!!dalesBNnobias/results.txt!0.01!5.0!!1e-06!!0.5209447826226385!DalesBNCNN(#  (sequential): Sequential(#    (0): AbsConv2d(#      (conv): Conv2d(40, 8, kernel_size=(15, 15), stride=(1, 1), bias=False)#    )#    (1): Flatten()#    (2): BatchNorm1d(10368, eps=0.001, momentum=0.1, affine=True, track_running_stats=True)#    (3): GaussianNoise(std=0.05)#    (4): ReLU()#    (5): Reshape()#    (6): DaleActivations(n_chan=8, neg_p=0.5, n_neg_chan=4)#    (7): AbsConv2d(#      (conv): Conv2d(8, 8, kernel_size=(11, 11), stride=(1, 1), bias=False)#    )#    (8): Flatten()#    (9): BatchNorm1d(5408, eps=0.001, momentum=0.1, affine=True, track_running_stats=True)#    (10): GaussianNoise(std=0.05)#    (11): ReLU()#    (12): Reshape()#    (13): DaleActivations(n_chan=8, neg_p=0.5, n_neg_chan=4)#    (14): Flatten()#    (15): AbsLinear(#      (linear): Linear(in_features=5408, out_features=5, bias=False)#    )#    (16): BatchNorm1d(5, eps=1e-05, momentum=0.1, affine=True, track_running_stats=True)#    (17): Softplus(beta=1, threshold=20)#  )#)#!0.4446916326838543!!!0.05!0.12568196622783406!naturalscene!!!0.7052138775940233!-1.5857884162196931!512.0!-1.2398619633167982!dalesBNnobias/dalesBNnobias_2_lr0.01_l11e-06_l20.01!!!!!!!!!!!!!!!!!!!!!!!!!!!!!
dalesBNnobias!3.0!15-10-07!0.005!0.21527967005968093!100.0!<class 'models.Dales_BN_CNN.DalesBNCNN'>!False!!dalesBNnobias/results.txt!0.01!5.0!!1e-06!!0.5809882511755788!DalesBNCNN(#  (sequential): Sequential(#    (0): AbsConv2d(#      (conv): Conv2d(40, 8, kernel_size=(15, 15), stride=(1, 1), bias=False)#    )#    (1): Flatten()#    (2): BatchNorm1d(10368, eps=0.001, momentum=0.1, affine=True, track_running_stats=True)#    (3): GaussianNoise(std=0.05)#    (4): ReLU()#    (5): Reshape()#    (6): DaleActivations(n_chan=8, neg_p=0.5, n_neg_chan=4)#    (7): AbsConv2d(#      (conv): Conv2d(8, 8, kernel_size=(11, 11), stride=(1, 1), bias=False)#    )#    (8): Flatten()#    (9): BatchNorm1d(5408, eps=0.001, momentum=0.1, affine=True, track_running_stats=True)#    (10): GaussianNoise(std=0.05)#    (11): ReLU()#    (12): Reshape()#    (13): DaleActivations(n_chan=8, neg_p=0.5, n_neg_chan=4)#    (14): Flatten()#    (15): AbsLinear(#      (linear): Linear(in_features=5408, out_features=5, bias=False)#    )#    (16): BatchNorm1d(5, eps=1e-05, momentum=0.1, affine=True, track_running_stats=True)#    (17): Softplus(beta=1, threshold=20)#  )#)#!0.4309983262918347!!!0.05!0.09422242468451766!naturalscene!!!0.6792020438246843!-2.161815654817929!512.0!-1.5008810311555862!dalesBNnobias/dalesBNnobias_3_lr0.01_l11e-06_l20.005!!!!!!!!!!!!!!!!!!!!!!!!!!!!!
dalesBNnobias!4.0!15-10-07!0.01!0.2319514214992523!100.0!<class 'models.Dales_BN_CNN.DalesBNCNN'>!False!!dalesBNnobias/results.txt!0.001!5.0!!0.0001!!0.5954450246663392!DalesBNCNN(#  (sequential): Sequential(#    (0): AbsConv2d(#      (conv): Conv2d(40, 8, kernel_size=(15, 15), stride=(1, 1), bias=False)#    )#    (1): Flatten()#    (2): BatchNorm1d(10368, eps=0.001, momentum=0.1, affine=True, track_running_stats=True)#    (3): GaussianNoise(std=0.05)#    (4): ReLU()#    (5): Reshape()#    (6): DaleActivations(n_chan=8, neg_p=0.5, n_neg_chan=4)#    (7): AbsConv2d(#      (conv): Conv2d(8, 8, kernel_size=(11, 11), stride=(1, 1), bias=False)#    )#    (8): Flatten()#    (9): BatchNorm1d(5408, eps=0.001, momentum=0.1, affine=True, track_running_stats=True)#    (10): GaussianNoise(std=0.05)#    (11): ReLU()#    (12): Reshape()#    (13): DaleActivations(n_chan=8, neg_p=0.5, n_neg_chan=4)#    (14): Flatten()#    (15): AbsLinear(#      (linear): Linear(in_features=5408, out_features=5, bias=False)#    )#    (16): BatchNorm1d(5, eps=1e-05, momentum=0.1, affine=True, track_running_stats=True)#    (17): Softplus(beta=1, threshold=20)#  )#)#!0.3744217013822795!!!0.05!0.12496078947686495!naturalscene!!!0.5699458326590279!-2.13585606833209!512.0!-1.6406016722321508!dalesBNnobias/dalesBNnobias_4_lr0.001_l10.0001_l20.01!!!!!!!!!!!!!!!!!!!!!!!!!!!!!
dalesBNnobias!5.0!15-10-07!0.005!0.2347425192594529!100.0!<class 'models.Dales_BN_CNN.DalesBNCNN'>!False!!dalesBNnobias/results.txt!0.001!5.0!!0.0001!!0.5859444072114168!DalesBNCNN(#  (sequential): Sequential(#    (0): AbsConv2d(#      (conv): Conv2d(40, 8, kernel_size=(15, 15), stride=(1, 1), bias=False)#    )#    (1): Flatten()#    (2): BatchNorm1d(10368, eps=0.001, momentum=0.1, affine=True, track_running_stats=True)#    (3): GaussianNoise(std=0.05)#    (4): ReLU()#    (5): Reshape()#    (6): DaleActivations(n_chan=8, neg_p=0.5, n_neg_chan=4)#    (7): AbsConv2d(#      (conv): Conv2d(8, 8, kernel_size=(11, 11), stride=(1, 1), bias=False)#    )#    (8): Flatten()#    (9): BatchNorm1d(5408, eps=0.001, momentum=0.1, affine=True, track_running_stats=True)#    (10): GaussianNoise(std=0.05)#    (11): ReLU()#    (12): Reshape()#    (13): DaleActivations(n_chan=8, neg_p=0.5, n_neg_chan=4)#    (14): Flatten()#    (15): AbsLinear(#      (linear): Linear(in_features=5408, out_features=5, bias=False)#    )#    (16): BatchNorm1d(5, eps=1e-05, momentum=0.1, affine=True, track_running_stats=True)#    (17): Softplus(beta=1, threshold=20)#  )#)#!0.4143498668968022!!!0.05!0.04627269795517422!naturalscene!!!0.6478658177928894!-2.170059819094736!512.0!-1.7699839770793917!dalesBNnobias/dalesBNnobias_5_lr0.001_l10.0001_l20.005!!!!!!!!!!!!!!!!!!!!!!!!!!!!!
dalesBNnobias!6.0!15-10-07!0.01!0.23200638592243195!100.0!<class 'models.Dales_BN_CNN.DalesBNCNN'>!False!!dalesBNnobias/results.txt!0.001!5.0!!1e-06!!0.5986965335104378!DalesBNCNN(#  (sequential): Sequential(#    (0): AbsConv2d(#      (conv): Conv2d(40, 8, kernel_size=(15, 15), stride=(1, 1), bias=False)#    )#    (1): Flatten()#    (2): BatchNorm1d(10368, eps=0.001, momentum=0.1, affine=True, track_running_stats=True)#    (3): GaussianNoise(std=0.05)#    (4): ReLU()#    (5): Reshape()#    (6): DaleActivations(n_chan=8, neg_p=0.5, n_neg_chan=4)#    (7): AbsConv2d(#      (conv): Conv2d(8, 8, kernel_size=(11, 11), stride=(1, 1), bias=False)#    )#    (8): Flatten()#    (9): BatchNorm1d(5408, eps=0.001, momentum=0.1, affine=True, track_running_stats=True)#    (10): GaussianNoise(std=0.05)#    (11): ReLU()#    (12): Reshape()#    (13): DaleActivations(n_chan=8, neg_p=0.5, n_neg_chan=4)#    (14): Flatten()#    (15): AbsLinear(#      (linear): Linear(in_features=5408, out_features=5, bias=False)#    )#    (16): BatchNorm1d(5, eps=1e-05, momentum=0.1, affine=True, track_running_stats=True)#    (17): Softplus(beta=1, threshold=20)#  )#)#!0.3651424231934201!!!0.05!0.11279887616411767!naturalscene!!!0.5501072797143217!-2.17782924837836!512.0!-1.6999119818210602!dalesBNnobias/dalesBNnobias_6_lr0.001_l11e-06_l20.01!!!!!!!!!!!!!!!!!!!!!!!!!!!!!
dalesBNnobias!7.0!15-10-07!0.005!0.2345158129930497!100.0!<class 'models.Dales_BN_CNN.DalesBNCNN'>!False!!dalesBNnobias/results.txt!0.001!5.0!!1e-06!!0.607998031113831!DalesBNCNN(#  (sequential): Sequential(#    (0): AbsConv2d(#      (conv): Conv2d(40, 8, kernel_size=(15, 15), stride=(1, 1), bias=False)#    )#    (1): Flatten()#    (2): BatchNorm1d(10368, eps=0.001, momentum=0.1, affine=True, track_running_stats=True)#    (3): GaussianNoise(std=0.05)#    (4): ReLU()#    (5): Reshape()#    (6): DaleActivations(n_chan=8, neg_p=0.5, n_neg_chan=4)#    (7): AbsConv2d(#      (conv): Conv2d(8, 8, kernel_size=(11, 11), stride=(1, 1), bias=False)#    )#    (8): Flatten()#    (9): BatchNorm1d(5408, eps=0.001, momentum=0.1, affine=True, track_running_stats=True)#    (10): GaussianNoise(std=0.05)#    (11): ReLU()#    (12): Reshape()#    (13): DaleActivations(n_chan=8, neg_p=0.5, n_neg_chan=4)#    (14): Flatten()#    (15): AbsLinear(#      (linear): Linear(in_features=5408, out_features=5, bias=False)#    )#    (16): BatchNorm1d(5, eps=1e-05, momentum=0.1, affine=True, track_running_stats=True)#    (17): Softplus(beta=1, threshold=20)#  )#)#!0.5116408594284356!!!0.05!0.07492606220492057!naturalscene!!!0.7327512639826639!-2.387339888160225!512.0!-1.7923422157764437!dalesBNnobias/dalesBNnobias_7_lr0.001_l11e-06_l20.005!!!!!!!!!!!!!!!!!!!!!!!!!!!!!
dalesBNnobias!8.0!15-10-07!0.01!0.2336210370063781!100.0!<class 'models.Dales_BN_CNN.DalesBNCNN'>!False!!dalesBNnobias/results.txt!0.0001!5.0!!0.0001!!0.6167587789985601!DalesBNCNN(#  (sequential): Sequential(#    (0): AbsConv2d(#      (conv): Conv2d(40, 8, kernel_size=(15, 15), stride=(1, 1), bias=False)#    )#    (1): Flatten()#    (2): BatchNorm1d(10368, eps=0.001, momentum=0.1, affine=True, track_running_stats=True)#    (3): GaussianNoise(std=0.05)#    (4): ReLU()#    (5): Reshape()#    (6): DaleActivations(n_chan=8, neg_p=0.5, n_neg_chan=4)#    (7): AbsConv2d(#      (conv): Conv2d(8, 8, kernel_size=(11, 11), stride=(1, 1), bias=False)#    )#    (8): Flatten()#    (9): BatchNorm1d(5408, eps=0.001, momentum=0.1, affine=True, track_running_stats=True)#    (10): GaussianNoise(std=0.05)#    (11): ReLU()#    (12): Reshape()#    (13): DaleActivations(n_chan=8, neg_p=0.5, n_neg_chan=4)#    (14): Flatten()#    (15): AbsLinear(#      (linear): Linear(in_features=5408, out_features=5, bias=False)#    )#    (16): BatchNorm1d(5, eps=1e-05, momentum=0.1, affine=True, track_running_stats=True)#    (17): Softplus(beta=1, threshold=20)#  )#)#!0.37982560092998097!!!0.05!0.08014731413765024!naturalscene!!!0.5761998671677265!-2.0243564512395213!512.0!-1.665549397468567!dalesBNnobias/dalesBNnobias_8_lr0.0001_l10.0001_l20.01!!!!!!!!!!!!!!!!!!!!!!!!!!!!!
dalesBNnobias!9.0!15-10-07!0.005!0.2380402058362961!100.0!<class 'models.Dales_BN_CNN.DalesBNCNN'>!False!!dalesBNnobias/results.txt!0.0001!5.0!!0.0001!!0.6171835107032677!DalesBNCNN(#  (sequential): Sequential(#    (0): AbsConv2d(#      (conv): Conv2d(40, 8, kernel_size=(15, 15), stride=(1, 1), bias=False)#    )#    (1): Flatten()#    (2): BatchNorm1d(10368, eps=0.001, momentum=0.1, affine=True, track_running_stats=True)#    (3): GaussianNoise(std=0.05)#    (4): ReLU()#    (5): Reshape()#    (6): DaleActivations(n_chan=8, neg_p=0.5, n_neg_chan=4)#    (7): AbsConv2d(#      (conv): Conv2d(8, 8, kernel_size=(11, 11), stride=(1, 1), bias=False)#    )#    (8): Flatten()#    (9): BatchNorm1d(5408, eps=0.001, momentum=0.1, affine=True, track_running_stats=True)#    (10): GaussianNoise(std=0.05)#    (11): ReLU()#    (12): Reshape()#    (13): DaleActivations(n_chan=8, neg_p=0.5, n_neg_chan=4)#    (14): Flatten()#    (15): AbsLinear(#      (linear): Linear(in_features=5408, out_features=5, bias=False)#    )#    (16): BatchNorm1d(5, eps=1e-05, momentum=0.1, affine=True, track_running_stats=True)#    (17): Softplus(beta=1, threshold=20)#  )#)#!0.4649231082178954!!!0.05!0.10229360180132037!naturalscene!!!0.7098361285226316!-2.056586991877577!512.0!-1.6523578315973282!dalesBNnobias/dalesBNnobias_9_lr0.0001_l10.0001_l20.005!!!!!!!!!!!!!!!!!!!!!!!!!!!!!
test!0.0!15-10-07!0.01!0.0430287066912997!100.0!<class 'models.SS_CNN.SSCNN'>!!!test/results.txt!0.0001!5.0!!0.001!!0.09351524632086773!SSCNN(#  (sequential): Sequential(#    (0): Conv2d(40, 8, kernel_size=(15, 15), stride=(1, 1))#    (1): ScaleShift(shape=(8, 36, 36), scale=True, shift=True)#    (2): GaussianNoise(std=0.05)#    (3): ReLU()#    (4): Conv2d(8, 8, kernel_size=(11, 11), stride=(1, 1))#    (5): ScaleShift(shape=(8, 26, 26), scale=True, shift=True)#    (6): GaussianNoise(std=0.05)#    (7): ReLU()#    (8): Flatten()#    (9): Linear(in_features=5408, out_features=5, bias=True)#    (10): ScaleShift(shape=5, scale=True, shift=True)#    (11): Softplus(beta=1, threshold=20)#  )#)#!!!!0.05!!naturalscene!True!!!0.002271872659973789!512.0!0.6511954963207245!test/test_0_lr0.0001_l10.001!!!!!!!!!!!!!!!!!!!!!!!!!!!!!
practicalBNnofinalbn!0.0!15-10-07!0.005!0.2671623110771179!85.0!<class 'models.BN_CNN.BNCNN'>!True!!practicalBNnofinalbn/results.txt!0.005!5.0!0.0!0.0001!!0.6299673145935187!BNCNN(#  (sequential): Sequential(#    (0): Conv2d(40, 8, kernel_size=(15, 15), stride=(1, 1))#    (1): Flatten()#    (2): BatchNorm1d(10368, eps=0.001, momentum=0.99, affine=True, track_running_stats=True)#    (3): GaussianNoise(std=0.05, trainable=False)#    (4): ReLU()#    (5): Reshape()#    (6): Conv2d(8, 8, kernel_size=(11, 11), stride=(1, 1))#    (7): Flatten()#    (8): BatchNorm1d(5408, eps=0.001, momentum=0.99, affine=True, track_running_stats=True)#    (9): GaussianNoise(std=0.05, trainable=False)#    (10): ReLU()#    (11): Linear(in_features=5408, out_features=5, bias=True)#    (12): BatchNorm1d(5, eps=1e-05, momentum=0.1, affine=True, track_running_stats=True)#    (13): Softplus(beta=1, threshold=20)#  )#)#!0.4173437101307777!all!!0.05!0.13544428279460122!naturalscene!!!0.6806527341488381!-2.915724986998384!512.0!-2.7942930230183265!practicalBNnofinalbn/practicalBNnofinalbn_0_lr0.005!!!!!!!!!!!!!!!!!!!!!!!!!!!!!
practicalBN!0.0!15-10-07!0.0!0.28177979290485383!100.0!<class 'models.practical_BN_CNN.PracticalBNCNN'>!True!!practicalBN/results.txt!0.01!5.0!0.0!0.005!!0.6732073589718919!PracticalBNCNN(#  (sequential): Sequential(#    (0): Conv2d(40, 8, kernel_size=(15, 15), stride=(1, 1))#    (1): Dropout(p=0.15)#    (2): ReLU()#    (3): Flatten()#    (4): BatchNorm1d(10368, eps=0.001, momentum=0.1, affine=True, track_running_stats=True)#    (5): Reshape()#    (6): Conv2d(8, 8, kernel_size=(11, 11), stride=(1, 1))#    (7): Dropout(p=0.3)#    (8): ReLU()#    (9): Flatten()#    (10): BatchNorm1d(5408, eps=0.001, momentum=0.1, affine=True, track_running_stats=True)#    (11): Linear(in_features=5408, out_features=5, bias=True)#    (12): BatchNorm1d(5, eps=…
ue, abs_bias=False, momentum=0.1, eps=1e-05)#    (17): Softplus(beta=1, threshold=20)#  )#)#!0.5054151669332949!all!!0.1!0.16186248430343442!naturalscene!!!0.7592594669819964!-1.8730203255696356!512.0!-1.9874417801529491!absbndalesbncnn/absbndalesbncnn_1_lr0.0005!0.5270879907646123!0.35654817252006243!0.4207255195529202!0.5864699113941473!0.6076766507301777!!!!!!!!!!!!!!!!!!!!!!0.01!None!
absbndalesbncnn!2.0!15-10-07!0.001!0.3826979100704193!50.0!<class 'torchdeepretina.models.AbsBNDalesBNCNN'>!True![8, 8]!absbndalesbncnn/results.txt!0.0002!!0.0!0.0001!False!0.4597718691751148!AbsBNDalesBNCNN(#  (sequential): Sequential(#    (0): AbsConv2d(#      (conv): Conv2d(40, 8, kernel_size=(15, 15), stride=(1, 1))#    )#    (1): Flatten()#    (2): AbsBatchNorm1d(bias=True, abs_bias=False, momentum=0.1, eps=0.001)#    (3): GaussianNoise(std=0.1, trainable=False, adapt=False, momentum=0.95)#    (4): ReLU()#    (5): Reshape()#    (6): DaleActivations(n_chan=8, neg_p=0.5, n_neg_chan=4)#    (7): AbsConv2d(#      (conv): Conv2d(8, 8, kernel_size=(11, 11), stride=(1, 1))#    )#    (8): Flatten()#    (9): AbsBatchNorm1d(bias=True, abs_bias=False, momentum=0.1, eps=0.001)#    (10): GaussianNoise(std=0.1, trainable=False, adapt=False, momentum=0.95)#    (11): ReLU()#    (12): Reshape()#    (13): DaleActivations(n_chan=8, neg_p=0.5, n_neg_chan=4)#    (14): Flatten()#    (15): AbsLinear(#      (linear): Linear(in_features=5408, out_features=5, bias=True)#    )#    (16): AbsBatchNorm1d(bias=True, abs_bias=False, momentum=0.1, eps=1e-05)#    (17): Softplus(beta=1, threshold=20)#  )#)#!0.5138916086103441!all!!0.1!0.15864665637228864!naturalscene!!!0.7813709260992154!-1.819979136059592!512.0!-1.6767210824909853!absbndalesbncnn/absbndalesbncnn_2_lr0.0002!0.4769608905595346!0.3785171152125584!0.4484185841692856!0.5337901206837117!0.4611726352504839!!!!!!!!!!!!!!!!!!!!!!0.01!None!
absbndalesbncnn!3.0!15-10-07!0.001!0.3326292634010315!50.0!<class 'torchdeepretina.models.AbsBNDalesBNCNN'>!True![8, 8]!absbndalesbncnn/results.txt!0.0001!!0.0!0.0001!False!0.4082111315173141!AbsBNDalesBNCNN(#  (sequential): Sequential(#    (0): AbsConv2d(#      (conv): Conv2d(40, 8, kernel_size=(15, 15), stride=(1, 1))#    )#    (1): Flatten()#    (2): AbsBatchNorm1d(bias=True, abs_bias=False, momentum=0.1, eps=0.001)#    (3): GaussianNoise(std=0.1, trainable=False, adapt=False, momentum=0.95)#    (4): ReLU()#    (5): Reshape()#    (6): DaleActivations(n_chan=8, neg_p=0.5, n_neg_chan=4)#    (7): AbsConv2d(#      (conv): Conv2d(8, 8, kernel_size=(11, 11), stride=(1, 1))#    )#    (8): Flatten()#    (9): AbsBatchNorm1d(bias=True, abs_bias=False, momentum=0.1, eps=0.001)#    (10): GaussianNoise(std=0.1, trainable=False, adapt=False, momentum=0.95)#    (11): ReLU()#    (12): Reshape()#    (13): DaleActivations(n_chan=8, neg_p=0.5, n_neg_chan=4)#    (14): Flatten()#    (15): AbsLinear(#      (linear): Linear(in_features=5408, out_features=5, bias=True)#    )#    (16): AbsBatchNorm1d(bias=True, abs_bias=False, momentum=0.1, eps=1e-05)#    (17): Softplus(beta=1, threshold=20)#  )#)#!0.4982600310877765!all!!0.1!0.15202293004492484!naturalscene!!!0.7095557280416378!-1.6254537145397872!512.0!-1.0981064119951045!absbndalesbncnn/absbndalesbncnn_3_lr0.0001!0.4216471592420983!0.3257554505102895!0.39480201161600215!0.4927324394257568!0.4061185967924236!!!!!!!!!!!!!!!!!!!!!!0.01!None!
absbndalesbncnn!4.0!15-10-07!0.001!0.403379499912262!50.0!<class 'torchdeepretina.models.AbsBNDalesBNCNN'>!True![8, 8]!absbndalesbncnn/results.txt!7e-05!!0.0!0.0001!False!0.4721710747608195!AbsBNDalesBNCNN(#  (sequential): Sequential(#    (0): AbsConv2d(#      (conv): Conv2d(40, 8, kernel_size=(15, 15), stride=(1, 1))#    )#    (1): Flatten()#    (2): AbsBatchNorm1d(bias=True, abs_bias=False, momentum=0.1, eps=0.001)#    (3): GaussianNoise(std=0.1, trainable=False, adapt=False, momentum=0.95)#    (4): ReLU()#    (5): Reshape()#    (6): DaleActivations(n_chan=8, neg_p=0.5, n_neg_chan=4)#    (7): AbsConv2d(#      (conv): Conv2d(8, 8, kernel_size=(11, 11), stride=(1, 1))#    )#    (8): Flatten()#    (9): AbsBatchNorm1d(bias=True, abs_bias=False, momentum=0.1, eps=0.001)#    (10): GaussianNoise(std=0.1, trainable=False, adapt=False, momentum=0.95)#    (11): ReLU()#    (12): Reshape()#    (13): DaleActivations(n_chan=8, neg_p=0.5, n_neg_chan=4)#    (14): Flatten()#    (15): AbsLinear(#      (linear): Linear(in_features=5408, out_features=5, bias=True)#    )#    (16): AbsBatchNorm1d(bias=True, abs_bias=False, momentum=0.1, eps=1e-05)#    (17): Softplus(beta=1, threshold=20)#  )#)#!0.4157220493162711!all!!0.1!0.12771035918606852!naturalscene!!!0.6686562028494307!-1.7425029525367564!512.0!-1.8725178362772568!absbndalesbncnn/absbndalesbncnn_4_lr7e-05!0.4992103407669299!0.3785509906815156!0.4624410751468516!0.5218188518171603!0.4988341153916404!!!!!!!!!!!!!!!!!!!!!!0.01!None!
bncnnadaptgauss!18.0!15-10-07!0.01!0.2644946545362473!100.0!<class 'models.BN_CNN.BNCNN'>!True!!bncnnadaptgauss/results.txt!0.005!!18.0!0.0001!True!0.6822579937763548!BNCNN(#  (sequential): Sequential(#    (0): Conv2d(40, 8, kernel_size=(15, 15), stride=(1, 1))#    (1): Flatten()#    (2): BatchNorm1d(10368, eps=0.001, momentum=0.99, affine=True, track_running_stats=True)#    (3): GaussianNoise(std=0.05, trainable=False, adapt=True)#    (4): ReLU()#    (5): Reshape()#    (6): Conv2d(8, 8, kernel_size=(11, 11), stride=(1, 1))#    (7): Flatten()#    (8): BatchNorm1d(5408, eps=0.001, momentum=0.99, affine=True, track_running_stats=True)#    (9): GaussianNoise(std=0.05, trainable=False, adapt=True)#    (10): ReLU()#    (11): Linear(in_features=5408, out_features=5, bias=True)#    (12): BatchNorm1d(5, eps=1e-05, momentum=0.1, affine=True, track_running_stats=True)#    (13): Softplus(beta=1, threshold=20)#  )#)#!0.4110192359758649!all!!0.05!0.08660399120265913!naturalscene!!!0.7286423057810992!-3.0286080792299037!512.0!-2.8390240524313413!bncnnadaptgauss/bncnnadaptgauss_18_noise0.05_lr0.005!0.6976099572177519!0.6092328187015975!0.6112266773459274!0.7391993640617952!0.7540211515547022!!!!!!!!!!!!!!!!!!!!!!!!
bncnnadaptgauss!19.0!15-10-07!0.01!0.3460561096668243!100.0!<class 'models.BN_CNN.BNCNN'>!True!!bncnnadaptgauss/results.txt!0.0001!!18.0!0.0001!True!0.6076298848880276!BNCNN(#  (sequential): Sequential(#    (0): Conv2d(40, 8, kernel_size=(15, 15), stride=(1, 1))#    (1): Flatten()#    (2): BatchNorm1d(10368, eps=0.001, momentum=0.99, affine=True, track_running_stats=True)#    (3): GaussianNoise(std=0.05, trainable=False, adapt=True)#    (4): ReLU()#    (5): Reshape()#    (6): Conv2d(8, 8, kernel_size=(11, 11), stride=(1, 1))#    (7): Flatten()#    (8): BatchNorm1d(5408, eps=0.001, momentum=0.99, affine=True, track_running_stats=True)#    (9): GaussianNoise(std=0.05, trainable=False, adapt=True)#    (10): ReLU()#    (11): Linear(in_features=5408, out_features=5, bias=True)#    (12): BatchNorm1d(5, eps=1e-05, momentum=0.1, affine=True, track_running_stats=True)#    (13): Softplus(beta=1, threshold=20)#  )#)#!0.34990806724582885!all!!0.05!0.09845016560535938!naturalscene!!!0.6058217338555625!-4.0079975396080085!512.0!-3.7224684934572!bncnnadaptgauss/bncnnadaptgauss_19_noise0.05_lr0.0001!0.6669960864213998!0.4947838211374847!0.4650341779016041!0.7120250172246722!0.6993103217549768!!!!!!!!!!!!!!!!!!!!!!!!
bncnnadaptgauss!20.0!15-10-07!0.01!0.2734157085418701!100.0!<class 'models.BN_CNN.BNCNN'>!True!!bncnnadaptgauss/results.txt!0.005!!18.0!0.0001!True!0.6896707683610707!BNCNN(#  (sequential): Sequential(#    (0): Conv2d(40, 8, kernel_size=(15, 15), stride=(1, 1))#    (1): Flatten()#    (2): BatchNorm1d(10368, eps=0.001, momentum=0.99, affine=True, track_running_stats=True)#    (3): GaussianNoise(std=0.1, trainable=False, adapt=True)#    (4): ReLU()#    (5): Reshape()#    (6): Conv2d(8, 8, kernel_size=(11, 11), stride=(1, 1))#    (7): Flatten()#    (8): BatchNorm1d(5408, eps=0.001, momentum=0.99, affine=True, track_running_stats=True)#    (9): GaussianNoise(std=0.1, trainable=False, adapt=True)#    (10): ReLU()#    (11): Linear(in_features=5408, out_features=5, bias=True)#    (12): BatchNorm1d(5, eps=1e-05, momentum=0.1, affine=True, track_running_stats=True)#    (13): Softplus(beta=1, threshold=20)#  )#)#!0.42689109445612!all!!0.1!0.12259060963922065!naturalscene!!!0.7382655769996813!-3.0049865288971778!512.0!-3.01822484314107!bncnnadaptgauss/bncnnadaptgauss_20_noise0.1_lr0.005!0.7077812493709461!0.6126099396195361!0.6093914574173657!0.7658216919144567!0.7527495034830486!!!!!!!!!!!!!!!!!!!!!!!!
bncnnadaptgauss!21.0!15-10-07!0.01!0.3432451367378235!100.0!<class 'models.BN_CNN.BNCNN'>!True!!bncnnadaptgauss/results.txt!0.0001!!18.0!0.0001!True!0.6027194689696783!BNCNN(#  (sequential): Sequential(#    (0): Conv2d(40, 8, kernel_size=(15, 15), stride=(1, 1))#    (1): Flatten()#    (2): BatchNorm1d(10368, eps=0.001, momentum=0.99, affine=True, track_running_stats=True)#    (3): GaussianNoise(std=0.1, trainable=False, adapt=True)#    (4): ReLU()#    (5): Reshape()#    (6): Conv2d(8, 8, kernel_size=(11, 11), stride=(1, 1))#    (7): Flatten()#    (8): BatchNorm1d(5408, eps=0.001, momentum=0.99, affine=True, track_running_stats=True)#    (9): GaussianNoise(std=0.1, trainable=False, adapt=True)#    (10): ReLU()#    (11): Linear(in_features=5408, out_features=5, bias=True)#    (12): BatchNorm1d(5, eps=1e-05, momentum=0.1, affine=True, track_running_stats=True)#    (13): Softplus(beta=1, threshold=20)#  )#)#!0.3261832811939704!all!!0.1!0.07768665194171942!naturalscene!!!0.5836776618107732!-3.8883606513700872!512.0!-3.5873113568577537!bncnnadaptgauss/bncnnadaptgauss_21_noise0.1_lr0.0001!0.6701585702637991!0.4613378955414482!0.4857225933793951!0.6845318876696697!0.7118463979940797!!!!!!!!!!!!!!!!!!!!!!!!
bncnnadaptgauss!22.0!15-10-07!0.01!0.2757522046566009!100.0!<class 'models.BN_CNN.BNCNN'>!True!!bncnnadaptgauss/results.txt!0.005!!18.0!0.0001!True!0.6819489429085139!BNCNN(#  (sequential): Sequential(#    (0): Conv2d(40, 8, kernel_size=(15, 15), stride=(1, 1))#    (1): Flatten()#    (2): BatchNorm1d(10368, eps=0.001, momentum=0.99, affine=True, track_running_stats=True)#    (3): GaussianNoise(std=0.15, trainable=False, adapt=True)#    (4): ReLU()#    (5): Reshape()#    (6): Conv2d(8, 8, kernel_size=(11, 11), stride=(1, 1))#    (7): Flatten()#    (8): BatchNorm1d(5408, eps=0.001, momentum=0.99, affine=True, track_running_stats=True)#    (9): GaussianNoise(std=0.15, trainable=False, adapt=True)#    (10): ReLU()#    (11): Linear(in_features=5408, out_features=5, bias=True)#    (12): BatchNorm1d(5, eps=1e-05, momentum=0.1, affine=True, track_running_stats=True)#    (13): Softplus(beta=1, threshold=20)#  )#)#!0.41972329691570026!all!!0.15!0.1230215041928751!naturalscene!!!0.7261115019676243!-2.9763224666115025!512.0!-3.2357531648522126!bncnnadaptgauss/bncnnadaptgauss_22_noise0.15_lr0.005!0.7111587327298754!0.5955968376159099!0.5945950912604306!0.7373022280398207!0.7710918248965329!!!!!!!!!!!!!!!!!!!!!!!!
bncnnadaptgauss!23.0!15-10-07!0.01!0.3395799696445465!100.0!<class 'models.BN_CNN.BNCNN'>!True!!bncnnadaptgauss/results.txt!0.0001!!18.0!0.0001!True!0.6314752061277641!BNCNN(#  (sequential): Sequential(#    (0): Conv2d(40, 8, kernel_size=(15, 15), stride=(1, 1))#    (1): Flatten()#    (2): BatchNorm1d(10368, eps=0.001, momentum=0.99, affine=True, track_running_stats=True)#    (3): GaussianNoise(std=0.15, trainable=False, adapt=True)#    (4): ReLU()#    (5): Reshape()#    (6): Conv2d(8, 8, kernel_size=(11, 11), stride=(1, 1))#    (7): Flatten()#    (8): BatchNorm1d(5408, eps=0.001, momentum=0.99, affine=True, track_running_stats=True)#    (9): GaussianNoise(std=0.15, trainable=False, adapt=True)#    (10): ReLU()#    (11): Linear(in_features=5408, out_features=5, bias=True)#    (12): BatchNorm1d(5, eps=1e-05, momentum=0.1, affine=True, track_running_stats=True)#    (13): Softplus(beta=1, threshold=20)#  )#)#!0.33250733339196525!all!!0.15!0.08600920750518162!naturalscene!!!0.5939521368800433!-3.8641697197118674!512.0!-3.5554027977650553!bncnnadaptgauss/bncnnadaptgauss_23_noise0.15_lr0.0001!0.6686239923047228!0.50955383596872!0.5091478153696992!0.7232060960712646!0.7468442909244138!!!!!!!!!!!!!!!!!!!!!!!!
bncnnadaptgauss!24.0!15-10-07!0.01!0.265457421541214!100.0!<class 'models.BN_CNN.BNCNN'>!True!!bncnnadaptgauss/results.txt!0.005!!18.0!0.0001!True!0.6738618273780567!BNCNN(#  (sequential): Sequential(#    (0): Conv2d(40, 8, kernel_size=(15, 15), stride=(1, 1))#    (1): Flatten()#    (2): BatchNorm1d(10368, eps=0.001, momentum=0.99, affine=True, track_running_stats=True)#    (3): GaussianNoise(std=0.2, trainable=False, adapt=True)#    (4): ReLU()#    (5): Reshape()#    (6): Conv2d(8, 8, kernel_size=(11, 11), stride=(1, 1))#    (7): Flatten()#    (8): BatchNorm1d(5408, eps=0.001, momentum=0.99, affine=True, track_running_stats=True)#    (9): GaussianNoise(std=0.2, trainable=False, adapt=True)#    (10): ReLU()#    (11): Linear(in_features=5408, out_features=5, bias=True)#    (12): BatchNorm1d(5, eps=1e-05, momentum=0.1, affine=True, track_running_stats=True)#    (13): Softplus(beta=1, threshold=20)#  )#)#!0.4000964533924263!all!!0.2!0.13082078326841273!naturalscene!!!0.6859029242338435!-2.996069474277813!512.0!-2.86758135996206!bncnnadaptgauss/bncnnadaptgauss_24_noise0.2_lr0.005!0.6881263340669913!0.5940949382842488!0.5970753315620029!0.7234276032239155!0.766584929753125!!!!!!!!!!!!!!!!!!!!!!!!
bncnnadaptgauss!25.0!15-10-07!0.01!0.3392699182033539!100.0!<class 'models.BN_CNN.BNCNN'>!True!!bncnnadaptgauss/results.txt!0.0001!!18.0!0.0001!True!0.644997070611856!BNCNN(#  (sequential): Sequential(#    (0): Conv2d(40, 8, kernel_size=(15, 15), stride=(1, 1))#    (1): Flatten()#    (2): BatchNorm1d(10368, eps=0.001, momentum=0.99, affine=True, track_running_stats=True)#    (3): GaussianNoise(std=0.2, trainable=False, adapt=True)#    (4): ReLU()#    (5): Reshape()#    (6): Conv2d(8, 8, kernel_size=(11, 11), stride=(1, 1))#    (7): Flatten()#    (8): BatchNorm1d(5408, eps=0.001, momentum=0.99, affine=True, track_running_stats=True)#    (9): GaussianNoise(std=0.2, trainable=False, adapt=True)#    (10): ReLU()#    (11): Linear(in_features=5408, out_features=5, bias=True)#    (12): BatchNorm1d(5, eps=1e-05, momentum=0.1, affine=True, track_running_stats=True)#    (13): Softplus(beta=1, threshold=20)#  )#)#!0.3057663605212489!all!!0.2!0.08035830554916522!naturalscene!!!0.5267815661076192!-3.8112269873712576!512.0!-3.626897835702039!bncnnadaptgauss/bncnnadaptgauss_25_noise0.2_lr0.0001!0.6994991955871523!0.5419545297547232!0.5403425898588106!0.7288321653782713!0.714356872480322!!!!!!!!!!!!!!!!!!!!!!!!
bncnnadaptgauss!26.0!15-10-07!0.01!0.26090507209300995!100.0!<class 'models.BN_CNN.BNCNN'>!True!!bncnnadaptgauss/results.txt!0.005!!18.0!0.0001!True!0.668198398012396!BNCNN(#  (sequential): Sequential(#    (0): Conv2d(40, 8, kernel_size=(15, 15), stride=(1, 1))#    (1): Flatten()#    (2): BatchNorm1d(10368, eps=0.001, momentum=0.99, affine=True, track_running_stats=True)#    (3): GaussianNoise(std=0.3, trainable=False, adapt=True)#    (4): ReLU()#    (5): Reshape()#    (6): Conv2d(8, 8, kernel_size=(11, 11), stride=(1, 1))#    (7): Flatten()#    (8): BatchNorm1d(5408, eps=0.001, momentum=0.99, affine=True, track_running_stats=True)#    (9): GaussianNoise(std=0.3, trainable=False, adapt=True)#    (10): ReLU()#    (11): Linear(in_features=5408, out_features=5, bias=True)#    (12): BatchNorm1d(5, eps=1e-05, momentum=0.1, affine=True, track_running_stats=True)#    (13): Softplus(beta=1, threshold=20)#  )#)#!0.4173425565863354!all!!0.3!0.11964991214727735!naturalscene!!!0.7167171350282274!-2.8799847260140012!512.0!-2.7366478285875933!bncnnadaptgauss/bncnnadaptgauss_26_noise0.3_lr0.005!0.6736382487098076!0.5840734229383472!0.5836083028071734!0.7317898997757466!0.7678821158309048!!!!!!!!!!!!!!!!!!!!!!!!
bncnnadaptgauss!27.0!15-10-07!0.01!0.33581348657608034!100.0!<class 'models.BN_CNN.BNCNN'>!True!!bncnnadaptgauss/results.txt!0.0001!!18.0!0.0001!True!0.6695797433175401!BNCNN(#  (sequential): Sequential(#    (0): Conv2d(40, 8, kernel_size=(15, 15), stride=(1, 1))#    (1): Flatten()#    (2): BatchNorm1d(10368, eps=0.001, momentum=0.99, affine=True, track_running_stats=True)#    (3): GaussianNoise(std=0.3, trainable=False, adapt=True)#    (4): ReLU()#    (5): Reshape()#    (6): Conv2d(8, 8, kernel_size=(11, 11), stride=(1, 1))#    (7): Flatten()#    (8): BatchNorm1d(5408, eps=0.001, momentum=0.99, affine=True, track_running_stats=True)#    (9): GaussianNoise(std=0.3, trainable=False, adapt=True)#    (10): ReLU()#    (11): Linear(in_features=5408, out_features=5, bias=True)#    (12): BatchNorm1d(5, eps=1e-05, momentum=0.1, affine=True, track_running_stats=True)#    (13): Softplus(beta=1, threshold=20)#  )#)#!0.3264536414377582!all!!0.3!0.08526264950031781!naturalscene!!!0.5752519900348952!-3.698410331753404!512.0!-3.5733742817537864!bncnnadaptgauss/bncnnadaptgauss_27_noise0.3_lr0.0001!0.7150377910480158!0.5466213261554321!0.5797424288098814!0.7521736423109068!0.7543235282634642!!!!!!!!!!!!!!!!!!!!!!!!
bncnnchanssearch!24!15-10-07!0.001!0.6096847653388977!50!<class 'torchdeepretina.models.BNCNN'>!True![9, 9]!bncnnchanssearch/results.txt!0.001!!24!0.0001!False!0.7273234813447905!BNCNN(#  (sequential): Sequential(#    (0): Conv2d(40, 9, kernel_size=(15, 15), stride=(1, 1))#    (1): Flatten()#    (2): BatchNorm1d(11664, eps=0.001, momentum=0.01, affine=True, track_running_stats=True)#    (3): GaussianNoise(std=0.1, trainable=False, adapt=False, momentum=0.95)#    (4): ReLU()#    (5): Reshape()#    (6): Conv2d(9, 9, kernel_size=(11, 11), stride=(1, 1))#    (7): Flatten()#    (8): BatchNorm1d(6084, eps=0.001, momentum=0.01, affine=True, track_running_stats=True)#    (9): GaussianNoise(std=0.1, trainable=False, adapt=False, momentum=0.95)#    (10): ReLU()#    (11): Linear(in_features=6084, out_features=5, bias=True)#    (12): BatchNorm1d(5, eps=1e-05, momentum=0.1, affine=True, track_running_stats=True)#    (13): Softplus(beta=1, threshold=20)#  )#)#!0.36921126123120623!all!!0.1!0.09226557392577218!naturalscene!!!0.6533560286256611!-3.337658576835874!512!-3.2590766417095436!bncnnchanssearch/bncnnchanssearch_24_chans[9, 9]!0.7541379198508716!0.6652860383439708!0.6367936659898779!0.7656504654157128!0.8147493171235195!!!!!!!!!!!!!!!!!!!!!!0.01!True!
bncnnchanssearch!25!15-10-07!0.001!0.6027482748031616!50!<class 'torchdeepretina.models.BNCNN'>!True![9, 8]!bncnnchanssearch/results.txt!0.001!!24!0.0001!False!0.6960757017092527!BNCNN(#  (sequential): Sequential(#    (0): Conv2d(40, 9, kernel_size=(15, 15), stride=(1, 1))#    (1): Flatten()#    (2): BatchNorm1d(11664, eps=0.001, momentum=0.01, affine=True, track_running_stats=True)#    (3): GaussianNoise(std=0.1, trainable=False, adapt=False, momentum=0.95)#    (4): ReLU()#    (5): Reshape()#    (6): Conv2d(9, 8, kernel_size=(11, 11), stride=(1, 1))#    (7): Flatten()#    (8): BatchNorm1d(5408, eps=0.001, momentum=0.01, affine=True, track_running_stats=True)#    (9): GaussianNoise(std=0.1, trainable=False, adapt=False, momentum=0.95)#    (10): ReLU()#    (11): Linear(in_features=5408, out_features=5, bias=True)#    (12): BatchNorm1d(5, eps=1e-05, momentum=0.1, affine=True, track_running_stats=True)#    (13): Softplus(beta=1, threshold=20)#  )#)#!0.3544792341325302!all!!0.1!0.1275812920533133!naturalscene!!!0.5963350744997822!-3.3136782110366707!512!-3.1981176956080164!bncnnchanssearch/bncnnchanssearch_25_chans[9, 8]!0.7034527360136239!0.6230185107368305!0.6189488253226187!0.7517163971811334!0.7832420392920569!!!!!!!!!!!!!!!!!!!!!!0.01!True!
bncnnchanssearch!26!15-10-07!0.001!0.5825299024581909!50!<class 'torchdeepretina.models.BNCNN'>!True![8, 9]!bncnnchanssearch/results.txt!0.001!!24!0.0001!False!0.7021673486606796!BNCNN(#  (sequential): Sequential(#    (0): Conv2d(40, 8, kernel_size=(15, 15), stride=(1, 1))#    (1): Flatten()#    (2): BatchNorm1d(10368, eps=0.001, momentum=0.01, affine=True, track_running_stats=True)#    (3): GaussianNoise(std=0.1, trainable=False, adapt=False, momentum=0.95)#    (4): ReLU()#    (5): Reshape()#    (6): Conv2d(8, 9, kernel_size=(11, 11), stride=(1, 1))#    (7): Flatten()#    (8): BatchNorm1d(6084, eps=0.001, momentum=0.01, affine=True, track_running_stats=True)#    (9): GaussianNoise(std=0.1, trainable=False, adapt=False, momentum=0.95)#    (10): ReLU()#    (11): Linear(in_features=6084, out_features=5, bias=True)#    (12): BatchNorm1d(5, eps=1e-05, momentum=0.1, affine=True, track_running_stats=True)#    (13): Softplus(beta=1, threshold=20)#  )#)#!0.3561702114123074!all!!0.1!0.09289980244511466!naturalscene!!!0.6188626107625451!-3.3156665200381616!512!-3.15490762080226!bncnnchanssearch/bncnnchanssearch_26_chans[8, 9]!0.6993406613224714!0.6442442892755721!0.6316331795778352!0.731064837858478!0.8045537752690418!!!!!!!!!!!!!!!!!!!!!!0.01!True!
bncnnchanssearch!27!15-10-07!0.001!0.6211251616477966!50!<class 'torchdeepretina.models.BNCNN'>!True![10, 10]!bncnnchanssearch/results.txt!0.001!!24!0.0001!False!0.7397398747281034!BNCNN(#  (sequential): Sequential(#    (0): Conv2d(40, 10, kernel_size=(15, 15), stride=(1, 1))#    (1): Flatten()#    (2): BatchNorm1d(12960, eps=0.001, momentum=0.01, affine=True, track_running_stats=True)#    (3): GaussianNoise(std=0.1, trainable=False, adapt=False, momentum=0.95)#    (4): ReLU()#    (5): Reshape()#    (6): Conv2d(10, 10, kernel_size=(11, 11), stride=(1, 1))#    (7): Flatten()#    (8): BatchNorm1d(6760, eps=0.001, momentum=0.01, affine=True, track_running_stats=True)#    (9): GaussianNoise(std=0.1, trainable=False, adapt=False, momentum=0.95)#    (10): ReLU()#    (11): Linear(in_features=6760, out_features=5, bias=True)#    (12): BatchNorm1d(5, eps=1e-05, momentum=0.1, affine=True, track_running_stats=True)#    (13): Softplus(beta=1, threshold=20)#  )#)#!0.3546994844699956!all!!0.1!0.13290389007906656!naturalscene!!!0.6445438127803708!-3.41069333351935!512!-3.2306122753561795!bncnnchanssearch/bncnnchanssearch_27_chans[10, 10]!0.769456634805396!0.659818518642364!0.6438447336481455!0.7936686330603998!0.831910853484212!!!!!!!!!!!!!!!!!!!!!!0.01!True!
bncnnchanssearch!28!15-10-07!0.001!0.6120895147323608!50!<class 'torchdeepretina.models.BNCNN'>!True![10, 8]!bncnnchanssearch/results.txt!0.001!!24!0.0001!False!0.7156517099987776!BNCNN(#  (sequential): Sequential(#    (0): Conv2d(40, 10, kernel_size=(15, 15), stride=(1, 1))#    (1): Flatten()#    (2): BatchNorm1d(12960, eps=0.001, momentum=0.01, affine=True, track_running_stats=True)#    (3): GaussianNoise(std=0.1, trainable=False, adapt=False, momentum=0.95)#    (4): ReLU()#    (5): Reshape()#    (6): Conv2d(10, 8, kernel_size=(11, 11), stride=(1, 1))#    (7): Flatten()#    (8): BatchNorm1d(5408, eps=0.001, momentum=0.01, affine=True, track_running_stats=True)#    (9): GaussianNoise(std=0.1, trainable=False, adapt=False, momentum=0.95)#    (10): ReLU()#    (11): Linear(in_features=5408, out_features=5, bias=True)#    (12): BatchNorm1d(5, eps=1e-05, momentum=0.1, affine=True, track_running_stats=True)#    (13): Softplus(beta=1, threshold=20)#  )#)#!0.35105330357333653!all!!0.1!0.12030223314355273!naturalscene!!!0.5825312108112373!-3.29958662835721!512!-3.5370429444421463!bncnnchanssearch/bncnnchanssearch_28_chans[10, 8]!0.709032805287576!0.6157326207259107!0.6485065159740223!0.7805183073958678!0.8244683006105117!!!!!!!!!!!!!!!!!!!!!!0.01!True!
bncnnchanssearch!29!15-10-07!0.001!0.6054245829582214!50!<class 'torchdeepretina.models.BNCNN'>!True![8, 10]!bncnnchanssearch/results.txt!0.001!!24!0.0001!False!0.7091637723689109!BNCNN(#  (sequential): Sequential(#    (0): Conv2d(40, 8, kernel_size=(15, 15), stride=(1, 1))#    (1): Flatten()#    (2): BatchNorm1d(10368, eps=0.001, momentum=0.01, affine=True, track_running_stats=True)#    (3): GaussianNoise(std=0.1, trainable=False, adapt=False, momentum=0.95)#    (4): ReLU()#    (5): Reshape()#    (6): Conv2d(8, 10, kernel_size=(11, 11), stride=(1, 1))#    (7): Flatten()#    (8): BatchNorm1d(6760, eps=0.001, momentum=0.01, affine=True, track_running_stats=True)#    (9): GaussianNoise(std=0.1, trainable=False, adapt=False, momentum=0.95)#    (10): ReLU()#    (11): Linear(in_features=6760, out_features=5, bias=True)#    (12): BatchNorm1d(5, eps=1e-05, momentum=0.1, affine=True, track_running_stats=True)#    (13): Softplus(beta=1, threshold=20)#  )#)#!0.3574212358767356!all!!0.1!0.133374247152674!naturalscene!!!0.6123343568300254!-3.326476527195351!512!-3.1946306409241516!bncnnchanssearch/bncnnchanssearch_29_chans[8, 10]!0.7504909354144947!0.6169594333101215!0.620137312873431!0.7741445695238035!0.784086610722704!!!!!!!!!!!!!!!!!!!!!!0.01!True!
bncnnchanssearch!30!15-10-07!0.001!0.5892122983932495!50!<class 'torchdeepretina.models.BNCNN'>!True![12, 12]!bncnnchanssearch/results.txt!0.001!!24!0.0001!False!0.6859509007516703!BNCNN(#  (sequential): Sequential(#    (0): Conv2d(40, 12, kernel_size=(15, 15), stride=(1, 1))#    (1): Flatten()#    (2): BatchNorm1d(15552, eps=0.001, momentum=0.01, affine=True, track_running_stats=True)#    (3): GaussianNoise(std=0.1, trainable=False, adapt=False, momentum=0.95)#    (4): ReLU()#    (5): Reshape()#    (6): Conv2d(12, 12, kernel_size=(11, 11), stride=(1, 1))#    (7): Flatten()#    (8): BatchNorm1d(8112, eps=0.001, momentum=0.01, affine=True, track_running_stats=True)#    (9): GaussianNoise(std=0.1, trainable=False, adapt=False, momentum=0.95)#    (10): ReLU()#    (11): Linear(in_features=8112, out_features=5, bias=True)#    (12): BatchNorm1d(5, eps=1e-05, momentum=0.1, affine=True, track_running_stats=True)#    (13): Softplus(beta=1, threshold=20)#  )#)#!0.34425010604962814!all!!0.1!0.13341071060494197!naturalscene!!!0.6130360575195326!-3.34438901339541!512!-3.1346906815975673!bncnnchanssearch/bncnnchanssearch_30_chans[12, 12]!0.7157017708459288!0.6116073002350955!0.5863541762633442!0.7453553190553288!0.7707359373586541!!!!!!!!!!!!!!!!!!!!!!0.01!True!
bncnnchanssearch!31!15-10-07!0.001!0.5907084345817566!50!<class 'torchdeepretina.models.BNCNN'>!True![12, 8]!bncnnchanssearch/results.txt!0.001!!24!0.0001!False!0.7111657223044721!BNCNN(#  (sequential): Sequential(#    (0): Conv2d(40, 12, kernel_size=(15, 15), stride=(1, 1))#    (1): Flatten()#    (2): BatchNorm1d(15552, eps=0.001, momentum=0.01, affine=True, track_running_stats=True)#    (3): GaussianNoise(std=0.1, trainable=False, adapt=False, momentum=0.95)#    (4): ReLU()#    (5): Reshape()#    (6): Conv2d(12, 8, kernel_size=(11, 11), stride=(1, 1))#    (7): Flatten()#    (8): BatchNorm1d(5408, eps=0.001, momentum=0.01, affine=True, track_running_stats=True)#    (9): GaussianNoise(std=0.1, trainable=False, adapt=False, momentum=0.95)#    (10): ReLU()#    (11): Linear(in_features=5408, out_features=5, bias=True)#    (12): BatchNorm1d(5, eps=1e-05, momentum=0.1, affine=True, track_running_stats=True)#    (13): Softplus(beta=1, threshold=20)#  )#)#!0.3841316532309769!all!!0.1!0.12787284482181432!naturalscene!!!0.6237835465781344!-3.3237608667592298!512!-3.183049797681451!bncnnchanssearch/bncnnchanssearch_31_chans[12, 8]!0.7230520269495762!0.6505290286398899!0.6331606932750037!0.7324811713318994!0.816605691325991!!!!!!!!!!!!!!!!!!!!!!0.01!True!
bncnnchanssearch!32!15-10-07!0.001!0.6155773401260376!50!<class 'torchdeepretina.models.BNCNN'>!True![8, 12]!bncnnchanssearch/results.txt!0.001!!24!0.0001!False!0.7176412694849774!BNCNN(#  (sequential): Sequential(#    (0): Conv2d(40, 8, kernel_size=(15, 15), stride=(1, 1))#    (1): Flatten()#    (2): BatchNorm1d(10368, eps=0.001, momentum=0.01, affine=True, track_running_stats=True)#    (3): GaussianNoise(std=0.1, trainable=False, adapt=False, momentum=0.95)#    (4): ReLU()#    (5): Reshape()#    (6): Conv2d(8, 12, kernel_size=(11, 11), stride=(1, 1))#    (7): Flatten()#    (8): BatchNorm1d(8112, eps=0.001, momentum=0.01, affine=True, track_running_stats=True)#    (9): GaussianNoise(std=0.1, trainable=False, adapt=False, momentum=0.95)#    (10): ReLU()#    (11): Linear(in_features=8112, out_features=5, bias=True)#    (12): BatchNorm1d(5, eps=1e-05, momentum=0.1, affine=True, track_running_stats=True)#    (13): Softplus(beta=1, threshold=20)#  )#)#!0.37268184404061255!all!!0.1!0.10573807848304123!naturalscene!!!0.6196977599965365!-3.36401612096962!512!-3.2728743006318837!bncnnchanssearch/bncnnchanssearch_32_chans[8, 12]!0.7369811127004643!0.6508245042593732!0.632877649254257!0.7760184299866987!0.7915046512240935!!!!!!!!!!!!!!!!!!!!!!0.01!True!
absbnbncnn!0!15-10-07!0.01!0.5389859676361084!50!<class 'torchdeepretina.models.AbsBNBNCNN'>!True![8, 8]!absbnbncnn/results.txt!0.0007!!0!0.0001!False!0.6745291405702502!AbsBNBNCNN(#  (sequential): Sequential(#    (0): Conv2d(40, 8, kernel_size=(15, 15), stride=(1, 1))#    (1): Flatten()#    (2): AbsBatchNorm1d(bias=True, abs_bias=False, momentum=0.01, eps=0.001)#    (3): GaussianNoise(std=0.1, trainable=False, adapt=False, momentum=0.95)#    (4): ReLU()#    (5): Reshape()#    (6): Conv2d(8, 8, kernel_size=(11, 11), stride=(1, 1))#    (7): Flatten()#    (8): AbsBatchNorm1d(bias=True, abs_bias=False, momentum=0.01, eps=0.001)#    (9): GaussianNoise(std=0.1, trainable=False, adapt=False, momentum=0.95)#    (10): ReLU()#    (11): Linear(in_features=5408, out_features=5, bias=True)#    (12): AbsBatchNorm1d(bias=True, abs_bias=False, momentum=0.01, eps=1e-05)#    (13): Softplus(beta=1, threshold=20)#  )#)#!0.38537888540086135!all!!0.1!0.15664766437714822!naturalscene!!!0.6334850612268782!-2.806527075184956!512!-2.7414646075078055!absbnbncnn/absbnbncnn_0_lr0.0007_l20.01!0.6770615134461859!0.6181587763704524!0.5883175108774525!0.7312075673178628!0.7579003348392975!!!!!!!!!!!!!!!!!!!!!!0.01!None!
absbnbncnn!1!15-10-07!0.001!0.6053382754325867!50!<class 'torchdeepretina.models.AbsBNBNCNN'>!True![8, 8]!absbnbncnn/results.txt!0.0007!!0!0.0001!False!0.7226851612123188!AbsBNBNCNN(#  (sequential): Sequential(#    (0): Conv2d(40, 8, kernel_size=(15, 15), stride=(1, 1))#    (1): Flatten()#    (2): AbsBatchNorm1d(bias=True, abs_bias=False, momentum=0.01, eps=0.001)#    (3): GaussianNoise(std=0.1, trainable=False, adapt=False, momentum=0.95)#    (4): ReLU()#    (5): Reshape()#    (6): Conv2d(8, 8, kernel_size=(11, 11), stride=(1, 1))#    (7): Flatten()#    (8): AbsBatchNorm1d(bias=True, abs_bias=False, momentum=0.01, eps=0.001)#    (9): GaussianNoise(std=0.1, trainable=False, adapt=False, momentum=0.95)#    (10): ReLU()#    (11): Linear(in_features=5408, out_features=5, bias=True)#    (12): AbsBatchNorm1d(bias=True, abs_bias=False, momentum=0.01, eps=1e-05)#    (13): Softplus(beta=1, threshold=20)#  )#)#!0.3535259352804894!all!!0.1!0.10951248768044411!naturalscene!!!0.6304736591830409!-3.3102935802523006!512!-3.3210669669948403!absbnbncnn/absbnbncnn_1_lr0.0007_l20.001!0.7272826855636754!0.6554744511824909!0.6726085140349689!0.76971860977506!0.7883415455053996!!!!!!!!!!!!!!!!!!!!!!0.01!None!
absbnbncnn!2!15-10-07!0.01!0.5716907978057861!50!<class 'torchdeepretina.models.AbsBNBNCNN'>!True![8, 8]!absbnbncnn/results.txt!0.0002!!0!0.0001!False!0.7159882084205916!AbsBNBNCNN(#  (sequential): Sequential(#    (0): Conv2d(40, 8, kernel_size=(15, 15), stride=(1, 1))#    (1): Flatten()#    (2): AbsBatchNorm1d(bias=True, abs_bias=False, momentum=0.01, eps=0.001)#    (3): GaussianNoise(std=0.1, trainable=False, adapt=False, momentum=0.95)#    (4): ReLU()#    (5): Reshape()#    (6): Conv2d(8, 8, kernel_size=(11, 11), stride=(1, 1))#    (7): Flatten()#    (8): AbsBatchNorm1d(bias=True, abs_bias=False, momentum=0.01, eps=0.001)#    (9): GaussianNoise(std=0.1, trainable=False, adapt=False, momentum=0.95)#    (10): ReLU()#    (11): Linear(in_features=5408, out_features=5, bias=True)#    (12): AbsBatchNorm1d(bias=True, abs_bias=False, momentum=0.01, eps=1e-05)#    (13): Softplus(beta=1, threshold=20)#  )#)#!0.3804359817532464!all!!0.1!0.13797246423470322!naturalscene!!!0.6014698547966189!-2.9226238114441863!512!-3.097749115796978!absbnbncnn/absbnbncnn_2_lr0.0002_l20.01!0.7302692625603865!0.6584034526709505!0.620570823976533!0.7651841244114677!0.8055133784836209!!!!!!!!!!!!!!!!!!!!!!0.01!None!
absbnbncnn!3!15-10-07!0.001!0.6122494339942932!50!<class 'torchdeepretina.models.AbsBNBNCNN'>!True![8, 8]!absbnbncnn/results.txt!0.0002!!0!0.0001!False!0.7150226500765238!AbsBNBNCNN(#  (sequential): Sequential(#    (0): Conv2d(40, 8, kernel_size=(15, 15), stride=(1, 1))#    (1): Flatten()#    (2): AbsBatchNorm1d(bias=True, abs_bias=False, momentum=0.01, eps=0.001)#    (3): GaussianNoise(std=0.1, trainable=False, adapt=False, momentum=0.95)#    (4): ReLU()#    (5): Reshape()#    (6): Conv2d(8, 8, kernel_size=(11, 11), stride=(1, 1))#    (7): Flatten()#    (8): AbsBatchNorm1d(bias=True, abs_bias=False, momentum=0.01, eps=0.001)#    (9): GaussianNoise(std=0.1, trainable=False, adapt=False, momentum=0.95)#    (10): ReLU()#    (11): Linear(in_features=5408, out_features=5, bias=True)#    (12): AbsBatchNorm1d(bias=True, abs_bias=False, momentum=0.01, eps=1e-05)#    (13): Softplus(beta=1, threshold=20)#  )#)#!0.34989648729842027!all!!0.1!0.10697946780478498!naturalscene!!!0.6337165918381485!-3.309742539896325!512!-3.2947551999783173!absbnbncnn/absbnbncnn_3_lr0.0002_l20.001!0.7370381643054181!0.6610499934354694!0.6097561095507782!0.7700747460214494!0.7971942370695043!!!!!!!!!!!!!!!!!!!!!!0.01!None!
absbnbncnn!4!15-10-07!0.01!0.5660518407821655!50!<class 'torchdeepretina.models.AbsBNBNCNN'>!True![8, 8]!absbnbncnn/results.txt!8e-05!!0!0.0001!False!0.7157354811063128!AbsBNBNCNN(#  (sequential): Sequential(#    (0): Conv2d(40, 8, kernel_size=(15, 15), stride=(1, 1))#    (1): Flatten()#    (2): AbsBatchNorm1d(bias=True, abs_bias=False, momentum=0.01, eps=0.001)#    (3): GaussianNoise(std=0.1, trainable=False, adapt=False, momentum=0.95)#    (4): ReLU()#    (5): Reshape()#    (6): Conv2d(8, 8, kernel_size=(11, 11), stride=(1, 1))#    (7): Flatten()#    (8): AbsBatchNorm1d(bias=True, abs_bias=False, momentum=0.01, eps=0.001)#    (9): GaussianNoise(std=0.1, trainable=False, adapt=False, momentum=0.95)#    (10): ReLU()#    (11): Linear(in_features=5408, out_features=5, bias=True)#    (12): AbsBatchNorm1d(bias=True, abs_bias=False, momentum=0.01, eps=1e-05)#    (13): Softplus(beta=1, threshold=20)#  )#)#!0.357658168522143!all!!0.1!0.10182891463519664!naturalscene!!!0.6214967816716869!-2.8154404006932117!512!-3.130455187714688!absbnbncnn/absbnbncnn_4_lr8e-05_l20.01!0.7409736916669144!0.661018298889253!0.6247533977021595!0.7700883166859396!0.7818437005872979!!!!!!!!!!!!!!!!!!!!!!0.01!None!
absbnbncnn!5!15-10-07!0.001!0.6009839773178101!50!<class 'torchdeepretina.models.AbsBNBNCNN'>!True![8, 8]!absbnbncnn/results.txt!8e-05!!0!0.0001!False!0.6294623249112042!AbsBNBNCNN(#  (sequential): Sequential(#    (0): Conv2d(40, 8, kernel_size=(15, 15), stride=(1, 1))#    (1): Flatten()#    (2): AbsBatchNorm1d(bias=True, abs_bias=False, momentum=0.01, eps=0.001)#    (3): GaussianNoise(std=0.1, trainable=False, adapt=False, momentum=0.95)#    (4): ReLU()#    (5): Reshape()#    (6): Conv2d(8, 8, kernel_size=(11, 11), stride=(1, 1))#    (7): Flatten()#    (8): AbsBatchNorm1d(bias=True, abs_bias=False, momentum=0.01, eps=0.001)#    (9): GaussianNoise(std=0.1, trainable=False, adapt=False, momentum=0.95)#    (10): ReLU()#    (11): Linear(in_features=5408, out_features=5, bias=True)#    (12): AbsBatchNorm1d(bias=True, abs_bias=False, momentum=0.01, eps=1e-05)#    (13): Softplus(beta=1, threshold=20)#  )#)#!0.32652189501964596!all!!0.1!0.08892269382635361!naturalscene!!!0.555628401613488!-3.1779554627419957!512!-3.0816123937598605!absbnbncnn/absbnbncnn_5_lr8e-05_l20.001!0.6787299526554043!0.5470985363292086!0.5091552127466416!0.7307406198077115!0.6815873030170553!!!!!!!!!!!!!!!!!!!!!!0.01!None!
absbnbncnn!0!15-10-07!0.01!0.5389859676361084!50!<class 'torchdeepretina.models.AbsBNBNCNN'>!True![8, 8]!absbnbncnn/results.txt!0.0007!!0!0.0001!False!0.6745291405702502!AbsBNBNCNN(#  (sequential): Sequential(#    (0): Conv2d(40, 8, kernel_size=(15, 15), stride=(1, 1))#    (1): Flatten()#    (2): AbsBatchNorm1d(bias=True, abs_bias=False, momentum=0.01, eps=0.001)#    (3): GaussianNoise(std=0.1, trainable=False, adapt=False, momentum=0.95)#    (4): ReLU()#    (5): Reshape()#    (6): Conv2d(8, 8, kernel_size=(11, 11), stride=(1, 1))#    (7): Flatten()#    (8): AbsBatchNorm1d(bias=True, abs_bias=False, momentum=0.01, eps=0.001)#    (9): GaussianNoise(std=0.1, trainable=False, adapt=False, momentum=0.95)#    (10): ReLU()#    (11): Linear(in_features=5408, out_features=5, bias=True)#    (12): AbsBatchNorm1d(bias=True, abs_bias=False, momentum=0.01, eps=1e-05)#    (13): Softplus(beta=1, threshold=20)#  )#)#!0.38537888540086135!all!!0.1!0.15664766437714822!naturalscene!!!0.6334850612268782!-2.806527075184956!512!-2.7414646075078055!absbnbncnn/absbnbncnn_0_lr0.0007_l20.01!0.6770615134461859!0.6181587763704524!0.5883175108774525!0.7312075673178628!0.7579003348392975!!!!!!!!!!!!!!!!!!!!!!0.01!None!
absbnbncnn!1!15-10-07!0.001!0.6053382754325867!50!<class 'torchdeepretina.models.AbsBNBNCNN'>!True![8, 8]!absbnbncnn/results.txt!0.0007!!0!0.0001!False!0.7226851612123188!AbsBNBNCNN(#  (sequential): Sequential(#    (0): Conv2d(40, 8, kernel_size=(15, 15), stride=(1, 1))#    (1): Flatten()#    (2): AbsBatchNorm1d(bias=True, abs_bias=False, momentum=0.01, eps=0.001)#    (3): GaussianNoise(std=0.1, trainable=False, adapt=False, momentum=0.95)#    (4): ReLU()#    (5): Reshape()#    (6): Conv2d(8, 8, kernel_size=(11, 11), stride=(1, 1))#    (7): Flatten()#    (8): AbsBatchNorm1d(bias=True, abs_bias=False, momentum=0.01, eps=0.001)#    (9): GaussianNoise(std=0.1, trainable=False, adapt=False, momentum=0.95)#    (10): ReLU()#    (11): Linear(in_features=5408, out_features=5, bias=True)#    (12): AbsBatchNorm1d(bias=True, abs_bias=False, momentum=0.01, eps=1e-05)#    (13): Softplus(beta=1, threshold=20)#  )#)#!0.3535259352804894!all!!0.1!0.10951248768044411!naturalscene!!!0.6304736591830409!-3.3102935802523006!512!-3.3210669669948403!absbnbncnn/absbnbncnn_1_lr0.0007_l20.001!0.7272826855636754!0.6554744511824909!0.6726085140349689!0.76971860977506!0.7883415455053996!!!!!!!!!!!!!!!!!!!!!!0.01!None!
absbnbncnn!2!15-10-07!0.01!0.5716907978057861!50!<class 'torchdeepretina.models.AbsBNBNCNN'>!True![8, 8]!absbnbncnn/results.txt!0.0002!!0!0.0001!False!0.7159882084205916!AbsBNBNCNN(#  (sequential): Sequential(#    (0): Conv2d(40, 8, kernel_size=(15, 15), stride=(1, 1))#    (1): Flatten()#    (2): AbsBatchNorm1d(bias=True, abs_bias=False, momentum=0.01, eps=0.001)#    (3): GaussianNoise(std=0.1, trainable=False, adapt=False, momentum=0.95)#    (4): ReLU()#    (5): Reshape()#    (6): Conv2d(8, 8, kernel_size=(11, 11), stride=(1, 1))#    (7): Flatten()#    (8): AbsBatchNorm1d(bias=True, abs_bias=False, momentum=0.01, eps=0.001)#    (9): GaussianNoise(std=0.1, trainable=False, adapt=False, momentum=0.95)#    (10): ReLU()#    (11): Linear(in_features=5408, out_features=5, bias=True)#    (12): AbsBatchNorm1d(bias=True, abs_bias=False, momentum=0.01, eps=1e-05)#    (13): Softplus(beta=1, threshold=20)#  )#)#!0.3804359817532464!all!!0.1!0.13797246423470322!naturalscene!!!0.6014698547966189!-2.9226238114441863!512!-3.097749115796978!absbnbncnn/absbnbncnn_2_lr0.0002_l20.01!0.7302692625603865!0.6584034526709505!0.620570823976533!0.7651841244114677!0.8055133784836209!!!!!!!!!!!!!!!!!!!!!!0.01!None!
absbnbncnn!3!15-10-07!0.001!0.6122494339942932!50!<class 'torchdeepretina.models.AbsBNBNCNN'>!True![8, 8]!absbnbncnn/results.txt!0.0002!!0!0.0001!False!0.7150226500765238!AbsBNBNCNN(#  (sequential): Sequential(#    (0): Conv2d(40, 8, kernel_size=(15, 15), stride=(1, 1))#    (1): Flatten()#    (2): AbsBatchNorm1d(bias=True, abs_bias=False, momentum=0.01, eps=0.001)#    (3): GaussianNoise(std=0.1, trainable=False, adapt=False, momentum=0.95)#    (4): ReLU()#    (5): Reshape()#    (6): Conv2d(8, 8, kernel_size=(11, 11), stride=(1, 1))#    (7): Flatten()#    (8): AbsBatchNorm1d(bias=True, abs_bias=False, momentum=0.01, eps=0.001)#    (9): GaussianNoise(std=0.1, trainable=False, adapt=False, momentum=0.95)#    (10): ReLU()#    (11): Linear(in_features=5408, out_features=5, bias=True)#    (12): AbsBatchNorm1d(bias=True, abs_bias=False, momentum=0.01, eps=1e-05)#    (13): Softplus(beta=1, threshold=20)#  )#)#!0.34989648729842027!all!!0.1!0.10697946780478498!naturalscene!!!0.6337165918381485!-3.309742539896325!512!-3.2947551999783173!absbnbncnn/absbnbncnn_3_lr0.0002_l20.001!0.7370381643054181!0.6610499934354694!0.6097561095507782!0.7700747460214494!0.7971942370695043!!!!!!!!!!!!!!!!!!!!!!0.01!None!
absbnbncnn!4!15-10-07!0.01!0.5660518407821655!50!<class 'torchdeepretina.models.AbsBNBNCNN'>!True![8, 8]!absbnbncnn/results.txt!8e-05!!0!0.0001!False!0.7157354811063128!AbsBNBNCNN(#  (sequential): Sequential(#    (0): Conv2d(40, 8, kernel_size=(15, 15), stride=(1, 1))#    (1): Flatten()#    (2): AbsBatchNorm1d(bias=True, abs_bias=False, momentum=0.01, eps=0.001)#    (3): GaussianNoise(std=0.1, trainable=False, adapt=False, momentum=0.95)#    (4): ReLU()#    (5): Reshape()#    (6): Conv2d(8, 8, kernel_size=(11, 11), stride=(1, 1))#    (7): Flatten()#    (8): AbsBatchNorm1d(bias=True, abs_bias=False, momentum=0.01, eps=0.001)#    (9): GaussianNoise(std=0.1, trainable=False, adapt=False, momentum=0.95)#    (10): ReLU()#    (11): Linear(in_features=5408, out_features=5, bias=True)#    (12): AbsBatchNorm1d(bias=True, abs_bias=False, momentum=0.01, eps=1e-05)#    (13): Softplus(beta=1, threshold=20)#  )#)#!0.357658168522143!all!!0.1!0.10182891463519664!naturalscene!!!0.6214967816716869!-2.8154404006932117!512!-3.130455187714688!absbnbncnn/absbnbncnn_4_lr8e-05_l20.01!0.7409736916669144!0.661018298889253!0.6247533977021595!0.7700883166859396!0.7818437005872979!!!!!!!!!!!!!!!!!!!!!!0.01!None!
absbnbncnn!5!15-10-07!0.001!0.6009839773178101!50!<class 'torchdeepretina.models.AbsBNBNCNN'>!True![8, 8]!absbnbncnn/results.txt!8e-05!!0!0.0001!False!0.6294623249112042!AbsBNBNCNN(#  (sequential): Sequential(#    (0): Conv2d(40, 8, kernel_size=(15, 15), stride=(1, 1))#    (1): Flatten()#    (2): AbsBatchNorm1d(bias=True, abs_bias=False, momentum=0.01, eps=0.001)#    (3): GaussianNoise(std=0.1, trainable=False, adapt=False, momentum=0.95)#    (4): ReLU()#    (5): Reshape()#    (6): Conv2d(8, 8, kernel_size=(11, 11), stride=(1, 1))#    (7): Flatten()#    (8): AbsBatchNorm1d(bias=True, abs_bias=False, momentum=0.01, eps=0.001)#    (9): GaussianNoise(std=0.1, trainable=False, adapt=False, momentum=0.95)#    (10): ReLU()#    (11): Linear(in_features=5408, out_features=5, bias=True)#    (12): AbsBatchNorm1d(bias=True, abs_bias=False, momentum=0.01, eps=1e-05)#    (13): Softplus(beta=1, threshold=20)#  )#)#!0.32652189501964596!all!!0.1!0.08892269382635361!naturalscene!!!0.555628401613488!-3.1779554627419957!512!-3.0816123937598605!absbnbncnn/absbnbncnn_5_lr8e-05_l20.001!0.6787299526554043!0.5470985363292086!0.5091552127466416!0.7307406198077115!0.6815873030170553!!!!!!!!!!!!!!!!!!!!!!0.01!None!
dalesskip!14!15-10-07!0.001!0.5136132836341858!50!<class 'torchdeepretina.models.DalesSkipBNCNN'>!True![8, 8]!dalesskip/results.txt!0.001!!14!0.0001!False!0.6392262877221698!DalesSkipBNCNN(#  (sequential): Sequential(#    (0): DalesSkipConnection(#      (sequential): Sequential(#        (0): AbsConv2d(#          (conv): Conv2d(40, 2, kernel_size=(15, 15), stride=(1, 1), padding=(7, 7))#        )#        (1): Flatten()#        (2): BatchNorm1d(5000, eps=1e-05, momentum=0.1, affine=True, track_running_stats=True)#        (3): GaussianNoise(std=0.05, trainable=False, adapt=False, momentum=0.95)#        (4): ReLU()#        (5): Reshape()#        (6): DaleActivations(n_chan=2, neg_p=1, n_neg_chan=2)#      )#    )#    (1): AbsConv2d(#      (conv): Conv2d(42, 8, kernel_size=(15, 15), stride=(1, 1))#    )#    (2): Flatten()#    (3): BatchNorm1d(10368, eps=0.001, momentum=0.01, affine=True, track_running_stats=True)#    (4): GaussianNoise(std=0.05, trainable=False, adapt=False, momentum=0.95)#    (5): ReLU()#    (6): Reshape()#    (7): DaleActivations(n_chan=8, neg_p=0.5, n_neg_chan=4)#    (8): AbsConv2d(#      (conv): Conv2d(8, 8, kernel_size=(11, 11), stride=(1, 1))#    )#    (9): Flatten()#    (10): BatchNorm1d(5408, eps=0.001, momentum=0.01, affine=True, track_running_stats=True)#    (11): GaussianNoise(std=0.05, trainable=False, adapt=False, momentum=0.95)#    (12): ReLU()#    (13): Reshape()#    (14): DaleActivations(n_chan=8, neg_p=0.5, n_neg_chan=4)#    (15): Flatten()#    (16): AbsLinear(#      (linear): Linear(in_features=5408, out_features=5, bias=True)#    )#    (17): BatchNorm1d(5, eps=1e-05, momentum=0.01, affine=True, track_running_stats=True)#    (18): Softplus(beta=1, threshold=20)#  )#)#!0.4289001136453876!all!!0.05!0.16688554543519143!naturalscene!!!0.6471805943124415!-2.6236726914056288!512!-2.6087128218641737!dalesskip/dalesskip_14_noise0.05!0.6697018237393859!0.5453791716257667!0.557274394313742!0.7103374595234583!0.7134385894084962!!!!!!!!!!!!!!!!!!!!!!0.01!True!
dalesskip!15!15-10-07!0.001!0.4492165446281433!50!<class 'torchdeepretina.models.DalesSkipBNCNN'>!True![8, 8]!dalesskip/results.txt!0.001!!14!0.0001!False!0.5590225937887876!DalesSkipBNCNN(#  (sequential): Sequential(#    (0): DalesSkipConnection(#      (sequential): Sequential(#        (0): AbsConv2d(#          (conv): Conv2d(40, 2, kernel_size=(15, 15), stride=(1, 1), padding=(7, 7))#        )#        (1): Flatten()#        (2): BatchNorm1d(5000, eps=1e-05, momentum=0.1, affine=True, track_running_stats=True)#        (3): GaussianNoise(std=0.1, trainable=False, adapt=False, momentum=0.95)#        (4): ReLU()#        (5): Reshape()#        (6): DaleActivations(n_chan=2, neg_p=1, n_neg_chan=2)#      )#    )#    (1): AbsConv2d(#      (conv): Conv2d(42, 8, kernel_size=(15, 15), stride=(1, 1))#    )#    (2): Flatten()#    (3): BatchNorm1d(10368, eps=0.001, momentum=0.01, affine=True, track_running_stats=True)#    (4): GaussianNoise(std=0.1, trainable=False, adapt=False, momentum=0.95)#    (5): ReLU()#    (6): Reshape()#    (7): DaleActivations(n_chan=8, neg_p=0.5, n_neg_chan=4)#    (8): AbsConv2d(#      (conv): Conv2d(8, 8, kernel_size=(11, 11), stride=(1, 1))#    )#    (9): Flatten()#    (10): BatchNorm1d(5408, eps=0.001, momentum=0.01, affine=True, track_running_stats=True)#    (11): GaussianNoise(std=0.1, trainable=False, adapt=False, momentum=0.95)#    (12): ReLU()#    (13): Reshape()#    (14): DaleActivations(n_chan=8, neg_p=0.5, n_neg_chan=4)#    (15): Flatten()#    (16): AbsLinear(#      (linear): Linear(in_features=5408, out_features=5, bias=True)#    )#    (17): BatchNorm1d(5, eps=1e-05, momentum=0.01, affine=True, track_running_stats=True)#    (18): Softplus(beta=1, threshold=20)#  )#)#!0.33872147939891845!all!!0.1!0.11052688626481257!naturalscene!!!0.6376451596361544!-2.3695270269884423!512!-2.1343898553790495!dalesskip/dalesskip_15_noise0.1!0.5947307019547464!0.39134580167140753!0.5119676874506022!0.5792833714295696!0.7177854064376122!!!!!!!!!!!!!!!!!!!!!!0.01!True!
dalesbncnnfixedbias!0!15-10-07!0.001!0.49249905347824097!50!<class 'torchdeepretina.models.DalesBNCNN'>!True![8, 8]!dalesbncnnfixedbias/results.txt!0.001!!0!0.0001!False!0.6110966323442579!DalesBNCNN(#  (sequential): Sequential(#    (0): AbsConv2d(#      (conv): Conv2d(40, 8, kernel_size=(15, 15), stride=(1, 1))#    )#    (1): Flatten()#    (2): BatchNorm1d(10368, eps=0.001, momentum=0.01, affine=True, track_running_stats=True)#    (3): GaussianNoise(std=0.05, trainable=False, adapt=False, momentum=0.95)#    (4): ReLU()#    (5): Reshape()#    (6): DaleActivations(n_chan=8, neg_p=0.5, n_neg_chan=4)#    (7): AbsConv2d(#      (conv): Conv2d(8, 8, kernel_size=(11, 11), stride=(1, 1))#    )#    (8): Flatten()#    (9): BatchNorm1d(5408, eps=0.001, momentum=0.01, affine=True, track_running_stats=True)#    (10): GaussianNoise(std=0.05, trainable=False, adapt=False, momentum=0.95)#    (11): ReLU()#    (12): Reshape()#    (13): DaleActivations(n_chan=8, neg_p=0.5, n_neg_chan=4)#    (14): Flatten()#    (15): AbsLinear(#      (linear): Linear(in_features=5408, out_features=5, bias=True)#    )#    (16): BatchNorm1d(5, eps=1e-05, momentum=0.01, affine=True, track_running_stats=True)#    (17): Softplus(beta=1, threshold=20)#  )#)#!0.47910706504991385!all!!0.05!0.1960295968039636!naturalscene!!!0.6634854676719649!-2.373335829147926!512!-2.441412721047891!dalesbncnnfixedbias/dalesbncnnfixedbias_0_noise0.05!0.660163489758273!0.43356412033876396!0.5233332280139043!0.6935205657906942!0.7449017578196542!!!!!!!!!!!!!!!!!!!!!!0.01!True!
dalesbncnnfixedbias!1!15-10-07!0.001!0.4819185137748718!50!<class 'torchdeepretina.models.DalesBNCNN'>!True![8, 8]!dalesbncnnfixedbias/results.txt!0.001!!0!0.0001!False!0.5997571455404305!DalesBNCNN(#  (sequential): Sequential(#    (0): AbsConv2d(#      (conv): Conv2d(40, 8, kernel_size=(15, 15), stride=(1, 1))#    )#    (1): Flatten()#    (2): BatchNorm1d(10368, eps=0.001, momentum=0.01, affine=True, track_running_stats=True)#    (3): GaussianNoise(std=0.1, trainable=False, adapt=False, momentum=0.95)#    (4): ReLU()#    (5): Reshape()#    (6): DaleActivations(n_chan=8, neg_p=0.5, n_neg_chan=4)#    (7): AbsConv2d(#      (conv): Conv2d(8, 8, kernel_size=(11, 11), stride=(1, 1))#    )#    (8): Flatten()#    (9): BatchNorm1d(5408, eps=0.001, momentum=0.01, affine=True, track_running_stats=True)#    (10): GaussianNoise(std=0.1, trainable=False, adapt=False, momentum=0.95)#    (11): ReLU()#    (12): Reshape()#    (13): DaleActivations(n_chan=8, neg_p=0.5, n_neg_chan=4)#    (14): Flatten()#    (15): AbsLinear(#      (linear): Linear(in_features=5408, out_features=5, bias=True)#    )#    (16): BatchNorm1d(5, eps=1e-05, momentum=0.01, affine=True, track_running_stats=True)#    (17): Softplus(beta=1, threshold=20)#  )#)#!0.41654051061126757!all!!0.1!0.15590469894669173!naturalscene!!!0.681056807284813!-2.1679990025936746!512!-2.362101694464582!dalesbncnnfixedbias/dalesbncnnfixedbias_1_noise0.1!0.6525111414081645!0.38710582818468575!0.5080984331841052!0.695314513163346!0.7557558117618509!!!!!!!!!!!!!!!!!!!!!!0.01!True!
