…
7!cell18!cell2!cell20!cell21!cell22!cell23!cell24!cell25!cell27!cell3!cell31!cell4!cell5!cell6!cell7!cell8!cell9!cells!chans!dataset!exp_name!exp_num!horizontal_intr_cor!l1!l2!linear_bias!log_poisson!lossfxn!lr!model_type!n_epochs!n_output_units!noise!poor_results!results_file!save_folder!shift!softplus!starting_exp_num!std_oms_ratio!stim_type
-2.373335829147926!0.5861128671221097!-2.441412721047891!0.6634854676719649!0.4791070650499138!0.1960295968039636!0.6110966323442579!!0.492499053478241!!True!False!0.5279378195870179!DalesBNCNN(#  (sequential): Sequential(#    (0): AbsConv2d(#      (conv): Conv2d(40, 8, kernel_size=(15, 15), stride=(1, 1))#    )#    (1): Flatten()#    (2): BatchNorm1d(10368, eps=0.001, momentum=0.01, affine=True, track_running_stats=True)#    (3): GaussianNoise(std=0.05, trainable=False, adapt=False, momentum=0.95)#    (4): ReLU()#    (5): Reshape()#    (6): DaleActivations(n_chan=8, neg_p=0.5, n_neg_chan=4)#    (7): AbsConv2d(#      (conv): Conv2d(8, 8, kernel_size=(11, 11), stride=(1, 1))#    )#    (8): Flatten()#    (9): BatchNorm1d(5408, eps=0.001, momentum=0.01, affine=True, track_running_stats=True)#    (10): GaussianNoise(std=0.05, trainable=False, adapt=False, momentum=0.95)#    (11): ReLU()#    (12): Reshape()#    (13): DaleActivations(n_chan=8, neg_p=0.5, n_neg_chan=4)#    (14): Flatten()#    (15): AbsLinear(#      (linear): Linear(in_features=5408, out_features=5, bias=True)#    )#    (16): BatchNorm1d(5, eps=1e-05, momentum=0.01, affine=True, track_running_stats=True)#    (17): Softplus(beta=1, threshold=20)#  )#)#!0.6852623224258423!512!0.6110966323442579!True!0.4622057439326484!0.01!0.7035082909899737!0.39252673792576576!!!!!!!!!0.4803553536988907!!!!!!!!0.6316007347310264!!0.7225732182648922!!!!!!all![8, 8]!15-10-07!dalesbncnnfixedbias!0!0.3457602734186971!0.0001!0.001!True!!!0.001!DalesBNCNN!50!!0.05!!dalesbncnnfixedbias/results.txt!dalesbncnnfixedbias/dalesbncnnfixedbias_0_noise0.05!!!0.0!0.19925549626350408!naturalscene
-2.1679990025936746!0.5593983156530449!-2.362101694464582!0.6810568072848129!0.4165405106112676!0.15590469894669173!0.5997571455404305!!0.4819185137748718!!True!False!0.4903112134649775!DalesBNCNN(#  (sequential): Sequential(#    (0): AbsConv2d(#      (conv): Conv2d(40, 8, kernel_size=(15, 15), stride=(1, 1))#    )#    (1): Flatten()#    (2): BatchNorm1d(10368, eps=0.001, momentum=0.01, affine=True, track_running_stats=True)#    (3): GaussianNoise(std=0.1, trainable=False, adapt=False, momentum=0.95)#    (4): ReLU()#    (5): Reshape()#    (6): DaleActivations(n_chan=8, neg_p=0.5, n_neg_chan=4)#    (7): AbsConv2d(#      (conv): Conv2d(8, 8, kernel_size=(11, 11), stride=(1, 1))#    )#    (8): Flatten()#    (9): BatchNorm1d(5408, eps=0.001, momentum=0.01, affine=True, track_running_stats=True)#    (10): GaussianNoise(std=0.1, trainable=False, adapt=False, momentum=0.95)#    (11): ReLU()#    (12): Reshape()#    (13): DaleActivations(n_chan=8, neg_p=0.5, n_neg_chan=4)#    (14): Flatten()#    (15): AbsLinear(#      (linear): Linear(in_features=5408, out_features=5, bias=True)#    )#    (16): BatchNorm1d(5, eps=1e-05, momentum=0.01, affine=True, track_running_stats=True)#    (17): Softplus(beta=1, threshold=20)#  )#)#!1.0261579751968384!512!0.5997571455404305!True!0.3458761948894827!0.01!0.6659552841864539!0.303343541127721!!!!!!!!!0.44592873253620974!!!!!!!!0.6701787368842952!!0.7115852835305445!!!!!!all![8, 8]!15-10-07!dalesbncnnfixedbias!1!0.25018953650041464!0.0001!0.001!True!!!0.001!DalesBNCNN!50!!0.1!!dalesbncnnfixedbias/results.txt!dalesbncnnfixedbias/dalesbncnnfixedbias_1_noise0.1!!!0.0!0.11698204278945926!naturalscene
-2.375422986204628!0.5992790364739761!-2.4076490618892423!0.6643051154800994!0.4610886389494996!0.2004946242985936!0.6146065572158578!!0.4974638819694519!!!False!0.5184866194095961!DalesBNCNN(#  (sequential): Sequential(#    (0): AbsConv2d(#      (conv): Conv2d(40, 8, kernel_size=(15, 15), stride=(1, 1))#    )#    (1): Flatten()#    (2): BatchNorm1d(10368, eps=0.001, momentum=0.01, affine=True, track_running_stats=True)#    (3): GaussianNoise(std=0.05, trainable=False, adapt=False, momentum=0.95)#    (4): ReLU()#    (5): Reshape()#    (6): DaleActivations(n_chan=8, neg_p=0.5, n_neg_chan=4)#    (7): AbsConv2d(#      (conv): Conv2d(8, 8, kernel_size=(11, 11), stride=(1, 1))#    )#    (8): Flatten()#    (9): BatchNorm1d(5408, eps=0.001, momentum=0.01, affine=True, track_running_stats=True)#    (10): GaussianNoise(std=0.05, trainable=False, adapt=False, momentum=0.95)#    (11): ReLU()#    (12): Reshape()#    (13): DaleActivations(n_chan=8, neg_p=0.5, n_neg_chan=4)#    (14): Flatten()#    (15): AbsLinear(#      (linear): Linear(in_features=5408, out_features=5, bias=True)#    )#    (16): BatchNorm1d(5, eps=1e-05, momentum=0.01, affine=True, track_running_stats=True)#    (17): Softplus(beta=1, threshold=20)#  )#)#!0.7072716355323792!512!0.6146065572158578!True!0.4388530351472566!0.01!0.6822033830901257!0.3528289904567965!!!!!!!!!0.5248484478157321!!!!!!!!0.6830632393702661!!0.7534511216369592!!!!!!all![8, 8]!15-10-07!dalesbncnnfixedbias!6!0.3061890560820666!0.0001!0.001!True!!!0.001!DalesBNCNN!50!!0.05!!dalesbncnnfixedbias/results.txt!dalesbncnnfixedbias/dalesbncnnfixedbias_6_noise0.05!!!6.0!0.1672002375125885!naturalscene
-2.1618165496068125!0.5435978518194655!-2.3246182327129645!0.6639431575831316!0.456987374003054!0.09659639118923548!0.5861713478524251!!0.4735159873962402!!!False!0.517242358520549!DalesBNCNN(#  (sequential): Sequential(#    (0): AbsConv2d(#      (conv): Conv2d(40, 8, kernel_size=(15, 15), stride=(1, 1))#    )#    (1): Flatten()#    (2): BatchNorm1d(10368, eps=0.001, momentum=0.01, affine=True, track_running_stats=True)#    (3): GaussianNoise(std=0.1, trainable=False, adapt=False, momentum=0.95)#    (4): ReLU()#    (5): Reshape()#    (6): DaleActivations(n_chan=8, neg_p=0.5, n_neg_chan=4)#    (7): AbsConv2d(#      (conv): Conv2d(8, 8, kernel_size=(11, 11), stride=(1, 1))#    )#    (8): Flatten()#    (9): BatchNorm1d(5408, eps=0.001, momentum=0.01, affine=True, track_running_stats=True)#    (10): GaussianNoise(std=0.1, trainable=False, adapt=False, momentum=0.95)#    (11): ReLU()#    (12): Reshape()#    (13): DaleActivations(n_chan=8, neg_p=0.5, n_neg_chan=4)#    (14): Flatten()#    (15): AbsLinear(#      (linear): Linear(in_features=5408, out_features=5, bias=True)#    )#    (16): BatchNorm1d(5, eps=1e-05, momentum=0.01, affine=True, track_running_stats=True)#    (17): Softplus(beta=1, threshold=20)#  )#)#!0.8417407870292664!512!0.5861713478524251!True!0.3784468335688317!0.01!0.6682343681787499!0.2626193638774891!!!!!!!!!0.4283115742268175!!!!!!!!0.645310418068317!!0.7135135347459546!!!!!!all![8, 8]!15-10-07!dalesbncnnfixedbias!7!0.337309507454964!0.0001!0.001!True!!!0.001!DalesBNCNN!50!!0.1!!dalesbncnnfixedbias/results.txt!dalesbncnnfixedbias/dalesbncnnfixedbias_7_noise0.1!!!6.0!0.09214533120393753!naturalscene
-1.6057454965458018!0.4878658848319972!-1.6204155109140632!0.6886459030151083!0.5373681812233735!0.11700576975085705!0.479624041996898!!0.3894068598747253!!!False!0.5847778401840791!DalesSkipBNCNN(#  (sequential): Sequential(#    (0): DalesSkipConnection(#      (sequential): Sequential(#        (0): AbsConv2d(#          (conv): Conv2d(40, 2, kernel_size=(15, 15), stride=(1, 1), padding=(7, 7))#        )#        (1): Flatten()#        (2): BatchNorm1d(5000, eps=1e-05, momentum=0.1, affine=True, track_running_stats=True)#        (3): GaussianNoise(std=0.05, trainable=False, adapt=False, momentum=0.95)#        (4): ReLU()#        (5): Reshape()#        (6): DaleActivations(n_chan=2, neg_p=1, n_neg_chan=2)#      )#    )#    (1): AbsConv2d(#      (conv): Conv2d(42, 8, kernel_size=(15, 15), stride=(1, 1))#    )#    (2): Flatten()#    (3): BatchNorm1d(10368, eps=0.001, momentum=0.1, affine=True, track_running_stats=True)#    (4): GaussianNoise(std=0.05, trainable=False, adapt=False, momentum=0.95)#    (5): ReLU()#    (6): Reshape()#    (7): DaleActivations(n_chan=8, neg_p=0.5, n_neg_chan=4)#    (8): AbsConv2d(#      (conv): Conv2d(8, 8, kernel_size=(11, 11), stride=(1, 1))#    )#    (9): Flatten()#    (10): BatchNorm1d(5408, eps=0.001, momentum=0.1, affine=True, track_running_stats=True)#    (11): GaussianNoise(std=0.05, trainable=False, adapt=False, momentum=0.95)#    (12): ReLU()#    (13): Reshape()#    (14): DaleActivations(n_chan=8, neg_p=0.5, n_neg_chan=4)#    (15): Flatten()#    (16): AbsLinear(#      (linear): Linear(in_features=5408, out_features=5, bias=True)#    )#    (17): BatchNorm1d(5, eps=1e-05, momentum=0.1, affine=True, track_running_stats=True)#    (18): Softplus(beta=1, threshold=20)#  )#)#!1.0080744028091428!512!0.4878658848319972!True!0.4631295687453968!!0.5406993161392446!0.2741314978139144!!!!!!!!!0.3671498300087925!!!!!!!!0.5801345741972738!!0.6772142060007604!!!!!!all![8, 8]!15-10-07!dalesskip!0!0.452880347379683!1e-05!0.001!!!!0.01!DalesSkipBNCNN!70!!0.05!!dalesskip/results.txt!dalesskip/dalesskip_0_lr0.01!!!0.0!0.08046272397041321!naturalscene
-2.540341563713856!0.4901002612036314!-2.6258775251833866!0.7259198563273648!0.5627837822341828!0.124958641516157!0.6389571305354361!!0.5207783579826355!!!False!0.5951306774142578!DalesSkipBNCNN(#  (sequential): Sequential(#    (0): DalesSkipConnection(#      (sequential): Sequential(#        (0): AbsConv2d(#          (conv): Conv2d(40, 2, kernel_size=(15, 15), stride=(1, 1), padding=(7, 7))#        )#        (1): Flatten()#        (2): BatchNorm1d(5000, eps=1e-05, momentum=0.1, affine=True, track_running_stats=True)#        (3): GaussianNoise(std=0.05, trainable=False, adapt=False, momentum=0.95)#        (4): ReLU()#        (5): Reshape()#        (6): DaleActivations(n_chan=2, neg_p=1, n_neg_chan=2)#      )#    )#    (1): AbsConv2d(#      (conv): Conv2d(42, 8, kernel_size=(15, 15), stride=(1, 1))#    )#    (2): Flatten()#    (3): BatchNorm1d(10368, eps=0.001, momentum=0.1, affine=True, track_running_stats=True)#    (4): GaussianNoise(std=0.05, trainable=False, adapt=False, momentum=0.95)#    (5): ReLU()#    (6): Reshape()#    (7): DaleActivations(n_chan=8, neg_p=0.5, n_neg_chan=4)#    (8): AbsConv2d(#      (conv): Conv2d(8, 8, kernel_size=(11, 11), stride=(1, 1))#    )#    (9): Flatten()#    (10): BatchNorm1d(5408, eps=0.001, momentum=0.1, affine=True, track_running_stats=True)#    (11): GaussianNoise(std=0.05, trainable=False, adapt=False, momentum=0.95)#    (12): ReLU()#    (13): Reshape()#    (14): DaleActivations(n_chan=8, neg_p=0.5, n_neg_chan=4)#    (15): Flatten()#    (16): AbsLinear(#      (linear): Linear(in_features=5408, out_features=5, bias=True)#    )#    (17): BatchNorm1d(5, eps=1e-05, momentum=0.1, affine=True, track_running_stats=True)#    (18): Softplus(beta=1, threshold=20)#  )#)#!0.695806622505188!512!0.6389571305354361!True!0.4904784728584682!!0.6162177506813568!0.40325147162406!!!!!!!!!0.4333911140758784!!!!!!!!0.6845384639118834!!0.31310250572497844!!!!!!all![8, 8]!15-10-07!dalesskip!1!0.5219805595417355!1e-05!0.001!!!!0.001!DalesSkipBNCNN!70!!0.05!!dalesskip/results.txt!dalesskip/dalesskip_1_lr0.001!!!0.0!0.2475402355194092!naturalscene
-2.6461675729866663!0.5521756970473473!-2.822022361188192!0.6119654757970762!0.3653637412556117!0.12507923711029448!0.6552061749638546!!0.5308011174201965!!!False!0.4267545652733494!DalesSkipBNCNN(#  (sequential): Sequential(#    (0): DalesSkipConnection(#      (sequential): Sequential(#        (0): AbsConv2d(#          (conv): Conv2d(40, 2, kernel_size=(15, 15), stride=(1, 1), padding=(7, 7))#        )#        (1): Flatten()#        (2): BatchNorm1d(5000, eps=1e-05, momentum=0.1, affine=True, track_running_stats=True)#        (3): GaussianNoise(std=0.05, trainable=False, adapt=False, momentum=0.95)#        (4): ReLU()#        (5): Reshape()#        (6): DaleActivations(n_chan=2, neg_p=1, n_neg_chan=2)#      )#    )#    (1): AbsConv2d(#      (conv): Conv2d(42, 8, kernel_size=(15, 15), stride=(1, 1))#    )#    (2): Flatten()#    (3): BatchNorm1d(10368, eps=0.001, momentum=0.1, affine=True, track_running_stats=True)#    (4): GaussianNoise(std=0.05, trainable=False, adapt=False, momentum=0.95)#    (5): ReLU()#    (6): Reshape()#    (7): DaleActivations(n_chan=8, neg_p=0.5, n_neg_chan=4)#    (8): AbsConv2d(#      (conv): Conv2d(8, 8, kernel_size=(11, 11), stride=(1, 1))#    )#    (9): Flatten()#    (10): BatchNorm1d(5408, eps=0.001, momentum=0.1, affine=True, track_running_stats=True)#    (11): GaussianNoise(std=0.05, trainable=False, adapt=False, momentum=0.95)#    (12): ReLU()#    (13): Reshape()#    (14): DaleActivations(n_chan=8, neg_p=0.5, n_neg_chan=4)#    (15): Flatten()#    (16): AbsLinear(#      (linear): Linear(in_features=5408, out_features=5, bias=True)#    )#    (17): BatchNorm1d(5, eps=1e-05, momentum=0.1, affine=True, track_running_stats=True)#    (18): Softplus(beta=1, threshold=20)#  )#)#!1.3142551183700562!512!0.6552061749638546!True!0.31870474608793176!!0.637157985136937!0.5141439363137361!!!!!!!!!0.5360897764318472!!!!!!!!0.7612089615004597!!0.3122778258537561!!!!!!all![8, 8]!15-10-07!dalesskip!2!0.21748159877726034!1e-05!0.001!!!!0.0001!DalesSkipBNCNN!70!!0.05!!dalesskip/results.txt!dalesskip/dalesskip_2_lr0.0001!!!0.0!0.3466300666332245!naturalscene
-1.836886234109488!0.5330776020303285!-1.8525092042820688!0.7413022757119558!0.4578879199347461!0.16458227220607852!0.6236791624552234!!0.507881760597229!!!False!0.5299341687660649!DalesSkipBNCNN(#  (sequential): Sequential(#    (0): DalesSkipConnection(#      (sequential): Sequential(#        (0): AbsConv2d(#          (conv): Conv2d(40, 2, kernel_size=(15, 15), stride=(1, 1), padding=(7, 7))#        )#        (1): Flatten()#        (2): BatchNorm1d(5000, eps=1e-05, momentum=0.1, affine=True, track_running_stats=True)#        (3): GaussianNoise(std=0.05, trainable=False, adapt=False, momentum=0.95)#        (4): ReLU()#        (5): Reshape()#        (6): DaleActivations(n_chan=2, neg_p=1, n_neg_chan=2)#      )#    )#    (1): AbsConv2d(#      (conv): Conv2d(42, 8, kernel_size=(15, 15), stride=(1, 1))#    )#    (2): Flatten()#    (3): BatchNorm1d(10368, eps=0.001, momentum=0.1, affine=True, track_running_stats=True)#    (4): GaussianNoise(std=0.05, trainable=False, adapt=False, momentum=0.95)#    (5): ReLU()#    (6): Reshape()#    (7): DaleActivations(n_chan=8, neg_p=0.5, n_neg_chan=4)#    (8): AbsConv2d(#      (conv): Conv2d(8, 8, kernel_size=(11, 11), stride=(1, 1))#    )#    (9): Flatten()#    (10): BatchNorm1d(5408, eps=0.001, momentum=0.1, affine=True, track_running_stats=True)#    (11): GaussianNoise(std=0.05, trainable=False, adapt=False, momentum=0.95)#    (12): ReLU()#    (13): Reshape()#    (14): DaleActivations(n_chan=8, neg_p=0.5, n_neg_chan=4)#    (15): Flatten()#    (16): AbsLinear(#      (linear): Linear(in_features=5408, out_features=5, bias=True)#    )#    (17): BatchNorm1d(5, eps=1e-05, momentum=0.1, affine=True, track_running_stats=True)#    (18): Softplus(beta=1, threshold=20)#  )#)#!1.1006215810775757!512!0.6236791624552234!True!0.41865111548620026!!0.5067961369178228!0.4666152481753227!!!!!!!!!0.4763983257206586!!!!!!!!0.5628675530421371!!0.6527107462957017!!!!!!all![8, 8]!15-10-07!dalesskip!3!0.2722666880118809!1e-05!0.001!!!!1e-05!DalesSkipBNCNN!70!!0.05!!dalesskip/results.txt!dalesskip/dalesskip_3_lr1e-05!!!0.0!0.07931441813707353!naturalscene
-1.2585422244614066!0.4530217151921978!-1.5147592277156945!0.4219893403777433!0.2987369321479381!0.14884719697798868!0.5232639402806025!!0.4360457956790924!!!False!0.3178405897492652!DalesSkipBNCNN(#  (sequential): Sequential(#    (0): DalesSkipConnection(#      (sequential): Sequential(#        (0): AbsConv2d(#          (conv): Conv2d(40, 2, kernel_size=(15, 15), stride=(1, 1), padding=(7, 7))#        )#        (1): Flatten()#        (2): BatchNorm1d(5000, eps=1e-05, momentum=0.1, affine=True, track_running_stats=True)#        (3): GaussianNoise(std=0.05, trainable=False, adapt=False, momentum=0.95)#        (4): ReLU()#        (5): Reshape()#        (6): DaleActivations(n_chan=2, neg_p=1, n_neg_chan=2)#      )#    )#    (1): AbsConv2d(#      (conv): Conv2d(42, 8, kernel_size=(15, 15), stride=(1, 1))#    )#    (2): Flatten()#    (3): BatchNorm1d(10368, eps=0.001, momentum=0.1, affine=True, track_running_stats=True)#    (4): GaussianNoise(std=0.05, trainable=False, adapt=False, momentum=0.95)#    (5): ReLU()#    (6): Reshape()#    (7): DaleActivations(n_chan=8, neg_p=0.5, n_neg_chan=4)#    (8): AbsConv2d(#      (conv): Conv2d(8, 8, kernel_size=(11, 11), stride=(1, 1))#    )#    (9): Flatten()#    (10): BatchNorm1d(5408, eps=0.001, momentum=0.1, affine=True, track_running_stats=True)#    (11): GaussianNoise(std=0.05, trainable=False, adapt=False, momentum=0.95)#    (12): ReLU()#    (13): Reshape()#    (14): DaleActivations(n_chan=8, neg_p=0.5, n_neg_chan=4)#    (15): Flatten()#    (16): AbsLinear(#      (linear): Linear(in_features=5408, out_features=5, bias=True)#    )#    (17): BatchNorm1d(5, eps=1e-05, momentum=0.1, affine=True, track_running_stats=True)#    (18): Softplus(beta=1, threshold=20)#  )#)#!0.9427021741867064!512!0.5232639402806025!True!0.32436077950964176!!0.5285394583079804!0.3614849567948559!!!!!!!!!0.3758911626106082!!!!!!!!0.5299603851961064!!0.4692326130514385!!!!!!all![8, 8]!15-10-07!dalesskip!4!0.22149630028485398!1e-05!0.001!!!!1e-06!DalesSkipBNCNN!70!!0.05!!dalesskip/results.txt!dalesskip/dalesskip_4_lr1e-06!!!0.0!0.02849142998456955!naturalscene
-2.0253658785314763!0.5316830216254735!-1.9767902158109791!0.7483718343364283!0.424747881520086!0.1326817567991954!0.528933961769426!!0.42920440435409546!!!False!0.4892252324697235!DalesSkipBNCNN(#  (sequential): Sequential(#    (0): DalesSkipConnection(#      (sequential): Sequential(#        (0): AbsConv2d(#          (conv): Conv2d(40, 2, kernel_size=(15, 15), stride=(1, 1), padding=(7, 7))#        )#        (1): Flatten()#        (2): BatchNorm1d(5000, eps=1e-05, momentum=0.1, affine=True, track_running_stats=True)#        (3): GaussianNoise(std=0.05, trainable=False, adapt=False, momentum=0.95)#        (4): ReLU()#        (5): Reshape()#        (6): DaleActivations(n_chan=2, neg_p=1, n_neg_chan=2)#      )#    )#    (1): AbsConv2d(#      (conv): Conv2d(42, 14, kernel_size=(15, 15), stride=(1, 1))#    )#    (2): Flatten()#    (3): BatchNorm1d(18144, eps=0.001, momentum=0.1, affine=True, track_running_stats=True)#    (4): GaussianNoise(std=0.05, trainable=False, adapt=False, momentum=0.95)#    (5): ReLU()#    (6): Reshape()#    (7): DaleActivations(n_chan=14, neg_p=0.5, n_neg_chan=7)#    (8): AbsConv2d(#      (conv): Conv2d(14, 8, kernel_size=(11, 11), stride=(1, 1))#    )#    (9): Flatten()#    (10): BatchNorm1d(5408, eps=0.001, momentum=0.1, affine=True, track_running_stats=True)#    (11): GaussianNoise(std=0.05, trainable=False, adapt=False, momentum=0.95)#    (12): ReLU()#    (13): Reshape()#    (14): DaleActivations(n_chan=8, neg_p=0.5, n_neg_chan=4)#    (15): Flatten()#    (16): AbsLinear(#      (linear): Linear(in_features=5408, out_features=5, bias=True)#    )#    (17): BatchNorm1d(5, eps=1e-05, momentum=0.1, affine=True, track_running_stats=True)#    (18): Softplus(beta=1, threshold=20)#  )#)#!0.979024052619934!512!0.5316830216254735!True!0.3501348266003658!!0.6187127218298762!0.2880735462499604!!!!!!!!!0.4299368701578388!!!!!!!!0.6455248802092393!!0.6761670896804529!!!!!!all![14, 8]!15-10-07!dalesskip!5!0.28934820471984496!1e-05!0.001!!!!0.005!DalesSkipBNCNN!70!!0.05!!dalesskip/results.txt!dalesskip/dalesskip_5_chans[14, 8]_lr0.005!!!5.0!0.037209108471870415!naturalscene
-2.4684469004921605!0.6180581547028602!-2.6064079073622453!0.6767578418663361!0.543259019795594!0.20027597727159746!0.6351131039027778!!0.5062054991722107!!!False!0.5698185797977954!DalesSkipBNCNN(#  (sequential): Sequential(#    (0): DalesSkipConnection(#      (sequential): Sequential(#        (0): AbsConv2d(#          (conv): Conv2d(40, 2, kernel_size=(15, 15), stride=(1, 1), padding=(7, 7))#        )#        (1): Flatten()#        (2): BatchNorm1d(5000, eps=1e-05, momentum=0.1, affine=True, track_running_stats=True)#        (3): GaussianNoise(std=0.05, trainable=False, adapt=False, momentum=0.95)#        (4): ReLU()#        (5): Reshape()#        (6): DaleActivations(n_chan=2, neg_p=1, n_neg_chan=2)#      )#    )#    (1): AbsConv2d(#      (conv): Conv2d(42, 14, kernel_size=(15, 15), stride=(1, 1))#    )#    (2): Flatten()#    (3): BatchNorm1d(18144, eps=0.001, momentum=0.1, affine=True, track_running_stats=True)#    (4): GaussianNoise(std=0.05, trainable=False, adapt=False, momentum=0.95)#    (5): ReLU()#    (6): Reshape()#    (7): DaleActivations(n_chan=14, neg_p=0.5, n_neg_chan=7)#    (8): AbsConv2d(#      (conv): Conv2d(14, 8, kernel_size=(11, 11), stride=(1, 1))#    )#    (9): Flatten()#    (10): BatchNorm1d(5408, eps=0.001, momentum=0.1, affine=True, track_running_stats=True)#    (11): GaussianNoise(std=0.05, trainable=False, adapt=False, momentum=0.95)#    (12): ReLU()#    (13): Reshape()#    (14): DaleActivations(n_chan=8, neg_p=0.5, n_neg_chan=4)#    (15): Flatten()#    (16): AbsLinear(#      (linear): Linear(in_features=5408, out_features=5, bias=True)#    )#    (17): BatchNorm1d(5, eps=1e-05, momentum=0.1, affine=True, track_running_stats=True)#    (18): Softplus(beta=1, threshold=20)#  )#)#!0.5882771611213684!512!0.6351131039027778!True!0.4711817290475585!!0.7120491751350916!0.4226947141825285!!!!!!!!!0.5264652441128862!!!!!!!!0.6850547194108827!!0.7440269206729121!!!!!!all![14, 8]!15-10-07!dalesskip!6!0.5196404548152397!1e-05!0.001!!!!0.001!DalesSkipBNCNN!70!!0.05!!dalesskip/results.txt!dalesskip/dalesskip_6_chans[14, 8]_lr0.001!!!5.0!0.2293945401906967!naturalscene
-2.6737977042457097!0.652052920863468!-2.8231839865961774!0.7228384444669491!0.43950431815876395!0.11472177370898935!0.6534757124112662!!0.5263829231262207!!!False!0.5115911387523735!DalesSkipBNCNN(#  (sequential): Sequential(#    (0): DalesSkipConnection(#      (sequential): Sequential(#        (0): AbsConv2d(#          (conv): Conv2d(40, 2, kernel_size=(15, 15), stride=(1, 1), padding=(7, 7))#        )#        (1): Flatten()#        (2): BatchNorm1d(5000, eps=1e-05, momentum=0.1, affine=True, track_running_stats=True)#        (3): GaussianNoise(std=0.05, trainable=False, adapt=False, momentum=0.95)#        (4): ReLU()#        (5): Reshape()#        (6): DaleActivations(n_chan=2, neg_p=1, n_neg_chan=2)#      )#    )#    (1): AbsConv2d(#      (conv): Conv2d(42, 14, kernel_size=(15, 15), stride=(1, 1))#    )#    (2): Flatten()#    (3): BatchNorm1d(18144, eps=0.001, momentum=0.1, affine=True, track_running_stats=True)#    (4): GaussianNoise(std=0.05, trainable=False, adapt=False, momentum=0.95)#    (5): ReLU()#    (6): Reshape()#    (7): DaleActivations(n_chan=14, neg_p=0.5, n_neg_chan=7)#    (8): AbsConv2d(#      (conv): Conv2d(14, 8, kernel_size=(11, 11), stride=(1, 1))#    )#    (9): Flatten()#    (10): BatchNorm1d(5408, eps=0.001, momentum=0.1, affine=True, track_running_stats=True)#    (11): GaussianNoise(std=0.05, trainable=False, adapt=False, momentum=0.95)#    (12): ReLU()#    (13): Reshape()#    (14): DaleActivations(n_chan=8, neg_p=0.5, n_neg_chan=4)#    (15): Flatten()#    (16): AbsLinear(#      (linear): Linear(in_features=5408, out_features=5, bias=True)#    )#    (17): BatchNorm1d(5, eps=1e-05, momentum=0.1, affine=True, track_running_stats=True)#    (18): Softplus(beta=1, threshold=20)#  )#)#!0.8562413454055786!512!0.6534757124112662!True!0.4050150097709522!!0.698135910955355!0.5241990160138648!!!!!!!!!0.5442321348630028!!!!!!!!0.7236332854547297!!0.7700642570303876!!!!!!all![14, 8]!15-10-07!dalesskip!7!0.2500688740128997!1e-05!0.001!!!!0.0001!DalesSkipBNCNN!70!!0.05!!dalesskip/results.txt!dalesskip/dalesskip_7_chans[14, 8]_lr0.0001!!!5.0!0.3116886615753174!naturalscene
-2.1927420934311046!0.545131454693476!-2.274433371936812!0.710754083214196!0.4985979061810417!0.1898273622989895!0.5639567259751674!!0.4571321904659271!!!False!0.5600530074677608!DalesSkipBNCNN(#  (sequential): Sequential(#    (0): DalesSkipConnection(#      (sequential): Sequential(#        (0): AbsConv2d(#          (conv): Conv2d(40, 2, kernel_size=(15, 15), stride=(1, 1), padding=(7, 7))#        )#        (1): Flatten()#        (2): BatchNorm1d(5000, eps=1e-05, momentum=0.1, affine=True, track_running_stats=True)#        (3): GaussianNoise(std=0.05, trainable=False, adapt=False, momentum=0.95)#        (4): ReLU()#        (5): Reshape()#        (6): DaleActivations(n_chan=2, neg_p=1, n_neg_chan=2)#      )#    )#    (1): AbsConv2d(#      (conv): Conv2d(42, 14, kernel_size=(15, 15), stride=(1, 1))#    )#    (2): Flatten()#    (3): BatchNorm1d(18144, eps=0.001, momentum=0.1, affine=True, track_running_stats=True)#    (4): GaussianNoise(std=0.05, trainable=False, adapt=False, momentum=0.95)#    (5): ReLU()#    (6): Reshape()#    (7): DaleActivations(n_chan=14, neg_p=0.5, n_neg_chan=7)#    (8): AbsConv2d(#      (conv): Conv2d(14, 14, kernel_size=(11, 11), stride=(1, 1))#    )#    (9): Flatten()#    (10): BatchNorm1d(9464, eps=0.001, momentum=0.1, affine=True, track_running_stats=True)#    (11): GaussianNoise(std=0.05, trainable=False, adapt=False, momentum=0.95)#    (12): ReLU()#    (13): Reshape()#    (14): DaleActivations(n_chan=14, neg_p=0.5, n_neg_chan=7)#    (15): Flatten()#    (16): AbsLinear(#      (linear): Linear(in_features=9464, out_features=5, bias=True)#    )#    (17): BatchNorm1d(5, eps=1e-05, momentum=0.1, affine=True, track_running_stats=True)#    (18): Softplus(beta=1, threshold=20)#  )#)#!0.8493205308914185!512!0.5639567259751674!True!0.4382672886737668!!0.658492691402647!0.30624658076559674!!!!!!!!!0.3844922260463208!!!!!!!!0.6518706846206281!!0.7245550906321875!!!!!!all![14, 14]!15-10-07!dalesskip!8!0.361156415937654!1e-05!0.001!!!!0.005!DalesSkipBNCNN!70!!0.05!!dalesskip/results.txt!dalesskip/dalesskip_8_chans[14, 14]_lr0.005!!!5.0!0.170985147356987!naturalscene
-2.5080327477030804!0.5613656482699898!-2.9196122403163827!0.6203379088192911!0.4357056842488647!0.201173148986376!0.6251084351759814!!0.5191307067871094!!!False!0.4636819946797353!DalesSkipBNCNN(#  (sequential): Sequential(#    (0): DalesSkipConnection(#      (sequential): Sequential(#        (0): AbsConv2d(#          (conv): Conv2d(40, 2, kernel_size=(15, 15), stride=(1, 1), padding=(7, 7))#        )#        (1): Flatten()#        (2): BatchNorm1d(5000, eps=1e-05, momentum=0.1, affine=True, track_running_stats=True)#        (3): GaussianNoise(std=0.05, trainable=False, adapt=False, momentum=0.95)#        (4): ReLU()#        (5): Reshape()#        (6): DaleActivations(n_chan=2, neg_p=1, n_neg_chan=2)#      )#    )#    (1): AbsConv2d(#      (conv): Conv2d(42, 14, kernel_size=(15, 15), stride=(1, 1))#    )#    (2): Flatten()#    (3): BatchNorm1d(18144, eps=0.001, momentum=0.1, affine=True, track_running_stats=True)#    (4): GaussianNoise(std=0.05, trainable=False, adapt=False, momentum=0.95)#    (5): ReLU()#    (6): Reshape()#    (7): DaleActivations(n_chan=14, neg_p=0.5, n_neg_chan=7)#    (8): AbsConv2d(#      (conv): Conv2d(14, 14, kernel_size=(11, 11), stride=(1, 1))#    )#    (9): Flatten()#    (10): BatchNorm1d(9464, eps=0.001, momentum=0.1, affine=True, track_running_stats=True)#    (11): GaussianNoise(std=0.05, trainable=False, adapt=False, momentum=0.95)#    (12): ReLU()#    (13): Reshape()#    (14): DaleActivations(n_chan=14, neg_p=0.5, n_neg_chan=7)#    (15): Flatten()#    (16): AbsLinear(#      (linear): Linear(in_features=9464, out_features=5, bias=True)#    )#    (17): BatchNorm1d(5, eps=1e-05, momentum=0.1, affine=True, track_running_stats=True)#    (18): Softplus(beta=1, threshold=20)#  )#)#!0.5837461948394775!512!0.6251084351759814!True!0.3571518768160721!!0.7015516067062031!0.3282938557130189!!!!!!!!!0.5006298641576616!!!!!!!!0.6888213250223069!!0.5875315897507587!!!!!!all![14, 14]!15-10-07!dalesskip!9!0.4128741587373145!1e-05!0.001!!!!0.001!DalesSkipBNCNN!70!!0.05!!dalesskip/results.txt!dalesskip/dalesskip_9_chans[14, 14]_lr0.001!!!5.0!0.2262554913759232!naturalscene
-2.7807651411174468!0.6228529096965939!-1.8671887479162248!0.5287699117247914!0.38753939726824427!0.14450314816937254!0.6292693250821206!!0.4983119070529938!!!False!0.4251655138918252!DalesSkipBNCNN(#  (sequential): Sequential(#    (0): DalesSkipConnection(#      (sequential): Sequential(#        (0): AbsConv2d(#          (conv): Conv2d(40, 2, kernel_size=(15, 15), stride=(1, 1), padding=(7, 7))#        )#        (1): Flatten()#        (2): BatchNorm1d(5000, eps=1e-05, momentum=0.1, affine=True, track_running_stats=True)#        (3): GaussianNoise(std=0.05, trainable=False, adapt=False, momentum=0.95)#        (4): ReLU()#        (5): Reshape()#        (6): DaleActivations(n_chan=2, neg_p=1, n_neg_chan=2)#      )#    )#    (1): AbsConv2d(#      (conv): Conv2d(42, 14, kernel_size=(15, 15), stride=(1, 1))#    )#    (2): Flatten()#    (3): BatchNorm1d(18144, eps=0.001, momentum=0.1, affine=True, track_running_stats=True)#    (4): GaussianNoise(std=0.05, trainable=False, adapt=False, momentum=0.95)#    (5): ReLU()#    (6): Reshape()#    (7): DaleActivations(n_chan=14, neg_p=0.5, n_neg_chan=7)#    (8): AbsConv2d(#      (conv): Conv2d(14, 14, kernel_size=(11, 11), stride=(1, 1))#    )#    (9): Flatten()#    (10): BatchNorm1d(9464, eps=0.001, momentum=0.1, affine=True, track_running_stats=True)#    (11): GaussianNoise(std=0.05, trainable=False, adapt=False, momentum=0.95)#    (12): ReLU()#    (13): Reshape()#    (14): DaleActivations(n_chan=14, neg_p=0.5, n_neg_chan=7)#    (15): Flatten()#    (16): AbsLinear(#      (linear): Linear(in_features=9464, out_features=5, bias=True)#    )#    (17): BatchNorm1d(5, eps=1e-05, momentum=0.1, affine=True, track_running_stats=True)#    (18): Softplus(beta=1, threshold=20)#  )#)#!0.7351564168930054!512!0.6292693250821206!True!0.35450803630684485!!0.6357586752252878!0.5130472875386037!!!!!!!!!0.508476756937229!!!!!!!!0.7228937537602431!!0.7340880750216056!!!!!!all![14, 14]!15-10-07!dalesskip!10!0.30035210592303385!1e-05!0.001!!!!0.0001!DalesSkipBNCNN!70!!0.05!!dalesskip/results.txt!dalesskip/dalesskip_10_chans[14, 14]_lr0.0001!!!5.0!0.1829153299331665!naturalscene
-2.278012682230045!0.5811929232117049!-2.3069866550800726!0.7365851088373253!0.4892655758323132!0.16621239832431214!0.5832358648698716!!0.4620953500270844!!!False!0.5519078838121582!DalesSkipBNCNN(#  (sequential): Sequential(#    (0): DalesSkipConnection(#      (sequential): Sequential(#        (0): AbsConv2d(#          (conv): Conv2d(40, 2, kernel_size=(15, 15), stride=(1, 1), padding=(7, 7))#        )#        (1): Flatten()#        (2): BatchNorm1d(5000, eps=1e-05, momentum=0.1, affine=True, track_running_stats=True)#        (3): GaussianNoise(std=0.05, trainable=False, adapt=False, momentum=0.95)#        (4): ReLU()#        (5): Reshape()#        (6): DaleActivations(n_chan=2, neg_p=1, n_neg_chan=2)#      )#    )#    (1): AbsConv2d(#      (conv): Conv2d(42, 8, kernel_size=(15, 15), stride=(1, 1))#    )#    (2): Flatten()#    (3): BatchNorm1d(10368, eps=0.001, momentum=0.1, affine=True, track_running_stats=True)#    (4): GaussianNoise(std=0.05, trainable=False, adapt=False, momentum=0.95)#    (5): ReLU()#    (6): Reshape()#    (7): DaleActivations(n_chan=8, neg_p=0.5, n_neg_chan=4)#    (8): AbsConv2d(#      (conv): Conv2d(8, 14, kernel_size=(11, 11), stride=(1, 1))#    )#    (9): Flatten()#    (10): BatchNorm1d(9464, eps=0.001, momentum=0.1, affine=True, track_running_stats=True)#    (11): GaussianNoise(std=0.05, trainable=False, adapt=False, momentum=0.95)#    (12): ReLU()#    (13): Reshape()#    (14): DaleActivations(n_chan=14, neg_p=0.5, n_neg_chan=7)#    (15): Flatten()#    (16): AbsLinear(#      (linear): Linear(in_features=9464, out_features=5, bias=True)#    )#    (17): BatchNorm1d(5, eps=1e-05, momentum=0.1, affine=True, track_running_stats=True)#    (18): Softplus(beta=1, threshold=20)#  )#)#!0.8539708852767944!512!0.5832358648698716!True!0.3874284457984037!!0.6704733258376551!0.3176063346516647!!!!!!!!!0.4567584705671509!!!!!!!!0.680743835046826!!0.7803826499552287!!!!!!all![8, 14]!15-10-07!dalesskip!11!0.3805453085858192!1e-05!0.001!!!!0.005!DalesSkipBNCNN!70!!0.05!!dalesskip/results.txt!dalesskip/dalesskip_11_chans[8, 14]_lr0.005!!!5.0!0.1148419827222824!naturalscene
-2.6909983522212344!0.6111031312626977!-2.7897924440751916!0.649095697099195!0.4983680071659025!0.16896044537795452!0.6787714491830112!!0.5370152592658997!!!False!0.5149272465901196!DalesSkipBNCNN(#  (sequential): Sequential(#    (0): DalesSkipConnection(#      (sequential): Sequential(#        (0): AbsConv2d(#          (conv): Conv2d(40, 2, kernel_size=(15, 15), stride=(1, 1), padding=(7, 7))#        )#        (1): Flatten()#        (2): BatchNorm1d(5000, eps=1e-05, momentum=0.1, affine=True, track_running_stats=True)#        (3): GaussianNoise(std=0.05, trainable=False, adapt=False, momentum=0.95)#        (4): ReLU()#        (5): Reshape()#        (6): DaleActivations(n_chan=2, neg_p=1, n_neg_chan=2)#      )#    )#    (1): AbsConv2d(#      (conv): Conv2d(42, 8, kernel_size=(15, 15), stride=(1, 1))#    )#    (2): Flatten()#    (3): BatchNorm1d(10368, eps=0.001, momentum=0.1, affine=True, track_running_stats=True)#    (4): GaussianNoise(std=0.05, trainable=False, adapt=False, momentum=0.95)#    (5): ReLU()#    (6): Reshape()#    (7): DaleActivations(n_chan=8, neg_p=0.5, n_neg_chan=4)#    (8): AbsConv2d(#      (conv): Conv2d(8, 14, kernel_size=(11, 11), stride=(1, 1))#    )#    (9): Flatten()#    (10): BatchNorm1d(9464, eps=0.001, momentum=0.1, affine=True, track_running_stats=True)#    (11): GaussianNoise(std=0.05, trainable=False, adapt=False, momentum=0.95)#    (12): ReLU()#    (13): Reshape()#    (14): DaleActivations(n_chan=14, neg_p=0.5, n_neg_chan=7)#    (15): Flatten()#    (16): AbsLinear(#      (linear): Linear(in_features=9464, out_features=5, bias=True)#    )#    (17): BatchNorm1d(5, eps=1e-05, momentum=0.1, affine=True, track_running_stats=True)#    (18): Softplus(beta=1, threshold=20)#  )#)#!0.5660740733146667!512!0.6787714491830112!True!0.4091237913315825!!0.6955692351600374!0.5045892353412759!!!!!!!!!0.5706308614189342!!!!!!!!0.6964936244134294!!0.5882326999798111!!!!!!all![8, 14]!15-10-07!dalesskip!12!0.5181024567643893!1e-05!0.001!!!!0.001!DalesSkipBNCNN!70!!0.05!!dalesskip/results.txt!dalesskip/dalesskip_12_chans[8, 14]_lr0.001!!!5.0!0.2642264664173126!naturalscene
-2.553043195474921!0.5801576102011375!-2.4601001382965486!0.6442171623047824!0.4964919149968608!0.2397922693752431!0.6485968106003058!!0.5278326272964478!!!False!0.5326587940322879!DalesSkipBNCNN(#  (sequential): Sequential(#    (0): DalesSkipConnection(#      (sequential): Sequential(#        (0): AbsConv2d(#          (conv): Conv2d(40, 2, kernel_size=(15, 15), stride=(1, 1), padding=(7, 7))#        )#        (1): Flatten()#        (2): BatchNorm1d(5000, eps=1e-05, momentum=0.1, affine=True, track_running_stats=True)#        (3): GaussianNoise(std=0.05, trainable=False, adapt=False, momentum=0.95)#        (4): ReLU()#        (5): Reshape()#        (6): DaleActivations(n_chan=2, neg_p=1, n_neg_chan=2)#      )#    )#    (1): AbsConv2d(#      (conv): Conv2d(42, 8, kernel_size=(15, 15), stride=(1, 1))#    )#    (2): Flatten()#    (3): BatchNorm1d(10368, eps=0.001, momentum=0.1, affine=True, track_running_stats=True)#    (4): GaussianNoise(std=0.05, trainable=False, adapt=False, momentum=0.95)#    (5): ReLU()#    (6): Reshape()#    (7): DaleActivations(n_chan=8, neg_p=0.5, n_neg_chan=4)#    (8): AbsConv2d(#      (conv): Conv2d(8, 14, kernel_size=(11, 11), stride=(1, 1))#    )#    (9): Flatten()#    (10): BatchNorm1d(9464, eps=0.001, momentum=0.1, affine=True, track_running_stats=True)#    (11): GaussianNoise(std=0.05, trainable=False, adapt=False, momentum=0.95)#    (12): ReLU()#    (13): Reshape()#    (14): DaleActivations(n_chan=14, neg_p=0.5, n_neg_chan=7)#    (15): Flatten()#    (16): AbsLinear(#      (linear): Linear(in_features=9464, out_features=5, bias=True)#    )#    (17): BatchNorm1d(5, eps=1e-05, momentum=0.1, affine=True, track_running_stats=True)#    (18): Softplus(beta=1, threshold=20)#  )#)#!0.8720201253890991!512!0.6485968106003058!True!0.4786166986321045!!0.6325309754874429!0.4600446856797288!!!!!!!!!0.4203324546037843!!!!!!!!0.6489586635168684!!0.7389212717178631!!!!!!all![8, 14]!15-10-07!dalesskip!13!0.4018942239520564!1e-05!0.001!!!!0.0001!DalesSkipBNCNN!70!!0.05!!dalesskip/results.txt!dalesskip/dalesskip_13_chans[8, 14]_lr0.0001!!!5.0!0.08417478948831557!naturalscene
-2.6236726914056288!0.6482695547511294!-2.6087128218641737!0.6471805943124415!0.4289001136453876!0.16688554543519146!0.6392262877221698!!0.5136132836341858!!!False!0.4952063117822548!DalesSkipBNCNN(#  (sequential): Sequential(#    (0): DalesSkipConnection(#      (sequential): Sequential(#        (0): AbsConv2d(#          (conv): Conv2d(40, 2, kernel_size=(15, 15), stride=(1, 1), padding=(7, 7))#        )#        (1): Flatten()#        (2): BatchNorm1d(5000, eps=1e-05, momentum=0.1, affine=True, track_running_stats=True)#        (3): GaussianNoise(std=0.05, trainable=False, adapt=False, momentum=0.95)#        (4): ReLU()#        (5): Reshape()#        (6): DaleActivations(n_chan=2, neg_p=1, n_neg_chan=2)#      )#    )#    (1): AbsConv2d(#      (conv): Conv2d(42, 8, kernel_size=(15, 15), stride=(1, 1))#    )#    (2): Flatten()#    (3): BatchNorm1d(10368, eps=0.001, momentum=0.01, affine=True, track_running_stats=True)#    (4): GaussianNoise(std=0.05, trainable=False, adapt=False, momentum=0.95)#    (5): ReLU()#    (6): Reshape()#    (7): DaleActivations(n_chan=8, neg_p=0.5, n_neg_chan=4)#    (8): AbsConv2d(#      (conv): Conv2d(8, 8, kernel_size=(11, 11), stride=(1, 1))#    )#    (9): Flatten()#    (10): BatchNorm1d(5408, eps=0.001, momentum=0.01, affine=True, track_running_stats=True)#    (11): GaussianNoise(std=0.05, trainable=False, adapt=False, momentum=0.95)#    (12): ReLU()#    (13): Reshape()#    (14): DaleActivations(n_chan=8, neg_p=0.5, n_neg_chan=4)#    (15): Flatten()#    (16): AbsLinear(#      (linear): Linear(in_features=5408, out_features=5, bias=True)#    )#    (17): BatchNorm1d(5, eps=1e-05, momentum=0.01, affine=True, track_running_stats=True)#    (18): Softplus(beta=1, threshold=20)#  )#)#!1.127766728401184!512!0.6482695547511294!True!0.36236696874071!0.01!0.7005751784695182!0.5463770041351199!!!!!!!!!0.5445583125984937!!!!!!!!0.7140498466915283!!0.7357874318609866!!!!!!all![8, 8]!15-10-07!dalesskip!14!0.2817295208273137!0.0001!0.001!True!!!0.001!DalesSkipBNCNN!50!!0.05!!dalesskip/results.txt!dalesskip/dalesskip_14_noise0.05!!!14.0!0.3236274719238281!naturalscene
-2.3695270269884423!0.5521175446583007!-2.134389855379049!0.6376451596361544!0.33872147939891845!0.11052688626481257!0.5590225937887876!!0.4492165446281433!!!False!0.3933580627962277!DalesSkipBNCNN(#  (sequential): Sequential(#    (0): DalesSkipConnection(#      (sequential): Sequential(#        (0): AbsConv2d(#          (conv): Conv2d(40, 2, kernel_size=(15, 15), stride=(1, 1), padding=(7, 7))#        )#        (1): Flatten()#        (2): BatchNorm1d(5000, eps=1e-05, momentum=0.1, affine=True, track_running_stats=True)#        (3): GaussianNoise(std=0.1, trainable=False, adapt=False, momentum=0.95)#        (4): ReLU()#        (5): Reshape()#        (6): DaleActivations(n_chan=2, neg_p=1, n_neg_chan=2)#      )#    )#    (1): AbsConv2d(#      (conv): Conv2d(42, 8, kernel_size=(15, 15), stride=(1, 1))#    )#    (2): Flatten()#    (3): BatchNorm1d(10368, eps=0.001, momentum=0.01, affine=True, track_running_stats=True)#    (4): GaussianNoise(std=0.1, trainable=False, adapt=False, momentum=0.95)#    (5): ReLU()#    (6): Reshape()#    (7): DaleActivations(n_chan=8, neg_p=0.5, n_neg_chan=4)#    (8): AbsConv2d(#      (conv): Conv2d(8, 8, kernel_size=(11, 11), stride=(1, 1))#    )#    (9): Flatten()#    (10): BatchNorm1d(5408, eps=0.001, momentum=0.01, affine=True, track_running_stats=True)#    (11): GaussianNoise(std=0.1, trainable=False, adapt=False, momentum=0.95)#    (12): ReLU()#    (13): Reshape()#    (14): DaleActivations(n_chan=8, neg_p=0.5, n_neg_chan=4)#    (15): Flatten()#    (16): AbsLinear(#      (linear): Linear(in_features=5408, out_features=5, bias=True)#    )#    (17): BatchNorm1d(5, eps=1e-05, momentum=0.01, affine=True, track_running_stats=True)#    (18): Softplus(beta=1, threshold=20)#  )#)#!0.5028101205825806!512!0.5590225937887876!True!0.3123565197170031!0.01!0.6354066569217866!0.3389374824505791!!!!!!!!!0.4803016742145517!!!!!!!!0.595852909637525!!0.7100890000670609!!!!!!all![8, 8]!15-10-07!dalesskip!15!0.1953178089595917!0.0001!0.001!True!!!0.001!DalesSkipBNCNN!50!!0.1!!dalesskip/results.txt!dalesskip/dalesskip_15_noise0.1!!!14.0!0.20077989995479584!naturalscene
-2.570293073201072!0.6108202968668999!-2.538542398444406!0.7110817169266024!0.5076070006540754!0.15985404080937568!0.6261888574867281!!0.2497144639492035!!!True!0.5652345710506502!AbsBNBNCNN(#  (sequential): Sequential(#    (0): Conv2d(40, 8, kernel_size=(15, 15), stride=(1, 1))#    (1): Flatten()#    (2): AbsBatchNorm1d(bias=True, abs_bias=False, momentum=0.99, eps=0.001)#    (3): GaussianNoise(std=0.1, trainable=False, adapt=True, momentum=0.95)#    (4): ReLU()#    (5): Reshape()#    (6): Conv2d(8, 8, kernel_size=(11, 11), stride=(1, 1))#    (7): Flatten()#    (8): AbsBatchNorm1d(bias=True, abs_bias=False, momentum=0.99, eps=0.001)#    (9): GaussianNoise(std=0.1, trainable=False, adapt=True, momentum=0.95)#    (10): ReLU()#    (11): Linear(in_features=5408, out_features=5, bias=True)#    (12): AbsBatchNorm1d(bias=True, abs_bias=False, momentum=0.1, eps=1e-05)#    (13): Softplus(beta=1, threshold=20)#  )#)#!0.6083716154098511!512!0.6261888574867281!True!0.4785603172987845!!0.6995606734269351!0.472797356676962!!!!!!!!!0.4974309827010808!!!!!!!!0.7308374347904492!!0.6534750367390726!!!!!!all!!15-10-07!absbnbncnn!0!0.3573161542962439!0.0001!0.01!!!!0.006999999999999999!AbsBNBNCNN!70!!0.1!!absbnbncnn/results.txt!absbnbncnn/absbnbncnn_0_lr0.007_l20.01!!!0.0!0.1520138382911682!naturalscene
-2.806527075184956!0.6872478034367565!-2.741464607507805!0.6334850612268782!0.38537888540086135!0.15664766437714822!0.6745291405702502!!0.5389859676361084!!!False!0.4463393412834261!AbsBNBNCNN(#  (sequential): Sequential(#    (0): Conv2d(40, 8, kernel_size=(15, 15), stride=(1, 1))#    (1): Flatten()#    (2): AbsBatchNorm1d(bias=True, abs_bias=False, momentum=0.01, eps=0.001)#    (3): GaussianNoise(std=0.1, trainable=False, adapt=False, momentum=0.95)#    (4): ReLU()#    (5): Reshape()#    (6): Conv2d(8, 8, kernel_size=(11, 11), stride=(1, 1))#    (7): Flatten()#    (8): AbsBatchNorm1d(bias=True, abs_bias=False, momentum=0.01, eps=0.001)#    (9): GaussianNoise(std=0.1, trainable=False, adapt=False, momentum=0.95)#    (10): ReLU()#    (11): Linear(in_features=5408, out_features=5, bias=True)#    (12): AbsBatchNorm1d(bias=True, abs_bias=False, momentum=0.01, eps=1e-05)#    (13): Softplus(beta=1, threshold=20)#  )#)#!0.7319709062576294!512!0.6872478034367565!True!0.3256705305588213!0.01!0.7419016370586504!0.5923758560590415!!!!!!!!!0.5914913458371892!!!!!!!!0.7718243154718225!!0.7386458627570788!!!!!!all![8, 8]!15-10-07!absbnbncnn!0!0.24893734929697656!0.0001!0.01!None!!!0.0007!AbsBNBNCNN!50!!0.1!!absbnbncnn/results.txt!absbnbncnn/absbnbncnn_0_lr0.0007_l20.01!!!0.0!0.17009973526000974!naturalscene
-3.3102935802523006!0.6813667704483095!-3.3210669669948403!0.6304736591830409!0.3535259352804894!0.10951248768044412!0.7226851612123188!!0.6053382754325867!!!False!0.4200614159860696!AbsBNBNCNN(#  (sequential): Sequential(#    (0): Conv2d(40, 8, kernel_size=(15, 15), stride=(1, 1))#    (1): Flatten()#    (2): AbsBatchNorm1d(bias=True, abs_bias=False, momentum=0.01, eps=0.001)#    (3): GaussianNoise(std=0.1, trainable=False, adapt=False, momentum=0.95)#    (4): ReLU()#    (5): Reshape()#    (6): Conv2d(8, 8, kernel_size=(11, 11), stride=(1, 1))#    (7): Flatten()#    (8): AbsBatchNorm1d(bias=True, abs_bias=False, momentum=0.01, eps=0.001)#    (9): GaussianNoise(std=0.1, trainable=False, adapt=False, momentum=0.95)#    (10): ReLU()#    (11): Linear(in_features=5408, out_features=5, bias=True)#    (12): AbsBatchNorm1d(bias=True, abs_bias=False, momentum=0.01, eps=1e-05)#    (13): Softplus(beta=1, threshold=20)#  )#)#!1.0158915519714355!512!0.7226851612123188!True!0.29998614056126244!0.01!0.7519724870187808!0.5773669644265339!!!!!!!!!0.60465196748489!!!!!!!!0.7407788203193997!!0.7320636129919432!!!!!!all![8, 8]!15-10-07!absbnbncnn!1!0.1955615557231475!0.0001!0.001!None!!!0.0007!AbsBNBNCNN!50!!0.1!!absbnbncnn/results.txt!absbnbncnn/absbnbncnn_1_lr0.0007_l20.001!!!0.0!0.1535753458738327!naturalscene
-3.0275785338644887!0.6906009734053133!-3.0088018123478832!0.6781500589026531!0.44278308472579975!0.12920503597599126!0.6655011314077398!!0.26688985526561737!!!False!0.5031575340554421!AbsBNBNCNN(#  (sequential): Sequential(#    (0): Conv2d(40, 8, kernel_size=(15, 15), stride=(1, 1))#    (1): Flatten()#    (2): AbsBatchNorm1d(bias=True, abs_bias=False, momentum=0.99, eps=0.001)#    (3): GaussianNoise(std=0.05, trainable=False, adapt=False)#    (4): ReLU()#    (5): Reshape()#    (6): Conv2d(8, 8, kernel_size=(11, 11), stride=(1, 1))#    (7): Flatten()#    (8): AbsBatchNorm1d(bias=True, abs_bias=False, momentum=0.99, eps=0.001)#    (9): GaussianNoise(std=0.05, trainable=False, adapt=False)#    (10): ReLU()#    (11): Linear(in_features=5408, out_features=5, bias=True)#    (12): AbsBatchNorm1d(bias=True, abs_bias=False, momentum=0.1, eps=1e-05)#    (13): Softplus(beta=1, threshold=20)#  )#)#!1.1453197002410889!512!0.6906009734053133!True!0.3873297943016216!!0.7470945662306842!0.6024413351359994!!!!!!!!!0.5714708913949891!!!!!!!!0.7565807120383451!!0.7754173622265491!!!!!!all!!15-10-07!absbnbncnn!1!0.3047900737334557!0.0001!0.001!!!!0.006999999999999999!AbsBNBNCNN!70!!0.05!!absbnbncnn/results.txt!absbnbncnn/absbnbncnn_1_lr0.007_l20.001!!!0.0!0.2201468050479889!naturalscene
-2.9226238114441863!0.711454611250033!-3.097749115796978!0.6014698547966189!0.3804359817532464!0.13797246423470322!0.7159882084205916!!0.5716907978057861!!!False!0.4315877489015423!AbsBNBNCNN(#  (sequential): Sequential(#    (0): Conv2d(40, 8, kernel_size=(15, 15), stride=(1, 1))#    (1): Flatten()#    (2): AbsBatchNorm1d(bias=True, abs_bias=False, momentum=0.01, eps=0.001)#    (3): GaussianNoise(std=0.1, trainable=False, adapt=False, momentum=0.95)#    (4): ReLU()#    (5): Reshape()#    (6): Conv2d(8, 8, kernel_size=(11, 11), stride=(1, 1))#    (7): Flatten()#    (8): AbsBatchNorm1d(bias=True, abs_bias=False, momentum=0.01, eps=0.001)#    (9): GaussianNoise(std=0.1, trainable=False, adapt=False, momentum=0.95)#    (10): ReLU()#    (11): Linear(in_features=5408, out_features=5, bias=True)#    (12): AbsBatchNorm1d(bias=True, abs_bias=False, momentum=0.01, eps=1e-05)#    (13): Softplus(beta=1, threshold=20)#  )#)#!0.7925561666488647!512!0.7159882084205916!True!0.3378933596159958!0.01!0.7588051972329434!0.6326944702265638!!!!!!!!!0.6080569474435961!!!!!!!!0.7649600299095257!!0.7927564114375361!!!!!!all![8, 8]!15-10-07!absbnbncnn!2!0.2600693864151096!0.0001!0.01!None!!!0.0002!AbsBNBNCNN!50!!0.1!!absbnbncnn/results.txt!absbnbncnn/absbnbncnn_2_lr0.0002_l20.01!!!0.0!0.15268272161483765!naturalscene
-2.7504171603225838!0.6557606608041789!-2.8924550880765314!0.7173521194115184!0.4667796208381778!0.17888797140759222!0.6730867759339187!!0.26781385242938993!!!False!0.5340846558423726!AbsBNBNCNN(#  (sequential): Sequential(#    (0): Conv2d(40, 8, kernel_size=(15, 15), stride=(1, 1))#    (1): Flatten()#    (2): AbsBatchNorm1d(bias=True, abs_bias=False, momentum=0.99, eps=0.001)#    (3): GaussianNoise(std=0.05, trainable=False, adapt=False)#    (4): ReLU()#    (5): Reshape()#    (6): Conv2d(8, 8, kernel_size=(11, 11), stride=(1, 1))#    (7): Flatten()#    (8): AbsBatchNorm1d(bias=True, abs_bias=False, momentum=0.99, eps=0.001)#    (9): GaussianNoise(std=0.05, trainable=False, adapt=False)#    (10): ReLU()#    (11): Linear(in_features=5408, out_features=5, bias=True)#    (12): AbsBatchNorm1d(bias=True, abs_bias=False, momentum=0.1, eps=1e-05)#    (13): Softplus(beta=1, threshold=20)#  )#)#!0.7861520648002625!512!0.6730867759339187!True!0.4154712522738364!!0.7508089017828405!0.5367449617729064!!!!!!!!!0.5517810602621329!!!!!!!!0.7293107319638537!!0.7101576482391617!!!!!!all!!15-10-07!absbnbncnn!2!0.3047710247089709!0.0001!0.01!!!!0.005!AbsBNBNCNN!70!!0.05!!absbnbncnn/results.txt!absbnbncnn/absbnbncnn_2_lr0.005_l20.01!!!0.0!0.2975627183914185!naturalscene
-3.3097425398963254!0.6699244031568068!-3.2947551999783173!0.6337165918381485!0.3498964872984203!0.10697946780478496!0.7150226500765238!!0.6122494339942932!!!False!0.4102656607969441!AbsBNBNCNN(#  (sequential): Sequential(#    (0): Conv2d(40, 8, kernel_size=(15, 15), stride=(1, 1))#    (1): Flatten()#    (2): AbsBatchNorm1d(bias=True, abs_bias=False, momentum=0.01, eps=0.001)#    (3): GaussianNoise(std=0.1, trainable=False, adapt=False, momentum=0.95)#    (4): ReLU()#    (5): Reshape()#    (6): Conv2d(8, 8, kernel_size=(11, 11), stride=(1, 1))#    (7): Flatten()#    (8): AbsBatchNorm1d(bias=True, abs_bias=False, momentum=0.01, eps=0.001)#    (9): GaussianNoise(std=0.1, trainable=False, adapt=False, momentum=0.95)#    (10): ReLU()#    (11): Linear(in_features=5408, out_features=5, bias=True)#    (12): AbsBatchNorm1d(bias=True, abs_bias=False, momentum=0.01, eps=1e-05)#    (13): Softplus(beta=1, threshold=20)#  )#)#!0.7637835741043091!512!0.7150226500765238!True!0.29569469349318594!0.01!0.7018298099885842!0.6446022026095717!!!!!!!!!0.4848058485195944!!!!!!!!0.7431268533203501!!0.7752573013459335!!!!!!all![8, 8]!15-10-07!absbnbncnn!3!0.21094591754025346!0.0001!0.001!None!!!0.0002!AbsBNBNCNN!50!!0.1!!absbnbncnn/results.txt!absbnbncnn/absbnbncnn_3_lr0.0002_l20.001!!!0.0!0.18429383635520927!naturalscene
-3.124445406020497!0.6889004623288062!-3.0448129230080667!0.6716218511989436!0.4137214439871403!0.13102536424978076!0.6947497736874262!!0.27961982786655426!!!False!0.4741989946632543!AbsBNBNCNN(#  (sequential): Sequential(#    (0): Conv2d(40, 8, kernel_size=(15, 15), stride=(1, 1))#    (1): Flatten()#    (2): AbsBatchNorm1d(bias=True, abs_bias=False, momentum=0.99, eps=0.001)#    (3): GaussianNoise(std=0.05, trainable=False, adapt=False)#    (4): ReLU()#    (5): Reshape()#    (6): Conv2d(8, 8, kernel_size=(11, 11), stride=(1, 1))#    (7): Flatten()#    (8): AbsBatchNorm1d(bias=True, abs_bias=False, momentum=0.99, eps=0.001)#    (9): GaussianNoise(std=0.05, trainable=False, adapt=False)#    (10): ReLU()#    (11): Linear(in_features=5408, out_features=5, bias=True)#    (12): AbsBatchNorm1d(bias=True, abs_bias=False, momentum=0.1, eps=1e-05)#    (13): Softplus(beta=1, threshold=20)#  )#)#!0.6344853639602661!512!0.6947497736874262!True!0.3713470268763682!!0.7474574081453752!0.5508233646936588!!!!!!!!!0.6478222000860798!!!!!!!!0.7513790202358531!!0.747020318483064!!!!!!all!!15-10-07!absbnbncnn!3!0.2652466719338432!0.0001!0.001!!!!0.005!AbsBNBNCNN!70!!0.05!!absbnbncnn/results.txt!absbnbncnn/absbnbncnn_3_lr0.005_l20.001!!!0.0!0.16416563093662262!naturalscene
-2.815440400693212!0.6917353220152579!-3.1304551877146882!0.6214967816716869!0.3576581685221429!0.10182891463519664!0.7157354811063128!!0.5660518407821655!!!False!0.4254190965971517!AbsBNBNCNN(#  (sequential): Sequential(#    (0): Conv2d(40, 8, kernel_size=(15, 15), stride=(1, 1))#    (1): Flatten()#    (2): AbsBatchNorm1d(bias=True, abs_bias=False, momentum=0.01, eps=0.001)#    (3): GaussianNoise(std=0.1, trainable=False, adapt=False, momentum=0.95)#    (4): ReLU()#    (5): Reshape()#    (6): Conv2d(8, 8, kernel_size=(11, 11), stride=(1, 1))#    (7): Flatten()#    (8): AbsBatchNorm1d(bias=True, abs_bias=False, momentum=0.01, eps=0.001)#    (9): GaussianNoise(std=0.1, trainable=False, adapt=False, momentum=0.95)#    (10): ReLU()#    (11): Linear(in_features=5408, out_features=5, bias=True)#    (12): AbsBatchNorm1d(bias=True, abs_bias=False, momentum=0.01, eps=1e-05)#    (13): Softplus(beta=1, threshold=20)#  )#)#!0.6463655233383179!512!0.7157354811063128!True!0.292727958877152!0.01!0.7647905482644222!0.6290664343383712!!!!!!!!!0.5971248174689101!!!!!!!!0.774218231106351!!0.6934765788982358!!!!!!all![8, 8]!15-10-07!absbnbncnn!4!0.20487665846544406!0.0001!0.01!None!!!8e-05!AbsBNBNCNN!50!!0.1!!absbnbncnn/results.txt!absbnbncnn/absbnbncnn_4_lr8e-05_l20.01!!!0.0!0.2101220041513443!naturalscene
-2.9527304428734933!0.6880066821509868!-3.2771034858687926!0.6134756313922203!0.3882256948186323!0.11677596048139292!0.6919474519410833!!0.28224252462387084!!!False!0.4505454914808706!AbsBNBNCNN(#  (sequential): Sequential(#    (0): Conv2d(40, 8, kernel_size=(15, 15), stride=(1, 1))#    (1): Flatten()#    (2): AbsBatchNorm1d(bias=True, abs_bias=False, momentum=0.99, eps=0.001)#    (3): GaussianNoise(std=0.05, trainable=False, adapt=False)#    (4): ReLU()#    (5): Reshape()#    (6): Conv2d(8, 8, kernel_size=(11, 11), stride=(1, 1))#    (7): Flatten()#    (8): AbsBatchNorm1d(bias=True, abs_bias=False, momentum=0.99, eps=0.001)#    (9): GaussianNoise(std=0.05, trainable=False, adapt=False)#    (10): ReLU()#    (11): Linear(in_features=5408, out_features=5, bias=True)#    (12): AbsBatchNorm1d(bias=True, abs_bias=False, momentum=0.1, eps=1e-05)#    (13): Softplus(beta=1, threshold=20)#  )#)#!0.9175243377685548!512!0.6919474519410833!True!0.3246446761977936!!0.7831088430934569!0.6108467475310619!!!!!!!!!0.6019407280071739!!!!!!!!0.7115116316025266!!0.732625460520715!!!!!!all!!15-10-07!absbnbncnn!4!0.25071820820368024!0.0001!0.01!!!!0.001!AbsBNBNCNN!70!!0.05!!absbnbncnn/results.txt!absbnbncnn/absbnbncnn_4_lr0.001_l20.01!!!0.0!0.14154747128486633!naturalscene
-3.5684824263168498!0.6389473554618406!-3.3815151115250046!0.6385185196442472!0.3640317668085644!0.13737832899718766!0.6963413605030192!!0.31600584387779235!!!False!0.4184051852077583!AbsBNBNCNN(#  (sequential): Sequential(#    (0): Conv2d(40, 8, kernel_size=(15, 15), stride=(1, 1))#    (1): Flatten()#    (2): AbsBatchNorm1d(bias=True, abs_bias=False, momentum=0.99, eps=0.001)#    (3): GaussianNoise(std=0.05, trainable=False, adapt=False)#    (4): ReLU()#    (5): Reshape()#    (6): Conv2d(8, 8, kernel_size=(11, 11), stride=(1, 1))#    (7): Flatten()#    (8): AbsBatchNorm1d(bias=True, abs_bias=False, momentum=0.99, eps=0.001)#    (9): GaussianNoise(std=0.05, trainable=False, adapt=False)#    (10): ReLU()#    (11): Linear(in_features=5408, out_features=5, bias=True)#    (12): AbsBatchNorm1d(bias=True, abs_bias=False, momentum=0.1, eps=1e-05)#    (13): Softplus(beta=1, threshold=20)#  )#)#!1.0192301273345947!512!0.6963413605030192!True!0.3173489243109425!!0.7238500008220248!0.4758083666501114!!!!!!!!!0.511752802629961!!!!!!!!0.7139510303920263!!0.7693745768150793!!!!!!all!!15-10-07!absbnbncnn!5!0.2372203891091331!0.0001!0.001!!!!0.001!AbsBNBNCNN!70!!0.05!!absbnbncnn/results.txt!absbnbncnn/absbnbncnn_5_lr0.001_l20.001!!!0.0!0.3099109828472137!naturalscene
-3.177955462741996!0.4573345790686034!-3.0816123937598605!0.5556284016134879!0.326521895019646!0.08892269382635361!0.6294623249112042!!0.6009839773178101!!!False!0.3866389707132904!AbsBNBNCNN(#  (sequential): Sequential(#    (0): Conv2d(40, 8, kernel_size=(15, 15), stride=(1, 1))#    (1): Flatten()#    (2): AbsBatchNorm1d(bias=True, abs_bias=False, momentum=0.01, eps=0.001)#    (3): GaussianNoise(std=0.1, trainable=False, adapt=False, momentum=0.95)#    (4): ReLU()#    (5): Reshape()#    (6): Conv2d(8, 8, kernel_size=(11, 11), stride=(1, 1))#    (7): Flatten()#    (8): AbsBatchNorm1d(bias=True, abs_bias=False, momentum=0.01, eps=0.001)#    (9): GaussianNoise(std=0.1, trainable=False, adapt=False, momentum=0.95)#    (10): ReLU()#    (11): Linear(in_features=5408, out_features=5, bias=True)#    (12): AbsBatchNorm1d(bias=True, abs_bias=False, momentum=0.01, eps=1e-05)#    (13): Softplus(beta=1, threshold=20)#  )#)#!0.6297962069511414!512!0.6294623249112042!True!0.27426254061156563!0.01!0.6406255758158113!0.4715233630091501!!!!!!!!!0.2678113512918879!!!!!!!!0.6336269350876362!!0.2730856701385312!!!!!!all![8, 8]!15-10-07!absbnbncnn!5!0.1868168324783307!0.0001!0.001!None!!!8e-05!AbsBNBNCNN!50!!0.1!!absbnbncnn/results.txt!absbnbncnn/absbnbncnn_5_lr8e-05_l20.001!!!0.0!0.16292719542980194!naturalscene
-3.1240382119001846!0.6883397296899277!-3.084440179145531!0.6360220582946849!0.3496043021816511!0.11736504112999124!0.7074335759854767!!0.2937103986740112!!!False!0.41376915835649775!AbsBNBNCNN(#  (sequential): Sequential(#    (0): Conv2d(40, 8, kernel_size=(15, 15), stride=(1, 1))#    (1): Flatten()#    (2): AbsBatchNorm1d(bias=True, abs_bias=False, momentum=0.99, eps=0.001)#    (3): GaussianNoise(std=0.05, trainable=False, adapt=False)#    (4): ReLU()#    (5): Reshape()#    (6): Conv2d(8, 8, kernel_size=(11, 11), stride=(1, 1))#    (7): Flatten()#    (8): AbsBatchNorm1d(bias=True, abs_bias=False, momentum=0.99, eps=0.001)#    (9): GaussianNoise(std=0.05, trainable=False, adapt=False)#    (10): ReLU()#    (11): Linear(in_features=5408, out_features=5, bias=True)#    (12): AbsBatchNorm1d(bias=True, abs_bias=False, momentum=0.1, eps=1e-05)#    (13): Softplus(beta=1, threshold=20)#  )#)#!0.8738909959793091!512!0.7074335759854767!True!0.2938040301703061!!0.7587436719792098!0.5796271785206701!!!!!!!!!0.5823905731299269!!!!!!!!0.7521122344019342!!0.7688249904178976!!!!!!all!!15-10-07!absbnbncnn!6!0.2005099452214908!0.0001!0.01!!!!0.0001!AbsBNBNCNN!70!!0.05!!absbnbncnn/results.txt!absbnbncnn/absbnbncnn_6_lr0.0001_l20.01!!!0.0!0.1800781786441803!naturalscene
-3.701337313939723!0.519473447905443!-3.534850699903473!0.5910684043972019!0.3287564572109036!0.08368825395644718!0.6259569883538799!!0.32950723767280576!!!False!0.3889567763613337!AbsBNBNCNN(#  (sequential): Sequential(#    (0): Conv2d(40, 8, kernel_size=(15, 15), stride=(1, 1))#    (1): Flatten()#    (2): AbsBatchNorm1d(bias=True, abs_bias=False, momentum=0.99, eps=0.001)#    (3): GaussianNoise(std=0.05, trainable=False, adapt=False)#    (4): ReLU()#    (5): Reshape()#    (6): Conv2d(8, 8, kernel_size=(11, 11), stride=(1, 1))#    (7): Flatten()#    (8): AbsBatchNorm1d(bias=True, abs_bias=False, momentum=0.99, eps=0.001)#    (9): GaussianNoise(std=0.05, trainable=False, adapt=False)#    (10): ReLU()#    (11): Linear(in_features=5408, out_features=5, bias=True)#    (12): AbsBatchNorm1d(bias=True, abs_bias=False, momentum=0.1, eps=1e-05)#    (13): Softplus(beta=1, threshold=20)#  )#)#!2.1304154396057133!512!0.6259569883538799!True!0.2770092894074805!!0.5710617689095022!0.3882121125754122!!!!!!!!!0.4287086923758399!!!!!!!!0.5878353669677783!!0.6215492986986827!!!!!!all!!15-10-07!absbnbncnn!7!0.18840329694005314!0.0001!0.001!!!!0.0001!AbsBNBNCNN!70!!0.05!!absbnbncnn/results.txt!absbnbncnn/absbnbncnn_7_lr0.0001_l20.001!!!0.0!1.1098790168762207!naturalscene
-2.8541912910265803!0.6800459610487192!-2.7012631290999707!0.7668672006629156!0.4748994449445949!0.13730672328826687!0.6561921636912819!!0.5199304819107056!!!True!0.5454717882403072!AbsBNBNCNN(#  (sequential): Sequential(#    (0): Conv2d(40, 8, kernel_size=(15, 15), stride=(1, 1))#    (1): Flatten()#    (2): AbsBatchNorm1d(bias=True, abs_bias=False, momentum=0.99, eps=0.001)#    (3): GaussianNoise(std=0.1, trainable=False, adapt=True, momentum=0.95)#    (4): ReLU()#    (5): Reshape()#    (6): Conv2d(8, 8, kernel_size=(11, 11), stride=(1, 1))#    (7): Flatten()#    (8): AbsBatchNorm1d(bias=True, abs_bias=False, momentum=0.99, eps=0.001)#    (9): GaussianNoise(std=0.1, trainable=False, adapt=True, momentum=0.95)#    (10): ReLU()#    (11): Linear(in_features=5408, out_features=5, bias=True)#    (12): AbsBatchNorm1d(bias=True, abs_bias=False, momentum=0.1, eps=1e-05)#    (13): Softplus(beta=1, threshold=20)#  )#)#!0.6056368350982666!512!0.6800459610487192!True!0.42943767622286505!!0.7282850258377455!0.5597931807621429!!!!!!!!!0.5730536400240391!!!!!!!!0.7512712584716734!!0.7878267001479948!!!!!!all!!15-10-07!absbnbncnn!8!0.2985415685076925!0.0001!0.01!!!!0.006999999999999999!AbsBNBNCNN!70!!0.1!!absbnbncnn/results.txt!absbnbncnn/absbnbncnn_8_lr0.007_l20.01!!!8.0!0.24953150749206546!naturalscene
-2.892245186220287!0.6744193944267057!-2.862381058761457!0.7595959285324729!0.5046372366514995!0.12614931302493654!0.6491579656719004!!0.5124516487121582!!!True!0.5547975953160554!AbsBNBNCNN(#  (sequential): Sequential(#    (0): Conv2d(40, 8, kernel_size=(15, 15), stride=(1, 1))#    (1): Flatten()#    (2): AbsBatchNorm1d(bias=True, abs_bias=False, momentum=0.99, eps=0.001)#    (3): GaussianNoise(std=0.1, trainable=False, adapt=True, momentum=0.95)#    (4): ReLU()#    (5): Reshape()#    (6): Conv2d(8, 8, kernel_size=(11, 11), stride=(1, 1))#    (7): Flatten()#    (8): AbsBatchNorm1d(bias=True, abs_bias=False, momentum=0.99, eps=0.001)#    (9): GaussianNoise(std=0.1, trainable=False, adapt=True, momentum=0.95)#    (10): ReLU()#    (11): Linear(in_features=5408, out_features=5, bias=True)#    (12): AbsBatchNorm1d(bias=True, abs_bias=False, momentum=0.1, eps=1e-05)#    (13): Softplus(beta=1, threshold=20)#  )#)#!0.8131405115127563!512!0.6744193944267057!True!0.4210518827257075!!0.7444802842896558!0.5435955774160562!!!!!!!!!0.5802068947825617!!!!!!!!0.7404072690783727!!0.7634069465668821!!!!!!all!!15-10-07!absbnbncnn!9!0.4191669914890032!0.0001!0.001!!!!0.006999999999999999!AbsBNBNCNN!70!!0.1!!absbnbncnn/results.txt!absbnbncnn/absbnbncnn_9_lr0.007_l20.001!!!8.0!0.18029221892356875!naturalscene
-2.8617508370951827!0.6683243861240332!-2.9361204431588703!0.7373222837484534!0.4788087478720568!0.15072295952202866!0.6590708255181851!!0.5300372242927551!!!True!0.5489385098262938!AbsBNBNCNN(#  (sequential): Sequential(#    (0): Conv2d(40, 8, kernel_size=(15, 15), stride=(1, 1))#    (1): Flatten()#    (2): AbsBatchNorm1d(bias=True, abs_bias=False, momentum=0.99, eps=0.001)#    (3): GaussianNoise(std=0.1, trainable=False, adapt=True, momentum=0.95)#    (4): ReLU()#    (5): Reshape()#    (6): Conv2d(8, 8, kernel_size=(11, 11), stride=(1, 1))#    (7): Flatten()#    (8): AbsBatchNorm1d(bias=True, abs_bias=False, momentum=0.99, eps=0.001)#    (9): GaussianNoise(std=0.1, trainable=False, adapt=True, momentum=0.95)#    (10): ReLU()#    (11): Linear(in_features=5408, out_features=5, bias=True)#    (12): AbsBatchNorm1d(bias=True, abs_bias=False, momentum=0.1, eps=1e-05)#    (13): Softplus(beta=1, threshold=20)#  )#)#!0.5930980443954468!512!0.6683243861240332!True!0.4189099920331218!!0.7404778681386628!0.5408639638275152!!!!!!!!!0.5367774234563284!!!!!!!!0.7521653204030286!!0.7713373547946308!!!!!!all!!15-10-07!absbnbncnn!10!0.31500738321740634!0.0001!0.01!!!!0.005!AbsBNBNCNN!70!!0.1!!absbnbncnn/results.txt!absbnbncnn/absbnbncnn_10_lr0.005_l20.01!!!8.0!0.2231026142835617!naturalscene
-3.2118423833746355!0.6876609343793934!-3.0855735339737294!0.669653464023076!0.4157035225242968!0.14955241961718901!0.6879898940482565!!0.5626899600028992!!!True!0.4731662613778585!AbsBNBNCNN(#  (sequential): Sequential(#    (0): Conv2d(40, 8, kernel_size=(15, 15), stride=(1, 1))#    (1): Flatten()#    (2): AbsBatchNorm1d(bias=True, abs_bias=False, momentum=0.99, eps=0.001)#    (3): GaussianNoise(std=0.1, trainable=False, adapt=True, momentum=0.95)#    (4): ReLU()#    (5): Reshape()#    (6): Conv2d(8, 8, kernel_size=(11, 11), stride=(1, 1))#    (7): Flatten()#    (8): AbsBatchNorm1d(bias=True, abs_bias=False, momentum=0.99, eps=0.001)#    (9): GaussianNoise(std=0.1, trainable=False, adapt=True, momentum=0.95)#    (10): ReLU()#    (11): Linear(in_features=5408, out_features=5, bias=True)#    (12): AbsBatchNorm1d(bias=True, abs_bias=False, momentum=0.1, eps=1e-05)#    (13): Softplus(beta=1, threshold=20)#  )#)#!0.8649978637695312!512!0.6879898940482565!True!0.35959272951339954!!0.75245436540525!0.5512971441446084!!!!!!!!!0.5974968221163399!!!!!!!!0.7545354322364772!!0.7825209079942912!!!!!!all!!15-10-07!absbnbncnn!11!0.2869570338609765!0.0001!0.001!!!!0.005!AbsBNBNCNN!70!!0.1!!absbnbncnn/results.txt!absbnbncnn/absbnbncnn_11_lr0.005_l20.001!!!8.0!0.346539705991745!naturalscene
-3.286055179383061!0.6740946412728197!-3.464338169036637!0.6358658085115482!0.4062958337861913!0.15935075297425533!0.6962123844780381!!0.5896528363227844!!!True!0.4661215823542521!AbsBNBNCNN(#  (sequential): Sequential(#    (0): Conv2d(40, 8, kernel_size=(15, 15), stride=(1, 1))#    (1): Flatten()#    (2): AbsBatchNorm1d(bias=True, abs_bias=False, momentum=0.99, eps=0.001)#    (3): GaussianNoise(std=0.1, trainable=False, adapt=True, momentum=0.95)#    (4): ReLU()#    (5): Reshape()#    (6): Conv2d(8, 8, kernel_size=(11, 11), stride=(1, 1))#    (7): Flatten()#    (8): AbsBatchNorm1d(bias=True, abs_bias=False, momentum=0.99, eps=0.001)#    (9): GaussianNoise(std=0.1, trainable=False, adapt=True, momentum=0.95)#    (10): ReLU()#    (11): Linear(in_features=5408, out_features=5, bias=True)#    (12): AbsBatchNorm1d(bias=True, abs_bias=False, momentum=0.1, eps=1e-05)#    (13): Softplus(beta=1, threshold=20)#  )#)#!1.0676147937774658!512!0.6962123844780381!True!0.3596495255743957!!0.7315732801316082!0.5522203161826196!!!!!!!!!0.5567684989237379!!!!!!!!0.7308955417102118!!0.7990155694159209!!!!!!all!!15-10-07!absbnbncnn!12!0.2630990500245169!0.0001!0.01!!!!0.001!AbsBNBNCNN!70!!0.1!!absbnbncnn/results.txt!absbnbncnn/absbnbncnn_12_lr0.001_l20.01!!!8.0!0.16067437827587128!naturalscene
-3.774307971086977!0.579692150642168!-3.5173726840039308!0.6377029299284368!0.3698266131704356!0.11911440580034882!0.6858253689551796!!0.6480414867401123!!!True!0.4211959486090144!AbsBNBNCNN(#  (sequential): Sequential(#    (0): Conv2d(40, 8, kernel_size=(15, 15), stride=(1, 1))#    (1): Flatten()#    (2): AbsBatchNorm1d(bias=True, abs_bias=False, momentum=0.99, eps=0.001)#    (3): GaussianNoise(std=0.1, trainable=False, adapt=True, momentum=0.95)#    (4): ReLU()#    (5): Reshape()#    (6): Conv2d(8, 8, kernel_size=(11, 11), stride=(1, 1))#    (7): Flatten()#    (8): AbsBatchNorm1d(bias=True, abs_bias=False, momentum=0.99, eps=0.001)#    (9): GaussianNoise(std=0.1, trainable=False, adapt=True, momentum=0.95)#    (10): ReLU()#    (11): Linear(in_features=5408, out_features=5, bias=True)#    (12): AbsBatchNorm1d(bias=True, abs_bias=False, momentum=0.1, eps=1e-05)#    (13): Softplus(beta=1, threshold=20)#  )#)#!0.8361465334892273!512!0.6858253689551796!True!0.3099860780996549!!0.6588887844460584!0.4339884193808709!!!!!!!!!0.4626329893619125!!!!!!!!0.6834595501460465!!0.6594910098759512!!!!!!all!!15-10-07!absbnbncnn!13!0.26226124524308403!0.0001!0.001!!!!0.001!AbsBNBNCNN!70!!0.1!!absbnbncnn/results.txt!absbnbncnn/absbnbncnn_13_lr0.001_l20.001!!!8.0!0.16152817010879514!naturalscene
-3.851634543765544!0.4621025875719879!-3.5391908636520384!0.5829623864115981!0.3300911144634246!0.09286876865871488!0.6006706299331995!!0.6670743823051453!!!True!0.3926822598298872!AbsBNBNCNN(#  (sequential): Sequential(#    (0): Conv2d(40, 8, kernel_size=(15, 15), stride=(1, 1))#    (1): Flatten()#    (2): AbsBatchNorm1d(bias=True, abs_bias=False, momentum=0.99, eps=0.001)#    (3): GaussianNoise(std=0.1, trainable=False, adapt=True, momentum=0.95)#    (4): ReLU()#    (5): Reshape()#    (6): Conv2d(8, 8, kernel_size=(11, 11), stride=(1, 1))#    (7): Flatten()#    (8): AbsBatchNorm1d(bias=True, abs_bias=False, momentum=0.99, eps=0.001)#    (9): GaussianNoise(std=0.1, trainable=False, adapt=True, momentum=0.95)#    (10): ReLU()#    (11): Linear(in_features=5408, out_features=5, bias=True)#    (12): AbsBatchNorm1d(bias=True, abs_bias=False, momentum=0.1, eps=1e-05)#    (13): Softplus(beta=1, threshold=20)#  )#)#!2.3105196952819824!512!0.6006706299331995!True!0.27335248111893273!!0.4881233366776992!0.3022906559287083!!!!!!!!!0.42537032850236267!!!!!!!!0.6475170463338106!!0.44721157041735854!!!!!!all!!15-10-07!absbnbncnn!14!0.18644772652086367!0.0001!0.01!!!!0.0001!AbsBNBNCNN!70!!0.1!!absbnbncnn/results.txt!absbnbncnn/absbnbncnn_14_lr0.0001_l20.01!!!8.0!1.244104027748108!naturalscene
-3.840839554281797!0.4268960720098267!-3.638011361157624!!!!0.6074030830140267!!0.6788220405578613!!!True!!AbsBNBNCNN(#  (sequential): Sequential(#    (0): Conv2d(40, 8, kernel_size=(15, 15), stride=(1, 1))#    (1): Flatten()#    (2): AbsBatchNorm1d(bias=True, abs_bias=False, momentum=0.99, eps=0.001)#    (3): GaussianNoise(std=0.1, trainable=False, adapt=True, momentum=0.95)#    (4): ReLU()#    (5): Reshape()#    (6): Conv2d(8, 8, kernel_size=(11, 11), stride=(1, 1))#    (7): Flatten()#    (8): AbsBatchNorm1d(bias=True, abs_bias=False, momentum=0.99, eps=0.001)#    (9): GaussianNoise(std=0.1, trainable=False, adapt=True, momentum=0.95)#    (10): ReLU()#    (11): Linear(in_features=5408, out_features=5, bias=True)#    (12): AbsBatchNorm1d(bias=True, abs_bias=False, momentum=0.1, eps=1e-05)#    (13): Softplus(beta=1, threshold=20)#  )#)#!!512!0.6074030830140267!True!!!0.4773847180501741!0.2463330805708128!!!!!!!!!0.22272638464852126!!!!!!!!0.5620676868401959!!0.6259684899394294!!!!!!all!!15-10-07!absbnbncnn!15!!0.0001!0.001!!!!0.0001!AbsBNBNCNN!70!!0.1!!absbnbncnn/results.txt!absbnbncnn/absbnbncnn_15_lr0.0001_l20.001!!!8.0!!naturalscene
-2.33880438456708!0.5502616787282584!-1.4967070282946224!0.7288033970687221!0.4470157430949858!0.09627739465384216!0.5947220181348353!!0.4721647202968597!!!False!0.4836738436423569!AbsBNBNCNN(#  (sequential): Sequential(#    (0): Conv2d(40, 8, kernel_size=(15, 15), stride=(1, 1))#    (1): Flatten()#    (2): AbsBatchNorm1d(bias=True, abs_bias=False, momentum=0.99, eps=0.001)#    (3): GaussianNoise(std=0.1, trainable=False, adapt=False, momentum=0.95)#    (4): ReLU()#    (5): Reshape()#    (6): Conv2d(8, 16, kernel_size=(11, 11), stride=(1, 1))#    (7): Flatten()#    (8): AbsBatchNorm1d(bias=True, abs_bias=False, momentum=0.99, eps=0.001)#    (9): GaussianNoise(std=0.1, trainable=False, adapt=False, momentum=0.95)#    (10): ReLU()#    (11): Linear(in_features=10816, out_features=5, bias=True)#    (12): AbsBatchNorm1d(bias=True, abs_bias=False, momentum=0.1, eps=1e-05)#    (13): Softplus(beta=1, threshold=20)#  )#)#!0.7740728855133057!512!0.5947220181348353!True!0.3985422561300637!!0.6209871502435449!0.3380840157086188!!!!!!!!!0.4492207442905098!!!!!!!!0.643794734208246!!0.6992217491903723!!!!!!all![8, 16]!15-10-07!absbnbncnn!16!0.37474304242558976!0.0001!0.01!!!!0.006999999999999999!AbsBNBNCNN!100!!0.1!!absbnbncnn/results.txt!absbnbncnn/absbnbncnn_16_chans[8, 16]_lr0.007_l20.01!!!16.0!0.16873253881931305!naturalscene
-3.0462294151700284!0.6911604562513224!-3.0025127615062965!0.6380496709532326!0.4109318060176959!0.1674413756558212!0.6997736264294947!!0.5604448318481445!!!False!0.479412605663573!AbsBNBNCNN(#  (sequential): Sequential(#    (0): Conv2d(40, 8, kernel_size=(15, 15), stride=(1, 1))#    (1): Flatten()#    (2): AbsBatchNorm1d(bias=True, abs_bias=False, momentum=0.99, eps=0.001)#    (3): GaussianNoise(std=0.1, trainable=False, adapt=False, momentum=0.95)#    (4): ReLU()#    (5): Reshape()#    (6): Conv2d(8, 16, kernel_size=(11, 11), stride=(1, 1))#    (7): Flatten()#    (8): AbsBatchNorm1d(bias=True, abs_bias=False, momentum=0.99, eps=0.001)#    (9): GaussianNoise(std=0.1, trainable=False, adapt=False, momentum=0.95)#    (10): ReLU()#    (11): Linear(in_features=10816, out_features=5, bias=True)#    (12): AbsBatchNorm1d(bias=True, abs_bias=False, momentum=0.1, eps=1e-05)#    (13): Softplus(beta=1, threshold=20)#  )#)#!0.7853873372077942!512!0.6997736264294947!True!0.3496049074571439!!0.7554322262388036!0.5720234896412734!!!!!!!!!0.6102512404647357!!!!!!!!0.7261288150767005!!0.7919665098350992!!!!!!all![8, 16]!15-10-07!absbnbncnn!17!0.25318810596049385!0.0001!0.001!!!!0.006999999999999999!AbsBNBNCNN!100!!0.1!!absbnbncnn/results.txt!absbnbncnn/absbnbncnn_17_chans[8, 16]_lr0.007_l20.001!!!16.0!0.1889253705739975!naturalscene
-2.528498410369476!0.6373270426034743!-2.4198184726192267!0.6982942078866412!0.454420514915118!0.1393143152537952!0.6385313139320044!!0.5018137693405151!!!False!0.5250172498246634!AbsBNBNCNN(#  (sequential): Sequential(#    (0): Conv2d(40, 8, kernel_size=(15, 15), stride=(1, 1))#    (1): Flatten()#    (2): AbsBatchNorm1d(bias=True, abs_bias=False, momentum=0.99, eps=0.001)#    (3): GaussianNoise(std=0.1, trainable=False, adapt=False, momentum=0.95)#    (4): ReLU()#    (5): Reshape()#    (6): Conv2d(8, 16, kernel_size=(11, 11), stride=(1, 1))#    (7): Flatten()#    (8): AbsBatchNorm1d(bias=True, abs_bias=False, momentum=0.99, eps=0.001)#    (9): GaussianNoise(std=0.1, trainable=False, adapt=False, momentum=0.95)#    (10): ReLU()#    (11): Linear(in_features=10816, out_features=5, bias=True)#    (12): AbsBatchNorm1d(bias=True, abs_bias=False, momentum=0.1, eps=1e-05)#    (13): Softplus(beta=1, threshold=20)#  )#)#!0.8646202087402344!512!0.6385313139320044!True!0.4162276802708092!!0.7049430481081049!0.5190202173249493!!!!!!!!!0.5138604304737118!!!!!!!!0.706220388577023!!0.7425911285335819!!!!!!all![8, 16]!15-10-07!absbnbncnn!18!0.2723358482431665!0.0001!0.01!!!!0.005!AbsBNBNCNN!100!!0.1!!absbnbncnn/results.txt!absbnbncnn/absbnbncnn_18_chans[8, 16]_lr0.005_l20.01!!!16.0!0.06753023713827133!naturalscene
-3.0690041472109915!0.6827198832637001!-3.0193940486333304!0.6722874827708822!0.4151891419086796!0.15590793477083054!0.6918903574675526!!0.5610637068748474!!!False!0.4852498259231954!AbsBNBNCNN(#  (sequential): Sequential(#    (0): Conv2d(40, 8, kernel_size=(15, 15), stride=(1, 1))#    (1): Flatten()#    (2): AbsBatchNorm1d(bias=True, abs_bias=False, momentum=0.99, eps=0.001)#    (3): GaussianNoise(std=0.1, trainable=False, adapt=False, momentum=0.95)#    (4): ReLU()#    (5): Reshape()#    (6): Conv2d(8, 16, kernel_size=(11, 11), stride=(1, 1))#    (7): Flatten()#    (8): AbsBatchNorm1d(bias=True, abs_bias=False, momentum=0.99, eps=0.001)#    (9): GaussianNoise(std=0.1, trainable=False, adapt=False, momentum=0.95)#    (10): ReLU()#    (11): Linear(in_features=10816, out_features=5, bias=True)#    (12): AbsBatchNorm1d(bias=True, abs_bias=False, momentum=0.1, eps=1e-05)#    (13): Softplus(beta=1, threshold=20)#  )#)#!0.7261514663696289!512!0.6918903574675526!True!0.35228653819767075!!0.7470784672935864!0.5518375418661016!!!!!!!!!0.6008229504091173!!!!!!!!0.7331451903613604!!0.7807152663883351!!!!!!all![8, 16]!15-10-07!absbnbncnn!19!0.2539313371959165!0.0001!0.001!!!!0.005!AbsBNBNCNN!100!!0.1!!absbnbncnn/results.txt!absbnbncnn/absbnbncnn_19_chans[8, 16]_lr0.005_l20.001!!!16.0!0.18601921200752256!naturalscene
-2.7801065336165567!0.6777420103037022!-3.1354994615685428!0.6685183808019832!0.4313996143386747!0.13788654755935836!0.6912913443461468!!0.5490962862968445!!!False!0.4729685340570943!AbsBNBNCNN(#  (sequential): Sequential(#    (0): Conv2d(40, 8, kernel_size=(15, 15), stride=(1, 1))#    (1): Flatten()#    (2): AbsBatchNorm1d(bias=True, abs_bias=False, momentum=0.99, eps=0.001)#    (3): GaussianNoise(std=0.1, trainable=False, adapt=False, momentum=0.95)#    (4): ReLU()#    (5): Reshape()#    (6): Conv2d(8, 16, kernel_size=(11, 11), stride=(1, 1))#    (7): Flatten()#    (8): AbsBatchNorm1d(bias=True, abs_bias=False, momentum=0.99, eps=0.001)#    (9): GaussianNoise(std=0.1, trainable=False, adapt=False, momentum=0.95)#    (10): ReLU()#    (11): Linear(in_features=10816, out_features=5, bias=True)#    (12): AbsBatchNorm1d(bias=True, abs_bias=False, momentum=0.1, eps=1e-05)#    (13): Softplus(beta=1, threshold=20)#  )#)#!0.9216358065605164!512!0.6912913443461468!True!0.3534058270861564!!0.7554109113822732!0.6036991529648261!!!!!!!!!0.5829359960972786!!!!!!!!0.7577762994042243!!0.688887691669908!!!!!!all![8, 16]!15-10-07!absbnbncnn!20!0.3673546897131525!0.0001!0.01!!!!0.001!AbsBNBNCNN!100!!0.1!!absbnbncnn/results.txt!absbnbncnn/absbnbncnn_20_chans[8, 16]_lr0.001_l20.01!!!16.0!0.08062191307544707!naturalscene
-3.408283958967275!0.6847909524868399!-3.207250264105824!0.561307407587631!0.3414662151867485!0.11566986425978998!0.7287405824225394!!0.6108153462409973!!!False!0.3944662311541289!AbsBNBNCNN(#  (sequential): Sequential(#    (0): Conv2d(40, 8, kernel_size=(15, 15), stride=(1, 1))#    (1): Flatten()#    (2): AbsBatchNorm1d(bias=True, abs_bias=False, momentum=0.99, eps=0.001)#    (3): GaussianNoise(std=0.1, trainable=False, adapt=False, momentum=0.95)#    (4): ReLU()#    (5): Reshape()#    (6): Conv2d(8, 16, kernel_size=(11, 11), stride=(1, 1))#    (7): Flatten()#    (8): AbsBatchNorm1d(bias=True, abs_bias=False, momentum=0.99, eps=0.001)#    (9): GaussianNoise(std=0.1, trainable=False, adapt=False, momentum=0.95)#    (10): ReLU()#    (11): Linear(in_features=10816, out_features=5, bias=True)#    (12): AbsBatchNorm1d(bias=True, abs_bias=False, momentum=0.1, eps=1e-05)#    (13): Softplus(beta=1, threshold=20)#  )#)#!1.2345807552337646!512!0.7287405824225394!True!0.28847842114196365!!0.7682909142804063!0.5325582515858287!!!!!!!!!0.587818689025668!!!!!!!!0.7372345212065332!!0.7980523863357633!!!!!!all![8, 16]!15-10-07!absbnbncnn!21!0.2236788959861064!0.0001!0.001!!!!0.001!AbsBNBNCNN!100!!0.1!!absbnbncnn/results.txt!absbnbncnn/absbnbncnn_21_chans[8, 16]_lr0.001_l20.001!!!16.0!0.3229965567588806!naturalscene
-2.8018515739325838!0.6292519622319666!-2.5230518613680037!0.6119044560637839!0.3593050426674124!0.0929905494029056!0.6718170290896917!!0.5354322791099548!!!False!0.4261513225444553!AbsBNBNCNN(#  (sequential): Sequential(#    (0): Conv2d(40, 8, kernel_size=(15, 15), stride=(1, 1))#    (1): Flatten()#    (2): AbsBatchNorm1d(bias=True, abs_bias=False, momentum=0.99, eps=0.001)#    (3): GaussianNoise(std=0.1, trainable=False, adapt=False, momentum=0.95)#    (4): ReLU()#    (5): Reshape()#    (6): Conv2d(8, 16, kernel_size=(11, 11), stride=(1, 1))#    (7): Flatten()#    (8): AbsBatchNorm1d(bias=True, abs_bias=False, momentum=0.99, eps=0.001)#    (9): GaussianNoise(std=0.1, trainable=False, adapt=False, momentum=0.95)#    (10): ReLU()#    (11): Linear(in_features=10816, out_features=5, bias=True)#    (12): AbsBatchNorm1d(bias=True, abs_bias=False, momentum=0.1, eps=1e-05)#    (13): Softplus(beta=1, threshold=20)#  )#)#!0.9037919044494628!512!0.6718170290896917!True!0.2990947395067254!!0.7701837985345454!0.5362188132573708!!!!!!!!!0.5507737473673553!!!!!!!!0.7825742604037373!!0.5065091915968241!!!!!!all![8, 16]!15-10-07!absbnbncnn!22!0.20559643882792944!0.0001!0.01!!!!0.0001!AbsBNBNCNN!100!!0.1!!absbnbncnn/results.txt!absbnbncnn/absbnbncnn_22_chans[8, 16]_lr0.0001_l20.01!!!16.0!0.17235390841960907!naturalscene
-3.5599987661496906!0.5977640902721394!-3.5281076672563363!0.5414962281086764!0.3163797471931568!0.0823178586004595!0.6795179431691593!!0.6520722508430481!!!False!0.37551683761485705!AbsBNBNCNN(#  (sequential): Sequential(#    (0): Conv2d(40, 8, kernel_size=(15, 15), stride=(1, 1))#    (1): Flatten()#    (2): AbsBatchNorm1d(bias=True, abs_bias=False, momentum=0.99, eps=0.001)#    (3): GaussianNoise(std=0.1, trainable=False, adapt=False, momentum=0.95)#    (4): ReLU()#    (5): Reshape()#    (6): Conv2d(8, 16, kernel_size=(11, 11), stride=(1, 1))#    (7): Flatten()#    (8): AbsBatchNorm1d(bias=True, abs_bias=False, momentum=0.99, eps=0.001)#    (9): GaussianNoise(std=0.1, trainable=False, adapt=False, momentum=0.95)#    (10): ReLU()#    (11): Linear(in_features=10816, out_features=5, bias=True)#    (12): AbsBatchNorm1d(bias=True, abs_bias=False, momentum=0.1, eps=1e-05)#    (13): Softplus(beta=1, threshold=20)#  )#)#!1.1457059383392334!512!0.6795179431691593!True!0.2665469971970708!!0.7019532615939603!0.4373024524175442!!!!!!!!!0.4009085055646711!!!!!!!!0.7444428624027549!!0.7042133693817662!!!!!!all![8, 16]!15-10-07!absbnbncnn!23!0.17772728148056766!0.0001!0.001!!!!0.0001!AbsBNBNCNN!100!!0.1!!absbnbncnn/results.txt!absbnbncnn/absbnbncnn_23_chans[8, 16]_lr0.0001_l20.001!!!16.0!0.40705955028533936!naturalscene
-2.706668604553016!0.6076201236192433!-2.5743959650353645!0.7310277884187476!0.4602431722033284!0.1409554149165669!0.6399907638938803!!0.5244188904762268!!!False!0.5339166207049854!AbsBNBNCNN(#  (sequential): Sequential(#    (0): Conv2d(40, 8, kernel_size=(15, 15), stride=(1, 1))#    (1): Flatten()#    (2): AbsBatchNorm1d(bias=True, abs_bias=False, momentum=0.99, eps=0.001)#    (3): GaussianNoise(std=0.1, trainable=False, adapt=False, momentum=0.95)#    (4): ReLU()#    (5): Reshape()#    (6): Conv2d(8, 24, kernel_size=(11, 11), stride=(1, 1))#    (7): Flatten()#    (8): AbsBatchNorm1d(bias=True, abs_bias=False, momentum=0.99, eps=0.001)#    (9): GaussianNoise(std=0.1, trainable=False, adapt=False, momentum=0.95)#    (10): ReLU()#    (11): Linear(in_features=16224, out_features=5, bias=True)#    (12): AbsBatchNorm1d(bias=True, abs_bias=False, momentum=0.1, eps=1e-05)#    (13): Softplus(beta=1, threshold=20)#  )#)#!0.7391959428787231!512!0.6399907638938803!True!0.4185337602862856!!0.7080603083262857!0.4463949540333408!!!!!!!!!0.5360197558582197!!!!!!!!0.6988392453740787!!0.6487863545042918!!!!!!all![8, 24]!15-10-07!absbnbncnn!24!0.2716634804116129!0.0001!0.01!!!!0.006999999999999999!AbsBNBNCNN!100!!0.1!!absbnbncnn/results.txt!absbnbncnn/absbnbncnn_24_chans[8, 24]_lr0.007_l20.01!!!16.0!0.23694577813148496!naturalscene
-3.0849178982715983!0.7073447072430433!-3.108982929294143!0.6674598071492003!0.4271816119071762!0.1414131169503811!0.7022749271023881!!0.5674821138381958!!!False!0.4918800317256423!AbsBNBNCNN(#  (sequential): Sequential(#    (0): Conv2d(40, 8, kernel_size=(15, 15), stride=(1, 1))#    (1): Flatten()#    (2): AbsBatchNorm1d(bias=True, abs_bias=False, momentum=0.99, eps=0.001)#    (3): GaussianNoise(std=0.1, trainable=False, adapt=False, momentum=0.95)#    (4): ReLU()#    (5): Reshape()#    (6): Conv2d(8, 24, kernel_size=(11, 11), stride=(1, 1))#    (7): Flatten()#    (8): AbsBatchNorm1d(bias=True, abs_bias=False, momentum=0.99, eps=0.001)#    (9): GaussianNoise(std=0.1, trainable=False, adapt=False, momentum=0.95)#    (10): ReLU()#    (11): Linear(in_features=16224, out_features=5, bias=True)#    (12): AbsBatchNorm1d(bias=True, abs_bias=False, momentum=0.1, eps=1e-05)#    (13): Softplus(beta=1, threshold=20)#  )#)#!0.7228178977966309!512!0.7073447072430433!True!0.3762722246551894!!0.777904351097243!0.6146192319809173!!!!!!!!!0.6282108662952508!!!!!!!!0.7257788545086094!!0.7902102323331963!!!!!!all![8, 24]!15-10-07!absbnbncnn!25!0.2726825425366561!0.0001!0.001!!!!0.006999999999999999!AbsBNBNCNN!100!!0.1!!absbnbncnn/results.txt!absbnbncnn/absbnbncnn_25_chans[8, 24]_lr0.007_l20.001!!!16.0!0.1970546543598175!naturalscene
-2.431782386871125!0.589611400364989!-2.1717680930451024!0.7132036351373338!0.4947498248132977!0.2011582400148205!0.6137642029389824!!0.4805602431297302!!!False!0.5561417472858428!AbsBNBNCNN(#  (sequential): Sequential(#    (0): Conv2d(40, 8, kernel_size=(15, 15), stride=(1, 1))#    (1): Flatten()#    (2): AbsBatchNorm1d(bias=True, abs_bias=False, momentum=0.99, eps=0.001)#    (3): GaussianNoise(std=0.1, trainable=False, adapt=False, momentum=0.95)#    (4): ReLU()#    (5): Reshape()#    (6): Conv2d(8, 24, kernel_size=(11, 11), stride=(1, 1))#    (7): Flatten()#    (8): AbsBatchNorm1d(bias=True, abs_bias=False, momentum=0.99, eps=0.001)#    (9): GaussianNoise(std=0.1, trainable=False, adapt=False, momentum=0.95)#    (10): ReLU()#    (11): Linear(in_features=16224, out_features=5, bias=True)#    (12): AbsBatchNorm1d(bias=True, abs_bias=False, momentum=0.1, eps=1e-05)#    (13): Softplus(beta=1, threshold=20)#  )#)#!1.1370000839233398!512!0.6137642029389824!True!0.4447894879343767!!0.6696188843787854!0.5170814472102436!!!!!!!!!0.4934919406798555!!!!!!!!0.7010435094198715!!0.5668212201361897!!!!!!all![8, 24]!15-10-07!absbnbncnn!26!0.34943209719037915!0.0001!0.01!!!!0.005!AbsBNBNCNN!100!!0.1!!absbnbncnn/results.txt!absbnbncnn/absbnbncnn_26_chans[8, 24]_lr0.005_l20.01!!!16.0!0.2822105884552002!naturalscene
-2.9915331617379803!0.6930513224212679!-3.125374378772904!0.6291479359180889!0.4285649809289115!0.16211732630164807!0.6857105057356175!!0.5489233732223511!!!False!0.4818916308982326!AbsBNBNCNN(#  (sequential): Sequential(#    (0): Conv2d(40, 8, kernel_size=(15, 15), stride=(1, 1))#    (1): Flatten()#    (2): AbsBatchNorm1d(bias=True, abs_bias=False, momentum=0.99, eps=0.001)#    (3): GaussianNoise(std=0.1, trainable=False, adapt=False, momentum=0.95)#    (4): ReLU()#    (5): Reshape()#    (6): Conv2d(8, 24, kernel_size=(11, 11), stride=(1, 1))#    (7): Flatten()#    (8): AbsBatchNorm1d(bias=True, abs_bias=False, momentum=0.99, eps=0.001)#    (9): GaussianNoise(std=0.1, trainable=False, adapt=False, momentum=0.95)#    (10): ReLU()#    (11): Linear(in_features=16224, out_features=5, bias=True)#    (12): AbsBatchNorm1d(bias=True, abs_bias=False, momentum=0.1, eps=1e-05)#    (13): Softplus(beta=1, threshold=20)#  )#)#!0.7884458303451538!512!0.6930513224212679!True!0.3559093147847448!!0.7459132903444592!0.5658415461492754!!!!!!!!!0.6079465587506072!!!!!!!!0.7475723268638661!!0.7979828899981317!!!!!!all![8, 24]!15-10-07!absbnbncnn!27!0.3250949935775229!0.0001!0.001!!!!0.005!AbsBNBNCNN!100!!0.1!!absbnbncnn/results.txt!absbnbncnn/absbnbncnn_27_chans[8, 24]_lr0.005_l20.001!!!16.0!0.1804213523864746!naturalscene
-2.8264925172426043!0.6942532041971246!-2.9139206254876626!0.6515617842100608!0.4034080174806956!0.13421204807656836!0.6903844691407892!!0.5517508387565613!!!False!0.4715770617344956!AbsBNBNCNN(#  (sequential): Sequential(#    (0): Conv2d(40, 8, kernel_size=(15, 15), stride=(1, 1))#    (1): Flatten()#    (2): AbsBatchNorm1d(bias=True, abs_bias=False, momentum=0.99, eps=0.001)#    (3): GaussianNoise(std=0.1, trainable=False, adapt=False, momentum=0.95)#    (4): ReLU()#    (5): Reshape()#    (6): Conv2d(8, 24, kernel_size=(11, 11), stride=(1, 1))#    (7): Flatten()#    (8): AbsBatchNorm1d(bias=True, abs_bias=False, momentum=0.99, eps=0.001)#    (9): GaussianNoise(std=0.1, trainable=False, adapt=False, momentum=0.95)#    (10): ReLU()#    (11): Linear(in_features=16224, out_features=5, bias=True)#    (12): AbsBatchNorm1d(bias=True, abs_bias=False, momentum=0.1, eps=1e-05)#    (13): Softplus(beta=1, threshold=20)#  )#)#!0.8017789125442505!512!0.6942532041971246!True!0.35140129566167216!!0.7500552402152691!0.5753759153505749!!!!!!!!!0.5890720738988903!!!!!!!!0.7835329548264242!!0.7732298366944643!!!!!!all![8, 24]!15-10-07!absbnbncnn!28!0.2393505572452025!0.0001!0.01!!!!0.001!AbsBNBNCNN!100!!0.1!!absbnbncnn/results.txt!absbnbncnn/absbnbncnn_28_chans[8, 24]_lr0.001_l20.01!!!16.0!0.17162548005580902!naturalscene
-3.366134278015493!0.6674982706354351!-3.2745231955796044!0.6064990464160921!0.3597900857675016!0.09253377760406688!0.7222034987467674!!0.6051783561706543!!!False!0.4134190494247851!AbsBNBNCNN(#  (sequential): Sequential(#    (0): Conv2d(40, 8, kernel_size=(15, 15), stride=(1, 1))#    (1): Flatten()#    (2): AbsBatchNorm1d(bias=True, abs_bias=False, momentum=0.99, eps=0.001)#    (3): GaussianNoise(std=0.1, trainable=False, adapt=False, momentum=0.95)#    (4): ReLU()#    (5): Reshape()#    (6): Conv2d(8, 24, kernel_size=(11, 11), stride=(1, 1))#    (7): Flatten()#    (8): AbsBatchNorm1d(bias=True, abs_bias=False, momentum=0.99, eps=0.001)#    (9): GaussianNoise(std=0.1, trainable=False, adapt=False, momentum=0.95)#    (10): ReLU()#    (11): Linear(in_features=16224, out_features=5, bias=True)#    (12): AbsBatchNorm1d(bias=True, abs_bias=False, momentum=0.1, eps=1e-05)#    (13): Softplus(beta=1, threshold=20)#  )#)#!1.1829917430877686!512!0.7222034987467674!True!0.29496512746719666!!0.7779561721899753!0.5751383060905947!!!!!!!!!0.5351194437307715!!!!!!!!0.6682776774365251!!0.7809997537293092!!!!!!all![8, 24]!15-10-07!absbnbncnn!29!0.2493226068069992!0.0001!0.001!!!!0.001!AbsBNBNCNN!100!!0.1!!absbnbncnn/results.txt!absbnbncnn/absbnbncnn_29_chans[8, 24]_lr0.001_l20.001!!!16.0!0.2571795284748077!naturalscene
-2.811526903919145!0.6984375243706217!-2.73569111458346!0.5822432593684904!0.3550245419651681!0.11250259238070888!0.6882500696281797!!0.5444165468215942!!!False!0.4180485267460025!AbsBNBNCNN(#  (sequential): Sequential(#    (0): Conv2d(40, 8, kernel_size=(15, 15), stride=(1, 1))#    (1): Flatten()#    (2): AbsBatchNorm1d(bias=True, abs_bias=False, momentum=0.99, eps=0.001)#    (3): GaussianNoise(std=0.1, trainable=False, adapt=False, momentum=0.95)#    (4): ReLU()#    (5): Reshape()#    (6): Conv2d(8, 24, kernel_size=(11, 11), stride=(1, 1))#    (7): Flatten()#    (8): AbsBatchNorm1d(bias=True, abs_bias=False, momentum=0.99, eps=0.001)#    (9): GaussianNoise(std=0.1, trainable=False, adapt=False, momentum=0.95)#    (10): ReLU()#    (11): Linear(in_features=16224, out_features=5, bias=True)#    (12): AbsBatchNorm1d(bias=True, abs_bias=False, momentum=0.1, eps=1e-05)#    (13): Softplus(beta=1, threshold=20)#  )#)#!0.9503812789916992!512!0.6984375243706217!True!0.3002650587463158!!0.7706913553553746!0.6437984280698777!!!!!!!!!0.6179144579914418!!!!!!!!0.7204877950202345!!0.7392955854161799!!!!!!all![8, 24]!15-10-07!absbnbncnn!30!0.20854329679288391!0.0001!0.01!!!!0.0001!AbsBNBNCNN!100!!0.1!!absbnbncnn/results.txt!absbnbncnn/absbnbncnn_30_chans[8, 24]_lr0.0001_l20.01!!!16.0!0.27011197805404663!naturalscene
-3.58545950473164!0.5636561696139297!-3.4388065123166602!0.5738358733462751!0.3190946828117611!0.08215491972037035!0.6744951550743992!!0.6562126278877258!!!False!0.3810383760748728!AbsBNBNCNN(#  (sequential): Sequential(#    (0): Conv2d(40, 8, kernel_size=(15, 15), stride=(1, 1))#    (1): Flatten()#    (2): AbsBatchNorm1d(bias=True, abs_bias=False, momentum=0.99, eps=0.001)#    (3): GaussianNoise(std=0.1, trainable=False, adapt=False, momentum=0.95)#    (4): ReLU()#    (5): Reshape()#    (6): Conv2d(8, 24, kernel_size=(11, 11), stride=(1, 1))#    (7): Flatten()#    (8): AbsBatchNorm1d(bias=True, abs_bias=False, momentum=0.99, eps=0.001)#    (9): GaussianNoise(std=0.1, trainable=False, adapt=False, momentum=0.95)#    (10): ReLU()#    (11): Linear(in_features=16224, out_features=5, bias=True)#    (12): AbsBatchNorm1d(bias=True, abs_bias=False, momentum=0.1, eps=1e-05)#    (13): Softplus(beta=1, threshold=20)#  )#)#!0.858775794506073!512!0.6744951550743992!True!0.2623301290462224!!0.7177987244033612!0.4046566483109939!!!!!!!!!0.3802602956028343!!!!!!!!0.6789787623179621!!0.6365864174344976!!!!!!all![8, 24]!15-10-07!absbnbncnn!31!0.17741381150673374!0.0001!0.001!!!!0.0001!AbsBNBNCNN!100!!0.1!!absbnbncnn/results.txt!absbnbncnn/absbnbncnn_31_chans[8, 24]_lr0.0001_l20.001!!!16.0!0.2096219062805176!naturalscene
-2.21467561671457!0.5494996358007773!-2.1257048565894365!0.7333531436007369!0.4814389451940825!0.14731757839726864!0.5667939119183951!!0.4598429203033447!!!False!0.5513167436172313!AbsBNBNCNN(#  (sequential): Sequential(#    (0): Conv2d(40, 8, kernel_size=(15, 15), stride=(1, 1))#    (1): Flatten()#    (2): AbsBatchNorm1d(bias=True, abs_bias=False, momentum=0.99, eps=0.001)#    (3): GaussianNoise(std=0.1, trainable=False, adapt=False, momentum=0.95)#    (4): ReLU()#    (5): Reshape()#    (6): Conv2d(8, 64, kernel_size=(11, 11), stride=(1, 1))#    (7): Flatten()#    (8): AbsBatchNorm1d(bias=True, abs_bias=False, momentum=0.99, eps=0.001)#    (9): GaussianNoise(std=0.1, trainable=False, adapt=False, momentum=0.95)#    (10): ReLU()#    (11): Linear(in_features=43264, out_features=5, bias=True)#    (12): AbsBatchNorm1d(bias=True, abs_bias=False, momentum=0.1, eps=1e-05)#    (13): Softplus(beta=1, threshold=20)#  )#)#!0.4447610974311829!512!0.5667939119183951!True!0.4472090948880473!!0.6786025312646412!0.3342941891567549!!!!!!!!!0.4801417620332107!!!!!!!!0.6904243922620975!!0.5640353042871824!!!!!!all![8, 64]!15-10-07!absbnbncnn!32!0.2984287668293302!0.0001!0.01!!!!0.006999999999999999!AbsBNBNCNN!100!!0.1!!absbnbncnn/results.txt!absbnbncnn/absbnbncnn_32_chans[8, 64]_lr0.007_l20.01!!!16.0!0.1768188178539276!naturalscene
-3.0150167501530136!0.6884034281420143!-3.0535031964082013!0.6193080951426031!0.3965349905454058!0.14978634444742078!0.6758960578747073!!0.5421313047409058!!!False!0.4587732220721174!AbsBNBNCNN(#  (sequential): Sequential(#    (0): Conv2d(40, 8, kernel_size=(15, 15), stride=(1, 1))#    (1): Flatten()#    (2): AbsBatchNorm1d(bias=True, abs_bias=False, momentum=0.99, eps=0.001)#    (3): GaussianNoise(std=0.1, trainable=False, adapt=False, momentum=0.95)#    (4): ReLU()#    (5): Reshape()#    (6): Conv2d(8, 64, kernel_size=(11, 11), stride=(1, 1))#    (7): Flatten()#    (8): AbsBatchNorm1d(bias=True, abs_bias=False, momentum=0.99, eps=0.001)#    (9): GaussianNoise(std=0.1, trainable=False, adapt=False, momentum=0.95)#    (10): ReLU()#    (11): Linear(in_features=43264, out_features=5, bias=True)#    (12): AbsBatchNorm1d(bias=True, abs_bias=False, momentum=0.1, eps=1e-05)#    (13): Softplus(beta=1, threshold=20)#  )#)#!1.3718860149383545!512!0.6884034281420143!True!0.3516584893565338!!0.7661556777887031!0.5840870658011369!!!!!!!!!0.5631228448526889!!!!!!!!0.7512844329882121!!0.7773671192793302!!!!!!all![8, 64]!15-10-07!absbnbncnn!33!0.244724241334394!0.0001!0.001!!!!0.006999999999999999!AbsBNBNCNN!100!!0.1!!absbnbncnn/results.txt!absbnbncnn/absbnbncnn_33_chans[8, 64]_lr0.007_l20.001!!!16.0!0.2265516072511673!naturalscene
-2.4131191839010286!0.5943875431193386!-1.9413720925949758!0.7269255724728796!0.5069203340724849!0.19867327595095355!0.6158471922681923!!0.4850493371486664!!!False!0.566289477432509!AbsBNBNCNN(#  (sequential): Sequential(#    (0): Conv2d(40, 8, kernel_size=(15, 15), stride=(1, 1))#    (1): Flatten()#    (2): AbsBatchNorm1d(bias=True, abs_bias=False, momentum=0.99, eps=0.001)#    (3): GaussianNoise(std=0.1, trainable=False, adapt=False, momentum=0.95)#    (4): ReLU()#    (5): Reshape()#    (6): Conv2d(8, 64, kernel_size=(11, 11), stride=(1, 1))#    (7): Flatten()#    (8): AbsBatchNorm1d(bias=True, abs_bias=False, momentum=0.99, eps=0.001)#    (9): GaussianNoise(std=0.1, trainable=False, adapt=False, momentum=0.95)#    (10): ReLU()#    (11): Linear(in_features=43264, out_features=5, bias=True)#    (12): AbsBatchNorm1d(bias=True, abs_bias=False, momentum=0.1, eps=1e-05)#    (13): Softplus(beta=1, threshold=20)#  )#)#!0.9383389353752136!512!0.6158471922681923!True!0.4659775144570445!!0.6767822378944974!0.4808844277262282!!!!!!!!!0.4712530245360655!!!!!!!!0.6986276616986514!!0.6443903637412506!!!!!!all![8, 64]!15-10-07!absbnbncnn!34!0.3606573192488669!0.0001!0.01!!!!0.005!AbsBNBNCNN!100!!0.1!!absbnbncnn/results.txt!absbnbncnn/absbnbncnn_34_chans[8, 64]_lr0.005_l20.01!!!16.0!0.11817520856857301!naturalscene
-3.0371945915718426!0.6848719816738786!-3.0480859501876694!0.6675400725752241!0.4201401872621664!0.17022513109164336!0.6949244082167213!!0.5490682721137999!!!False!0.476085844149453!AbsBNBNCNN(#  (sequential): Sequential(#    (0): Conv2d(40, 8, kernel_size=(15, 15), stride=(1, 1))#    (1): Flatten()#    (2): AbsBatchNorm1d(bias=True, abs_bias=False, momentum=0.99, eps=0.001)#    (3): GaussianNoise(std=0.1, trainable=False, adapt=False, momentum=0.95)#    (4): ReLU()#    (5): Reshape()#    (6): Conv2d(8, 64, kernel_size=(11, 11), stride=(1, 1))#    (7): Flatten()#    (8): AbsBatchNorm1d(bias=True, abs_bias=False, momentum=0.99, eps=0.001)#    (9): GaussianNoise(std=0.1, trainable=False, adapt=False, momentum=0.95)#    (10): ReLU()#    (11): Linear(in_features=43264, out_features=5, bias=True)#    (12): AbsBatchNorm1d(bias=True, abs_bias=False, momentum=0.1, eps=1e-05)#    (13): Softplus(beta=1, threshold=20)#  )#)#!0.8570945858955383!512!0.6949244082167213!True!0.3757685338392194!!0.7740327571447051!0.5814021178469493!!!!!!!!!0.5953606117031758!!!!!!!!0.7354775276640458!!0.7380868940105173!!!!!!all![8, 64]!15-10-07!absbnbncnn!35!0.2868145025959317!0.0001!0.001!!!!0.005!AbsBNBNCNN!100!!0.1!!absbnbncnn/results.txt!absbnbncnn/absbnbncnn_35_chans[8, 64]_lr0.005_l20.001!!!16.0!0.35234060883522034!naturalscene
-2.7634814276414756!0.6939568926138904!-2.768342344881603!0.6624658461775736!0.4347628734292009!0.1433379901452023!0.6720362492811149!!0.5308744907379149!!!False!0.5052847320087727!AbsBNBNCNN(#  (sequential): Sequential(#    (0): Conv2d(40, 8, kernel_size=(15, 15), stride=(1, 1))#    (1): Flatten()#    (2): AbsBatchNorm1d(bias=True, abs_bias=False, momentum=0.99, eps=0.001)#    (3): GaussianNoise(std=0.1, trainable=False, adapt=False, momentum=0.95)#    (4): ReLU()#    (5): Reshape()#    (6): Conv2d(8, 64, kernel_size=(11, 11), stride=(1, 1))#    (7): Flatten()#    (8): AbsBatchNorm1d(bias=True, abs_bias=False, momentum=0.99, eps=0.001)#    (9): GaussianNoise(std=0.1, trainable=False, adapt=False, momentum=0.95)#    (10): ReLU()#    (11): Linear(in_features=43264, out_features=5, bias=True)#    (12): AbsBatchNorm1d(bias=True, abs_bias=False, momentum=0.1, eps=1e-05)#    (13): Softplus(beta=1, threshold=20)#  )#)#!0.5893932580947876!512!0.6939568926138904!True!0.3634703601250015!!0.7404649595449615!0.601835528938268!!!!!!!!!0.5741422700480223!!!!!!!!0.789514701325189!!0.7638270032130112!!!!!!all![8, 64]!15-10-07!absbnbncnn!36!0.2786470302604184!0.0001!0.01!!!!0.001!AbsBNBNCNN!100!!0.1!!absbnbncnn/results.txt!absbnbncnn/absbnbncnn_36_chans[8, 64]_lr0.001_l20.01!!!16.0!0.08901795744895935!naturalscene
-3.3513810359514675!0.667900454542045!-3.3703094753946066!0.6048018956649969!0.3633063004012987!0.12179207312540685!0.7146539635089991!!0.6262251138687134!!!False!0.4161378064937992!AbsBNBNCNN(#  (sequential): Sequential(#    (0): Conv2d(40, 8, kernel_size=(15, 15), stride=(1, 1))#    (1): Flatten()#    (2): AbsBatchNorm1d(bias=True, abs_bias=False, momentum=0.99, eps=0.001)#    (3): GaussianNoise(std=0.1, trainable=False, adapt=False, momentum=0.95)#    (4): ReLU()#    (5): Reshape()#    (6): Conv2d(8, 64, kernel_size=(11, 11), stride=(1, 1))#    (7): Flatten()#    (8): AbsBatchNorm1d(bias=True, abs_bias=False, momentum=0.99, eps=0.001)#    (9): GaussianNoise(std=0.1, trainable=False, adapt=False, momentum=0.95)#    (10): ReLU()#    (11): Linear(in_features=43264, out_features=5, bias=True)#    (12): AbsBatchNorm1d(bias=True, abs_bias=False, momentum=0.1, eps=1e-05)#    (13): Softplus(beta=1, threshold=20)#  )#)#!0.6222046613693237!512!0.7146539635089991!True!0.28863850194951196!!0.7101501030401426!0.5422319226334603!!!!!!!!!0.5405906418901533!!!!!!!!0.7369869967319106!!0.8095426084145587!!!!!!all![8, 64]!15-10-07!absbnbncnn!37!0.26288673647518723!0.0001!0.001!!!!0.001!AbsBNBNCNN!100!!0.1!!absbnbncnn/results.txt!absbnbncnn/absbnbncnn_37_chans[8, 64]_lr0.001_l20.001!!!16.0!0.146805077791214!naturalscene
-2.5655972720271323!0.6231606960560327!-2.128015451820829!0.7254414402056738!0.4825915865989529!0.1742756799780275!0.6319899667135196!!0.4973137378692627!!!False!0.5524273306347255!AbsBNBNCNN(#  (sequential): Sequential(#    (0): Conv2d(40, 16, kernel_size=(15, 15), stride=(1, 1))#    (1): Flatten()#    (2): AbsBatchNorm1d(bias=True, abs_bias=False, momentum=0.99, eps=0.001)#    (3): GaussianNoise(std=0.1, trainable=False, adapt=False, momentum=0.95)#    (4): ReLU()#    (5): Reshape()#    (6): Conv2d(16, 16, kernel_size=(11, 11), stride=(1, 1))#    (7): Flatten()#    (8): AbsBatchNorm1d(bias=True, abs_bias=False, momentum=0.99, eps=0.001)#    (9): GaussianNoise(std=0.1, trainable=False, adapt=False, momentum=0.95)#    (10): ReLU()#    (11): Linear(in_features=10816, out_features=5, bias=True)#    (12): AbsBatchNorm1d(bias=True, abs_bias=False, momentum=0.1, eps=1e-05)#    (13): Softplus(beta=1, threshold=20)#  )#)#!0.9171751141548156!512!0.6319899667135196!True!0.44930503641208575!!0.7115165645644995!0.5209474911593651!!!!!!!!!0.4869698086655857!!!!!!!!0.7086573398549968!!0.6877122760357168!!!!!!all![16, 16]!15-10-07!absbnbncnn!40!0.2989738935258657!0.0001!0.01!!!!0.006999999999999999!AbsBNBNCNN!100!!0.1!!absbnbncnn/results.txt!absbnbncnn/absbnbncnn_40_chans[16, 16]_lr0.007_l20.01!!!40.0!0.1719435751438141!naturalscene
-3.1162910788666967!0.6995699599607077!-3.09506142612554!0.666243590838078!0.41037865877212737!0.14638435397234986!0.6969823635743856!!0.564356803894043!!!False!0.4802129966547711!AbsBNBNCNN(#  (sequential): Sequential(#    (0): Conv2d(40, 16, kernel_size=(15, 15), stride=(1, 1))#    (1): Flatten()#    (2): AbsBatchNorm1d(bias=True, abs_bias=False, momentum=0.99, eps=0.001)#    (3): GaussianNoise(std=0.1, trainable=False, adapt=False, momentum=0.95)#    (4): ReLU()#    (5): Reshape()#    (6): Conv2d(16, 16, kernel_size=(11, 11), stride=(1, 1))#    (7): Flatten()#    (8): AbsBatchNorm1d(bias=True, abs_bias=False, momentum=0.99, eps=0.001)#    (9): GaussianNoise(std=0.1, trainable=False, adapt=False, momentum=0.95)#    (10): ReLU()#    (11): Linear(in_features=10816, out_features=5, bias=True)#    (12): AbsBatchNorm1d(bias=True, abs_bias=False, momentum=0.1, eps=1e-05)#    (13): Softplus(beta=1, threshold=20)#  )#)#!1.0609195232391355!512!0.6995699599607077!True!0.3540277886706601!!0.7842732242199855!0.5719526847551519!!!!!!!!!0.6057347244495525!!!!!!!!0.7286532433109272!!0.8072359230679209!!!!!!all![16, 16]!15-10-07!absbnbncnn!41!0.24470409964755946!0.0001!0.001!!!!0.006999999999999999!AbsBNBNCNN!100!!0.1!!absbnbncnn/results.txt!absbnbncnn/absbnbncnn_41_chans[16, 16]_lr0.007_l20.001!!!40.0!0.4317863881587982!naturalscene
-2.5462475892825003!0.635892916388061!-2.284572524746181!0.7361424080814042!0.469984403877823!0.1399632320952077!0.6338086246412451!!0.5005820989608765!!!False!0.5400136412044648!AbsBNBNCNN(#  (sequential): Sequential(#    (0): Conv2d(40, 16, kernel_size=(15, 15), stride=(1, 1))#    (1): Flatten()#    (2): AbsBatchNorm1d(bias=True, abs_bias=False, momentum=0.99, eps=0.001)#    (3): GaussianNoise(std=0.1, trainable=False, adapt=False, momentum=0.95)#    (4): ReLU()#    (5): Reshape()#    (6): Conv2d(16, 16, kernel_size=(11, 11), stride=(1, 1))#    (7): Flatten()#    (8): AbsBatchNorm1d(bias=True, abs_bias=False, momentum=0.99, eps=0.001)#    (9): GaussianNoise(std=0.1, trainable=False, adapt=False, momentum=0.95)#    (10): ReLU()#    (11): Linear(in_features=10816, out_features=5, bias=True)#    (12): AbsBatchNorm1d(bias=True, abs_bias=False, momentum=0.1, eps=1e-05)#    (13): Softplus(beta=1, threshold=20)#  )#)#!0.6864694356918335!512!0.635892916388061!True!0.4405989755259844!!0.7169716782397202!0.5049984555664842!!!!!!!!!0.5382235048362717!!!!!!!!0.7121685893990165!!0.7071023538988127!!!!!!all![16, 16]!15-10-07!absbnbncnn!42!0.28275202506043856!0.0001!0.01!!!!0.005!AbsBNBNCNN!100!!0.1!!absbnbncnn/results.txt!absbnbncnn/absbnbncnn_42_chans[16, 16]_lr0.005_l20.01!!!40.0!0.3221504092216492!naturalscene
-3.0799530514404965!0.6804488486233066!-3.0293820513034007!0.6153939545728464!0.4183425707373328!0.1618863952534786!0.6963334616795802!!0.558976948261261!!!False!0.4729166005181526!AbsBNBNCNN(#  (sequential): Sequential(#    (0): Conv2d(40, 16, kernel_size=(15, 15), stride=(1, 1))#    (1): Flatten()#    (2): AbsBatchNorm1d(bias=True, abs_bias=False, momentum=0.99, eps=0.001)#    (3): GaussianNoise(std=0.1, trainable=False, adapt=False, momentum=0.95)#    (4): ReLU()#    (5): Reshape()#    (6): Conv2d(16, 16, kernel_size=(11, 11), stride=(1, 1))#    (7): Flatten()#    (8): AbsBatchNorm1d(bias=True, abs_bias=False, momentum=0.99, eps=0.001)#    (9): GaussianNoise(std=0.1, trainable=False, adapt=False, momentum=0.95)#    (10): ReLU()#    (11): Linear(in_features=10816, out_features=5, bias=True)#    (12): AbsBatchNorm1d(bias=True, abs_bias=False, momentum=0.1, eps=1e-05)#    (13): Softplus(beta=1, threshold=20)#  )#)#!0.8251087069511414!512!0.6963334616795802!True!0.3707902417554613!!0.7422909798647452!0.5821818323888066!!!!!!!!!0.5635856062018986!!!!!!!!0.7629766069644659!!0.7512092176966166!!!!!!all![16, 16]!15-10-07!absbnbncnn!43!0.2916056261585511!0.0001!0.001!!!!0.005!AbsBNBNCNN!100!!0.1!!absbnbncnn/results.txt!absbnbncnn/absbnbncnn_43_chans[16, 16]_lr0.005_l20.001!!!40.0!0.17318744957447052!naturalscene
-2.842541654365275!0.7214703608730418!-3.0435895574555616!0.6528804541809822!0.4177636738795157!0.13779520871843595!0.6815858330792535!!0.5280449986457825!!!False!0.4648281389193308!AbsBNBNCNN(#  (sequential): Sequential(#    (0): Conv2d(40, 16, kernel_size=(15, 15), stride=(1, 1))#    (1): Flatten()#    (2): AbsBatchNorm1d(bias=True, abs_bias=False, momentum=0.99, eps=0.001)#    (3): GaussianNoise(std=0.1, trainable=False, adapt=False, momentum=0.95)#    (4): ReLU()#    (5): Reshape()#    (6): Conv2d(16, 16, kernel_size=(11, 11), stride=(1, 1))#    (7): Flatten()#    (8): AbsBatchNorm1d(bias=True, abs_bias=False, momentum=0.99, eps=0.001)#    (9): GaussianNoise(std=0.1, trainable=False, adapt=False, momentum=0.95)#    (10): ReLU()#    (11): Linear(in_features=10816, out_features=5, bias=True)#    (12): AbsBatchNorm1d(bias=True, abs_bias=False, momentum=0.1, eps=1e-05)#    (13): Softplus(beta=1, threshold=20)#  )#)#!0.9690327644348145!512!0.7214703608730418!True!0.3409611939679434!!0.7541553851275518!0.6277821059989177!!!!!!!!!0.6063934338438829!!!!!!!!0.8080520195022834!!0.8109688598925734!!!!!!all![16, 16]!15-10-07!absbnbncnn!44!0.3363055409135158!0.0001!0.01!!!!0.001!AbsBNBNCNN!100!!0.1!!absbnbncnn/results.txt!absbnbncnn/absbnbncnn_44_chans[16, 16]_lr0.001_l20.01!!!40.0!0.20775137841701508!naturalscene
-3.408791085533786!0.6672309270239607!-3.179780692113128!0.5660032677444089!0.3709128833243508!0.09951886992386877!0.7390946989798752!!0.6134458780288696!!!False!0.4077542941875985!AbsBNBNCNN(#  (sequential): Sequential(#    (0): Conv2d(40, 16, kernel_size=(15, 15), stride=(1, 1))#    (1): Flatten()#    (2): AbsBatchNorm1d(bias=True, abs_bias=False, momentum=0.99, eps=0.001)#    (3): GaussianNoise(std=0.1, trainable=False, adapt=False, momentum=0.95)#    (4): ReLU()#    (5): Reshape()#    (6): Conv2d(16, 16, kernel_size=(11, 11), stride=(1, 1))#    (7): Flatten()#    (8): AbsBatchNorm1d(bias=True, abs_bias=False, momentum=0.99, eps=0.001)#    (9): GaussianNoise(std=0.1, trainable=False, adapt=False, momentum=0.95)#    (10): ReLU()#    (11): Linear(in_features=10816, out_features=5, bias=True)#    (12): AbsBatchNorm1d(bias=True, abs_bias=False, momentum=0.1, eps=1e-05)#    (13): Softplus(beta=1, threshold=20)#  )#)#!0.9589155912399292!512!0.7390946989798752!True!0.2948940614307789!!0.7138861812285262!0.5663998533051522!!!!!!!!!0.5576798019762966!!!!!!!!0.7181197840587591!!0.7800690145510691!!!!!!all![16, 16]!15-10-07!absbnbncnn!45!0.3195144010962749!0.0001!0.001!!!!0.001!AbsBNBNCNN!100!!0.1!!absbnbncnn/results.txt!absbnbncnn/absbnbncnn_45_chans[16, 16]_lr0.001_l20.001!!!40.0!0.1439797580242157!naturalscene
-2.845507737737975!0.6725073659543678!-2.4858307053982567!0.6185912528928456!0.35971569239880785!0.1260365337664845!0.7010186021712652!!0.5429168939590454!!!False!0.4246185010617395!AbsBNBNCNN(#  (sequential): Sequential(#    (0): Conv2d(40, 16, kernel_size=(15, 15), stride=(1, 1))#    (1): Flatten()#    (2): AbsBatchNorm1d(bias=True, abs_bias=False, momentum=0.99, eps=0.001)#    (3): GaussianNoise(std=0.1, trainable=False, adapt=False, momentum=0.95)#    (4): ReLU()#    (5): Reshape()#    (6): Conv2d(16, 16, kernel_size=(11, 11), stride=(1, 1))#    (7): Flatten()#    (8): AbsBatchNorm1d(bias=True, abs_bias=False, momentum=0.99, eps=0.001)#    (9): GaussianNoise(std=0.1, trainable=False, adapt=False, momentum=0.95)#    (10): ReLU()#    (11): Linear(in_features=10816, out_features=5, bias=True)#    (12): AbsBatchNorm1d(bias=True, abs_bias=False, momentum=0.1, eps=1e-05)#    (13): Softplus(beta=1, threshold=20)#  )#)#!0.8895777463912964!512!0.7010186021712652!True!0.2998303669807269!!0.7592930849360783!0.626972696303259!!!!!!!!!0.5647188441392502!!!!!!!!0.6903947420099681!!0.7211574623832829!!!!!!all![16, 16]!15-10-07!absbnbncnn!46!0.21158474173518704!0.0001!0.01!!!!0.0001!AbsBNBNCNN!100!!0.1!!absbnbncnn/results.txt!absbnbncnn/absbnbncnn_46_chans[16, 16]_lr0.0001_l20.01!!!40.0!0.15063145756721494!naturalscene
-3.659890102225371!0.5725300278088243!-3.626555843729875!0.5954748947722359!0.3284515716545699!0.1104402944414128!0.6823855211947061!!0.6761770844459534!!!False!0.3905438269623612!AbsBNBNCNN(#  (sequential): Sequential(#    (0): Conv2d(40, 16, kernel_size=(15, 15), stride=(1, 1))#    (1): Flatten()#    (2): AbsBatchNorm1d(bias=True, abs_bias=False, momentum=0.99, eps=0.001)#    (3): GaussianNoise(std=0.1, trainable=False, adapt=False, momentum=0.95)#    (4): ReLU()#    (5): Reshape()#    (6): Conv2d(16, 16, kernel_size=(11, 11), stride=(1, 1))#    (7): Flatten()#    (8): AbsBatchNorm1d(bias=True, abs_bias=False, momentum=0.99, eps=0.001)#    (9): GaussianNoise(std=0.1, trainable=False, adapt=False, momentum=0.95)#    (10): ReLU()#    (11): Linear(in_features=10816, out_features=5, bias=True)#    (12): AbsBatchNorm1d(bias=True, abs_bias=False, momentum=0.1, eps=1e-05)#    (13): Softplus(beta=1, threshold=20)#  )#)#!0.7394855618476868!512!0.6823855211947061!True!0.2716383665793277!!0.7253602948788384!0.44883447372479707!!!!!!!!!0.4304022856112974!!!!!!!!0.6148408978206948!!0.6432121870084936!!!!!!all![16, 16]!15-10-07!absbnbncnn!47!0.18636285412305054!0.0001!0.001!!!!0.0001!AbsBNBNCNN!100!!0.1!!absbnbncnn/results.txt!absbnbncnn/absbnbncnn_47_chans[16, 16]_lr0.0001_l20.001!!!40.0!0.3245259523391724!naturalscene
-2.5527623853172834!0.6099955999126571!-2.095289633241918!0.6016838250140751!0.3645862530345888!0.10721308697086084!0.6077340556212041!!0.4796430468559265!!!False!0.3782874890951088!AbsBNBNCNN(#  (sequential): Sequential(#    (0): Conv2d(40, 16, kernel_size=(15, 15), stride=(1, 1))#    (1): Flatten()#    (2): AbsBatchNorm1d(bias=True, abs_bias=False, momentum=0.99, eps=0.001)#    (3): GaussianNoise(std=0.1, trainable=False, adapt=False, momentum=0.95)#    (4): ReLU()#    (5): Reshape()#    (6): Conv2d(16, 24, kernel_size=(11, 11), stride=(1, 1))#    (7): Flatten()#    (8): AbsBatchNorm1d(bias=True, abs_bias=False, momentum=0.99, eps=0.001)#    (9): GaussianNoise(std=0.1, trainable=False, adapt=False, momentum=0.95)#    (10): ReLU()#    (11): Linear(in_features=16224, out_features=5, bias=True)#    (12): AbsBatchNorm1d(bias=True, abs_bias=False, momentum=0.1, eps=1e-05)#    (13): Softplus(beta=1, threshold=20)#  )#)#!0.6914861798286438!512!0.6099955999126571!True!0.3331244458263138!!0.7306765902993202!0.3868790920055655!!!!!!!!!0.5350316576024706!!!!!!!!0.7269205413082808!!0.6704701183476481!!!!!!all![16, 24]!15-10-07!absbnbncnn!48!0.3479528393483535!0.0001!0.01!!!!0.006999999999999999!AbsBNBNCNN!100!!0.1!!absbnbncnn/results.txt!absbnbncnn/absbnbncnn_48_chans[16, 24]_lr0.007_l20.01!!!40.0!0.20408721268177032!naturalscene
-3.0609342097157266!0.7111425123995876!-3.0983971120931537!0.6568721262607479!0.42228744056243!0.15969019696114234!0.6893538801156098!!0.5474950075149536!!!False!0.4906104100576034!AbsBNBNCNN(#  (sequential): Sequential(#    (0): Conv2d(40, 16, kernel_size=(15, 15), stride=(1, 1))#    (1): Flatten()#    (2): AbsBatchNorm1d(bias=True, abs_bias=False, momentum=0.99, eps=0.001)#    (3): GaussianNoise(std=0.1, trainable=False, adapt=False, momentum=0.95)#    (4): ReLU()#    (5): Reshape()#    (6): Conv2d(16, 24, kernel_size=(11, 11), stride=(1, 1))#    (7): Flatten()#    (8): AbsBatchNorm1d(bias=True, abs_bias=False, momentum=0.99, eps=0.001)#    (9): GaussianNoise(std=0.1, trainable=False, adapt=False, momentum=0.95)#    (10): ReLU()#    (11): Linear(in_features=16224, out_features=5, bias=True)#    (12): AbsBatchNorm1d(bias=True, abs_bias=False, momentum=0.1, eps=1e-05)#    (13): Softplus(beta=1, threshold=20)#  )#)#!0.7827666997909546!512!0.7111425123995876!True!0.3600588272203505!!0.7743595243728315!0.602810617044995!!!!!!!!!0.6345506077318729!!!!!!!!0.7894005230245429!!0.7545912898236959!!!!!!all![16, 24]!15-10-07!absbnbncnn!49!0.2657185646763047!0.0001!0.001!!!!0.006999999999999999!AbsBNBNCNN!100!!0.1!!absbnbncnn/results.txt!absbnbncnn/absbnbncnn_49_chans[16, 24]_lr0.007_l20.001!!!40.0!0.14578650891780853!naturalscene
-2.5109589509834533!0.6344336980745096!-2.002939805654023!0.7288523015918702!0.47824140358502!0.2100061116764516!0.6236437736724867!!0.4773261547088623!!!False!0.5354691291206837!AbsBNBNCNN(#  (sequential): Sequential(#    (0): Conv2d(40, 16, kernel_size=(15, 15), stride=(1, 1))#    (1): Flatten()#    (2): AbsBatchNorm1d(bias=True, abs_bias=False, momentum=0.99, eps=0.001)#    (3): GaussianNoise(std=0.1, trainable=False, adapt=False, momentum=0.95)#    (4): ReLU()#    (5): Reshape()#    (6): Conv2d(16, 24, kernel_size=(11, 11), stride=(1, 1))#    (7): Flatten()#    (8): AbsBatchNorm1d(bias=True, abs_bias=False, momentum=0.99, eps=0.001)#    (9): GaussianNoise(std=0.1, trainable=False, adapt=False, momentum=0.95)#    (10): ReLU()#    (11): Linear(in_features=16224, out_features=5, bias=True)#    (12): AbsBatchNorm1d(bias=True, abs_bias=False, momentum=0.1, eps=1e-05)#    (13): Softplus(beta=1, threshold=20)#  )#)#!0.8520263433456421!512!0.6344336980745096!True!0.4323681885940994!!0.7002941250822455!0.5373839211610846!!!!!!!!!0.4941718004992046!!!!!!!!0.7259147185311322!!0.7144039250988811!!!!!!all![16, 24]!15-10-07!absbnbncnn!50!0.34223739419318905!0.0001!0.01!!!!0.005!AbsBNBNCNN!100!!0.1!!absbnbncnn/results.txt!absbnbncnn/absbnbncnn_50_chans[16, 24]_lr0.005_l20.01!!!40.0!0.121321901679039!naturalscene
-3.0941961728609524!0.6869875414151954!-3.1126901557199744!0.6807106989657993!0.4257517839763905!0.09952743889680107!0.6884026412209256!!0.5489718914031982!!!False!0.48530957891800897!AbsBNBNCNN(#  (sequential): Sequential(#    (0): Conv2d(40, 16, kernel_size=(15, 15), stride=(1, 1))#    (1): Flatten()#    (2): AbsBatchNorm1d(bias=True, abs_bias=False, momentum=0.99, eps=0.001)#    (3): GaussianNoise(std=0.1, trainable=False, adapt=False, momentum=0.95)#    (4): ReLU()#    (5): Reshape()#    (6): Conv2d(16, 24, kernel_size=(11, 11), stride=(1, 1))#    (7): Flatten()#    (8): AbsBatchNorm1d(bias=True, abs_bias=False, momentum=0.99, eps=0.001)#    (9): GaussianNoise(std=0.1, trainable=False, adapt=False, momentum=0.95)#    (10): ReLU()#    (11): Linear(in_features=16224, out_features=5, bias=True)#    (12): AbsBatchNorm1d(bias=True, abs_bias=False, momentum=0.1, eps=1e-05)#    (13): Softplus(beta=1, threshold=20)#  )#)#!1.150623440742493!512!0.6884026412209256!True!0.3514086348963744!!0.7615707979816703!0.5861434884802971!!!!!!!!!0.6134965118320014!!!!!!!!0.7549782331719802!!0.7187486756100279!!!!!!all![16, 24]!15-10-07!absbnbncnn!51!0.3049008484359923!0.0001!0.001!!!!0.005!AbsBNBNCNN!100!!0.1!!absbnbncnn/results.txt!absbnbncnn/absbnbncnn_51_chans[16, 24]_lr0.005_l20.001!!!40.0!0.28992998600006104!naturalscene
-3.0038218633082123!0.6819251725071586!-2.9357738233549755!0.6468977531174582!0.4405858105292567!0.14383089258891754!0.6784158445154137!!0.5399245023727417!!!False!0.5025066946878316!AbsBNBNCNN(#  (sequential): Sequential(#    (0): Conv2d(40, 10, kernel_size=(15, 15), stride=(1, 1))#    (1): Flatten()#    (2): AbsBatchNorm1d(bias=True, abs_bias=False, momentum=0.99, eps=0.001)#    (3): GaussianNoise(std=0.1, trainable=False, adapt=False, momentum=0.95)#    (4): ReLU()#    (5): Reshape()#    (6): Conv2d(10, 10, kernel_size=(11, 11), stride=(1, 1))#    (7): Flatten()#    (8): AbsBatchNorm1d(bias=True, abs_bias=False, momentum=0.99, eps=0.001)#    (9): GaussianNoise(std=0.1, trainable=False, adapt=False, momentum=0.95)#    (10): ReLU()#    (11): Linear(in_features=6760, out_features=5, bias=True)#    (12): AbsBatchNorm1d(bias=True, abs_bias=False, momentum=0.1, eps=1e-05)#    (13): Softplus(beta=1, threshold=20)#  )#)#!0.5269652605056763!512!0.6819251725071586!True!0.3756963853522479!!0.7465121100197413!0.5833333687196767!!!!!!!!!0.5507956177115461!!!!!!!!0.7670992951977429!!0.7618854708870857!!!!!!all![10, 10]!15-10-07!absbnbncnn!52!0.30529271096898325!0.0001!0.001!!!!0.006999999999999999!AbsBNBNCNN!85!!0.1!!absbnbncnn/results.txt!absbnbncnn/absbnbncnn_52_lr0.007_chans[10, 10]!!!52.0!0.15697413682937622!naturalscene
-3.0572602752466898!0.6783781134896407!-3.068256038245454!0.6824536830348975!0.4090953810771106!0.1500873220548099!0.6837617258729489!!0.5560445189476013!!!False!0.4773779363213655!AbsBNBNCNN(#  (sequential): Sequential(#    (0): Conv2d(40, 12, kernel_size=(15, 15), stride=(1, 1))#    (1): Flatten()#    (2): AbsBatchNorm1d(bias=True, abs_bias=False, momentum=0.99, eps=0.001)#    (3): GaussianNoise(std=0.1, trainable=False, adapt=False, momentum=0.95)#    (4): ReLU()#    (5): Reshape()#    (6): Conv2d(12, 12, kernel_size=(11, 11), stride=(1, 1))#    (7): Flatten()#    (8): AbsBatchNorm1d(bias=True, abs_bias=False, momentum=0.99, eps=0.001)#    (9): GaussianNoise(std=0.1, trainable=False, adapt=False, momentum=0.95)#    (10): ReLU()#    (11): Linear(in_features=8112, out_features=5, bias=True)#    (12): AbsBatchNorm1d(bias=True, abs_bias=False, momentum=0.1, eps=1e-05)#    (13): Softplus(beta=1, threshold=20)#  )#)#!1.1827423572540283!512!0.6837617258729489!True!0.3661466956793436!!0.7570220726940715!0.5531805045857183!!!!!!!!!0.5868708767314577!!!!!!!!0.7256422173638549!!0.7691748960731011!!!!!!all![12, 12]!15-10-07!absbnbncnn!53!0.23765224843149824!0.0001!0.001!!!!0.006999999999999999!AbsBNBNCNN!85!!0.1!!absbnbncnn/results.txt!absbnbncnn/absbnbncnn_53_lr0.007_chans[12, 12]!!!52.0!0.2573962211608887!naturalscene
-3.067173482066366!0.6961429585426594!-3.1491870978752567!0.6526862151795565!0.4164280730565201!0.1557824769626229!0.6937052264340805!!0.5537539720535278!!!False!0.4838546279432026!AbsBNBNCNN(#  (sequential): Sequential(#    (0): Conv2d(40, 14, kernel_size=(15, 15), stride=(1, 1))#    (1): Flatten()#    (2): AbsBatchNorm1d(bias=True, abs_bias=False, momentum=0.99, eps=0.001)#    (3): GaussianNoise(std=0.1, trainable=False, adapt=False, momentum=0.95)#    (4): ReLU()#    (5): Reshape()#    (6): Conv2d(14, 14, kernel_size=(11, 11), stride=(1, 1))#    (7): Flatten()#    (8): AbsBatchNorm1d(bias=True, abs_bias=False, momentum=0.99, eps=0.001)#    (9): GaussianNoise(std=0.1, trainable=False, adapt=False, momentum=0.95)#    (10): ReLU()#    (11): Linear(in_features=9464, out_features=5, bias=True)#    (12): AbsBatchNorm1d(bias=True, abs_bias=False, momentum=0.1, eps=1e-05)#    (13): Softplus(beta=1, threshold=20)#  )#)#!0.9650074243545532!512!0.6961429585426594!True!0.3697310997095814!!0.7577854044109905!0.6199222844915765!!!!!!!!!0.5889404172426178!!!!!!!!0.7563164599798676!!0.7577502265882446!!!!!!all![14, 14]!15-10-07!absbnbncnn!54!0.2504682765552024!0.0001!0.001!!!!0.006999999999999999!AbsBNBNCNN!85!!0.1!!absbnbncnn/results.txt!absbnbncnn/absbnbncnn_54_lr0.007_chans[14, 14]!!!52.0!0.21644482016563416!naturalscene
-3.0830936014742147!0.6800226857132314!-3.020285425978364!0.6983851651322964!0.4446050788284945!0.15869621244025006!0.7024403182250942!!0.5647026300430298!!!False!0.4998155859215999!AbsBNBNCNN(#  (sequential): Sequential(#    (0): Conv2d(40, 18, kernel_size=(15, 15), stride=(1, 1))#    (1): Flatten()#    (2): AbsBatchNorm1d(bias=True, abs_bias=False, momentum=0.99, eps=0.001)#    (3): GaussianNoise(std=0.1, trainable=False, adapt=False, momentum=0.95)#    (4): ReLU()#    (5): Reshape()#    (6): Conv2d(18, 18, kernel_size=(11, 11), stride=(1, 1))#    (7): Flatten()#    (8): AbsBatchNorm1d(bias=True, abs_bias=False, momentum=0.99, eps=0.001)#    (9): GaussianNoise(std=0.1, trainable=False, adapt=False, momentum=0.95)#    (10): ReLU()#    (11): Linear(in_features=12168, out_features=5, bias=True)#    (12): AbsBatchNorm1d(bias=True, abs_bias=False, momentum=0.1, eps=1e-05)#    (13): Softplus(beta=1, threshold=20)#  )#)#!1.1829016208648682!512!0.7024403182250942!True!0.39169233875930265!!0.7456236901170861!0.5702494990955372!!!!!!!!!0.5635948088443228!!!!!!!!0.7394914966328064!!0.7811539338764047!!!!!!all![18, 18]!15-10-07!absbnbncnn!55!0.3201279109363274!0.0001!0.001!!!!0.006999999999999999!AbsBNBNCNN!85!!0.1!!absbnbncnn/results.txt!absbnbncnn/absbnbncnn_55_lr0.007_chans[18, 18]!!!52.0!0.31040892004966736!naturalscene
-3.4401590669496747!0.6452565489445314!-3.6254300316730217!0.5827782348843654!0.3424688035926854!0.13269434949994507!0.7181983001146246!!0.6166962385177612!!!False!0.3974292306318923!AbsBNBNCNN(#  (sequential): Sequential(#    (0): Conv2d(40, 10, kernel_size=(15, 15), stride=(1, 1))#    (1): Flatten()#    (2): AbsBatchNorm1d(bias=True, abs_bias=False, momentum=0.99, eps=0.001)#    (3): GaussianNoise(std=0.1, trainable=False, adapt=False, momentum=0.95)#    (4): ReLU()#    (5): Reshape()#    (6): Conv2d(10, 10, kernel_size=(11, 11), stride=(1, 1))#    (7): Flatten()#    (8): AbsBatchNorm1d(bias=True, abs_bias=False, momentum=0.99, eps=0.001)#    (9): GaussianNoise(std=0.1, trainable=False, adapt=False, momentum=0.95)#    (10): ReLU()#    (11): Linear(in_features=6760, out_features=5, bias=True)#    (12): AbsBatchNorm1d(bias=True, abs_bias=False, momentum=0.1, eps=1e-05)#    (13): Softplus(beta=1, threshold=20)#  )#)#!0.9154468774795532!512!0.7181983001146246!True!0.29110456779987903!!0.7641595211006292!0.5613414345698006!!!!!!!!!0.4953063612501264!!!!!!!!0.6778013574338267!!0.7276740703682745!!!!!!all![10, 10]!15-10-07!absbnbncnn!56!0.21753748364724707!0.0001!0.001!!!!0.001!AbsBNBNCNN!85!!0.1!!absbnbncnn/results.txt!absbnbncnn/absbnbncnn_56_lr0.001_chans[10, 10]!!!52.0!0.05329592153429985!naturalscene
-3.4086858463862724!0.6401166770320892!-3.229655254057433!0.5819462300177961!0.3724136988494559!0.13649261200376642!0.7296393486975459!!0.6221537590026855!!!False!0.4186632287252874!AbsBNBNCNN(#  (sequential): Sequential(#    (0): Conv2d(40, 12, kernel_size=(15, 15), stride=(1, 1))#    (1): Flatten()#    (2): AbsBatchNorm1d(bias=True, abs_bias=False, momentum=0.99, eps=0.001)#    (3): GaussianNoise(std=0.1, trainable=False, adapt=False, momentum=0.95)#    (4): ReLU()#    (5): Reshape()#    (6): Conv2d(12, 12, kernel_size=(11, 11), stride=(1, 1))#    (7): Flatten()#    (8): AbsBatchNorm1d(bias=True, abs_bias=False, momentum=0.99, eps=0.001)#    (9): GaussianNoise(std=0.1, trainable=False, adapt=False, momentum=0.95)#    (10): ReLU()#    (11): Linear(in_features=8112, out_features=5, bias=True)#    (12): AbsBatchNorm1d(bias=True, abs_bias=False, momentum=0.1, eps=1e-05)#    (13): Softplus(beta=1, threshold=20)#  )#)#!0.7274932265281677!512!0.7296393486975459!True!0.3146076201155281!!0.7945496235188905!0.478477815190976!!!!!!!!!0.5530448413356209!!!!!!!!0.7195061834238176!!0.6550049216911412!!!!!!all![12, 12]!15-10-07!absbnbncnn!57!0.27862539268168296!0.0001!0.001!!!!0.001!AbsBNBNCNN!85!!0.1!!absbnbncnn/results.txt!absbnbncnn/absbnbncnn_57_lr0.001_chans[12, 12]!!!52.0!0.1682644486427307!naturalscene
-3.3740410743615565!0.6382487891618316!-3.1371123686905777!0.6059489086846028!0.3724265343266411!0.12479392050948013!0.7333298432503259!!0.6154800057411194!!!False!0.4236284291098405!AbsBNBNCNN(#  (sequential): Sequential(#    (0): Conv2d(40, 14, kernel_size=(15, 15), stride=(1, 1))#    (1): Flatten()#    (2): AbsBatchNorm1d(bias=True, abs_bias=False, momentum=0.99, eps=0.001)#    (3): GaussianNoise(std=0.1, trainable=False, adapt=False, momentum=0.95)#    (4): ReLU()#    (5): Reshape()#    (6): Conv2d(14, 14, kernel_size=(11, 11), stride=(1, 1))#    (7): Flatten()#    (8): AbsBatchNorm1d(bias=True, abs_bias=False, momentum=0.99, eps=0.001)#    (9): GaussianNoise(std=0.1, trainable=False, adapt=False, momentum=0.95)#    (10): ReLU()#    (11): Linear(in_features=9464, out_features=5, bias=True)#    (12): AbsBatchNorm1d(bias=True, abs_bias=False, momentum=0.1, eps=1e-05)#    (13): Softplus(beta=1, threshold=20)#  )#)#!0.5293834805488586!512!0.7333298432503259!True!0.32707196691747786!!0.7255566557694098!0.5868033056178815!!!!!!!!!0.4873073526361288!!!!!!!!0.6225492407242805!!0.7690273910614569!!!!!!all![14, 14]!15-10-07!absbnbncnn!58!0.2540966246286145!0.0001!0.001!!!!0.001!AbsBNBNCNN!85!!0.1!!absbnbncnn/results.txt!absbnbncnn/absbnbncnn_58_lr0.001_chans[14, 14]!!!52.0!0.2734772861003876!naturalscene
-3.329116469774492!0.6626799196591696!-3.039629488497667!0.6673926473237508!0.38623436735794!0.12301322206820466!0.7203616999280097!!0.6196966171264648!!!False!0.4466385874303221!AbsBNBNCNN(#  (sequential): Sequential(#    (0): Conv2d(40, 18, kernel_size=(15, 15), stride=(1, 1))#    (1): Flatten()#    (2): AbsBatchNorm1d(bias=True, abs_bias=False, momentum=0.99, eps=0.001)#    (3): GaussianNoise(std=0.1, trainable=False, adapt=False, momentum=0.95)#    (4): ReLU()#    (5): Reshape()#    (6): Conv2d(18, 18, kernel_size=(11, 11), stride=(1, 1))#    (7): Flatten()#    (8): AbsBatchNorm1d(bias=True, abs_bias=False, momentum=0.99, eps=0.001)#    (9): GaussianNoise(std=0.1, trainable=False, adapt=False, momentum=0.95)#    (10): ReLU()#    (11): Linear(in_features=12168, out_features=5, bias=True)#    (12): AbsBatchNorm1d(bias=True, abs_bias=False, momentum=0.1, eps=1e-05)#    (13): Softplus(beta=1, threshold=20)#  )#)#!0.8789113759994507!512!0.7203616999280097!True!0.31448998719570664!!0.7714912563142329!0.5153688774177464!!!!!!!!!0.5785790317184863!!!!!!!!0.6441339087129291!!0.8038265241324536!!!!!!all![18, 18]!15-10-07!absbnbncnn!59!0.2608228917114201!0.0001!0.001!!!!0.001!AbsBNBNCNN!85!!0.1!!absbnbncnn/results.txt!absbnbncnn/absbnbncnn_59_lr0.001_chans[18, 18]!!!52.0!0.1581382006406784!naturalscene
-3.460608425543138!0.6711778046419824!-3.2947783948380684!0.6257097108669829!0.35565674716013723!0.09213907071428612!0.7352902060473074!!0.6279265284538269!!!False!0.4081721673949897!AbsBNBNCNN(#  (sequential): Sequential(#    (0): Conv2d(40, 10, kernel_size=(15, 15), stride=(1, 1))#    (1): Flatten()#    (2): AbsBatchNorm1d(bias=True, abs_bias=False, momentum=0.99, eps=0.001)#    (3): GaussianNoise(std=0.1, trainable=False, adapt=False, momentum=0.95)#    (4): ReLU()#    (5): Reshape()#    (6): Conv2d(10, 10, kernel_size=(11, 11), stride=(1, 1))#    (7): Flatten()#    (8): AbsBatchNorm1d(bias=True, abs_bias=False, momentum=0.99, eps=0.001)#    (9): GaussianNoise(std=0.1, trainable=False, adapt=False, momentum=0.95)#    (10): ReLU()#    (11): Linear(in_features=6760, out_features=5, bias=True)#    (12): AbsBatchNorm1d(bias=True, abs_bias=False, momentum=0.1, eps=1e-05)#    (13): Softplus(beta=1, threshold=20)#  )#)#!1.3471052646636963!512!0.7352902060473074!True!0.2976204781885232!!0.7459259242120255!0.5433081845943073!!!!!!!!!0.5486565633494764!!!!!!!!0.7514241862439248!!0.7665741648101779!!!!!!all![10, 10]!15-10-07!absbnbncnn!60!0.2432498067668349!0.0001!0.001!!!!0.0005!AbsBNBNCNN!85!!0.1!!absbnbncnn/results.txt!absbnbncnn/absbnbncnn_60_lr0.0005_chans[10, 10]!!!52.0!0.4247846007347107!naturalscene
-3.546645037099427!0.6108649303755622!-3.4338971350676735!0.5956108549431804!0.3484639705387972!0.13241748430231987!0.7061256270139304!!0.6382166147232056!!!False!0.4054513334830925!AbsBNBNCNN(#  (sequential): Sequential(#    (0): Conv2d(40, 12, kernel_size=(15, 15), stride=(1, 1))#    (1): Flatten()#    (2): AbsBatchNorm1d(bias=True, abs_bias=False, momentum=0.99, eps=0.001)#    (3): GaussianNoise(std=0.1, trainable=False, adapt=False, momentum=0.95)#    (4): ReLU()#    (5): Reshape()#    (6): Conv2d(12, 12, kernel_size=(11, 11), stride=(1, 1))#    (7): Flatten()#    (8): AbsBatchNorm1d(bias=True, abs_bias=False, momentum=0.99, eps=0.001)#    (9): GaussianNoise(std=0.1, trainable=False, adapt=False, momentum=0.95)#    (10): ReLU()#    (11): Linear(in_features=8112, out_features=5, bias=True)#    (12): AbsBatchNorm1d(bias=True, abs_bias=False, momentum=0.1, eps=1e-05)#    (13): Softplus(beta=1, threshold=20)#  )#)#!0.6371505856513977!512!0.7061256270139304!True!0.2874416377448997!!0.7234599494643913!0.5235403998360111!!!!!!!!!0.30867355834672355!!!!!!!!0.6928539053599109!!0.8057968388707747!!!!!!all![12, 12]!15-10-07!absbnbncnn!61!0.2249636961011648!0.0001!0.001!!!!0.0005!AbsBNBNCNN!85!!0.1!!absbnbncnn/results.txt!absbnbncnn/absbnbncnn_61_lr0.0005_chans[12, 12]!!!52.0!0.2172202914953232!naturalscene
-3.5585499636907563!0.6273232253595818!-3.4073686743809963!0.5639077187972745!0.3442065156579984!0.12153855142725015!0.7109497971362094!!0.6355225443840027!!!False!0.3983104742143669!AbsBNBNCNN(#  (sequential): Sequential(#    (0): Conv2d(40, 14, kernel_size=(15, 15), stride=(1, 1))#    (1): Flatten()#    (2): AbsBatchNorm1d(bias=True, abs_bias=False, momentum=0.99, eps=0.001)#    (3): GaussianNoise(std=0.1, trainable=False, adapt=False, momentum=0.95)#    (4): ReLU()#    (5): Reshape()#    (6): Conv2d(14, 14, kernel_size=(11, 11), stride=(1, 1))#    (7): Flatten()#    (8): AbsBatchNorm1d(bias=True, abs_bias=False, momentum=0.99, eps=0.001)#    (9): GaussianNoise(std=0.1, trainable=False, adapt=False, momentum=0.95)#    (10): ReLU()#    (11): Linear(in_features=9464, out_features=5, bias=True)#    (12): AbsBatchNorm1d(bias=True, abs_bias=False, momentum=0.1, eps=1e-05)#    (13): Softplus(beta=1, threshold=20)#  )#)#!1.0228688716888428!512!0.7109497971362094!True!0.2814311026518163!!0.7245315370998142!0.5261731655495957!!!!!!!!!0.41228088992896816!!!!!!!!0.7219034265427522!!0.7517271076767786!!!!!!all![14, 14]!15-10-07!absbnbncnn!62!0.2307199612159236!0.0001!0.001!!!!0.0005!AbsBNBNCNN!85!!0.1!!absbnbncnn/results.txt!absbnbncnn/absbnbncnn_62_lr0.0005_chans[14, 14]!!!52.0!0.2987996637821197!naturalscene
-3.631352676165768!0.6324702325889201!-3.5084322528906338!0.6134863059528398!0.3507510922217681!0.10956363200108124!0.7314612931919375!!0.6605109572410583!!!False!0.4056872982890873!AbsBNBNCNN(#  (sequential): Sequential(#    (0): Conv2d(40, 18, kernel_size=(15, 15), stride=(1, 1))#    (1): Flatten()#    (2): AbsBatchNorm1d(bias=True, abs_bias=False, momentum=0.99, eps=0.001)#    (3): GaussianNoise(std=0.1, trainable=False, adapt=False, momentum=0.95)#    (4): ReLU()#    (5): Reshape()#    (6): Conv2d(18, 18, kernel_size=(11, 11), stride=(1, 1))#    (7): Flatten()#    (8): AbsBatchNorm1d(bias=True, abs_bias=False, momentum=0.99, eps=0.001)#    (9): GaussianNoise(std=0.1, trainable=False, adapt=False, momentum=0.95)#    (10): ReLU()#    (11): Linear(in_features=12168, out_features=5, bias=True)#    (12): AbsBatchNorm1d(bias=True, abs_bias=False, momentum=0.1, eps=1e-05)#    (13): Softplus(beta=1, threshold=20)#  )#)#!0.9912883043289183!512!0.7314612931919375!True!0.286415633276034!!0.6791620570727509!0.4939239411833504!!!!!!!!!0.5284170370393441!!!!!!!!0.7019050317877074!!0.7589430958614481!!!!!!all![18, 18]!15-10-07!absbnbncnn!63!0.2359811643109372!0.0001!0.001!!!!0.0005!AbsBNBNCNN!85!!0.1!!absbnbncnn/results.txt!absbnbncnn/absbnbncnn_63_lr0.0005_chans[18, 18]!!!52.0!0.2689513564109802!naturalscene
-3.5175245928368777!0.5463605291934808!-3.5308439926469872!0.5928209572972906!0.33080297190214725!0.08409848507395483!0.6757732625037155!!0.6374444961547852!!!False!0.39518383764110027!AbsBNBNCNN(#  (sequential): Sequential(#    (0): Conv2d(40, 10, kernel_size=(15, 15), stride=(1, 1))#    (1): Flatten()#    (2): AbsBatchNorm1d(bias=True, abs_bias=False, momentum=0.99, eps=0.001)#    (3): GaussianNoise(std=0.1, trainable=False, adapt=False, momentum=0.95)#    (4): ReLU()#    (5): Reshape()#    (6): Conv2d(10, 10, kernel_size=(11, 11), stride=(1, 1))#    (7): Flatten()#    (8): AbsBatchNorm1d(bias=True, abs_bias=False, momentum=0.99, eps=0.001)#    (9): GaussianNoise(std=0.1, trainable=False, adapt=False, momentum=0.95)#    (10): ReLU()#    (11): Linear(in_features=6760, out_features=5, bias=True)#    (12): AbsBatchNorm1d(bias=True, abs_bias=False, momentum=0.1, eps=1e-05)#    (13): Softplus(beta=1, threshold=20)#  )#)#!1.2665923833847046!512!0.6757732625037155!True!0.2750054886967773!!0.4287303157857945!0.5093036025042306!!!!!!!!!0.4436579109266139!!!!!!!!0.6956554891625746!!0.6544553275881909!!!!!!all![10, 10]!15-10-07!absbnbncnn!64!0.1810584171783537!0.0001!0.001!!!!0.0001!AbsBNBNCNN!85!!0.1!!absbnbncnn/results.txt!absbnbncnn/absbnbncnn_64_lr0.0001_chans[10, 10]!!!52.0!0.3929564654827118!naturalscene
-3.5625131633666487!0.6119328027939971!-3.5486111834172336!0.6106332369306133!0.3338577464399425!0.08161055646773363!0.688022571241657!!0.647318959236145!!!False!0.4018880180577813!AbsBNBNCNN(#  (sequential): Sequential(#    (0): Conv2d(40, 12, kernel_size=(15, 15), stride=(1, 1))#    (1): Flatten()#    (2): AbsBatchNorm1d(bias=True, abs_bias=False, momentum=0.99, eps=0.001)#    (3): GaussianNoise(std=0.1, trainable=False, adapt=False, momentum=0.95)#    (4): ReLU()#    (5): Reshape()#    (6): Conv2d(12, 12, kernel_size=(11, 11), stride=(1, 1))#    (7): Flatten()#    (8): AbsBatchNorm1d(bias=True, abs_bias=False, momentum=0.99, eps=0.001)#    (9): GaussianNoise(std=0.1, trainable=False, adapt=False, momentum=0.95)#    (10): ReLU()#    (11): Linear(in_features=8112, out_features=5, bias=True)#    (12): AbsBatchNorm1d(bias=True, abs_bias=False, momentum=0.1, eps=1e-05)#    (13): Softplus(beta=1, threshold=20)#  )#)#!0.959916889667511!512!0.688022571241657!True!0.2663547586198736!!0.6996087746407041!0.5061118886445564!!!!!!!!!0.4463104949904538!!!!!!!!0.7602337797840706!!0.6473990759102001!!!!!!all![12, 12]!15-10-07!absbnbncnn!65!0.18226925544647976!0.0001!0.001!!!!0.0001!AbsBNBNCNN!85!!0.1!!absbnbncnn/results.txt!absbnbncnn/absbnbncnn_65_lr0.0001_chans[12, 12]!!!52.0!0.2106923311948776!naturalscene
-3.605575490501312!0.6101202218793071!-3.5088033971165715!0.6087994738836574!0.3343648377630897!0.08662543929486502!0.6847654204635266!!0.6555579304695129!!!False!0.3994510403120917!AbsBNBNCNN(#  (sequential): Sequential(#    (0): Conv2d(40, 14, kernel_size=(15, 15), stride=(1, 1))#    (1): Flatten()#    (2): AbsBatchNorm1d(bias=True, abs_bias=False, momentum=0.99, eps=0.001)#    (3): GaussianNoise(std=0.1, trainable=False, adapt=False, momentum=0.95)#    (4): ReLU()#    (5): Reshape()#    (6): Conv2d(14, 14, kernel_size=(11, 11), stride=(1, 1))#    (7): Flatten()#    (8): AbsBatchNorm1d(bias=True, abs_bias=False, momentum=0.99, eps=0.001)#    (9): GaussianNoise(std=0.1, trainable=False, adapt=False, momentum=0.95)#    (10): ReLU()#    (11): Linear(in_features=9464, out_features=5, bias=True)#    (12): AbsBatchNorm1d(bias=True, abs_bias=False, momentum=0.1, eps=1e-05)#    (13): Softplus(beta=1, threshold=20)#  )#)#!0.9315954446792604!512!0.6847654204635266!True!0.27227111351945804!!0.7293446772295442!0.4406045631053075!!!!!!!!!0.4689104856641682!!!!!!!!0.6689902912978701!!0.7427510920996461!!!!!!all![14, 14]!15-10-07!absbnbncnn!66!0.1874013489722416!0.0001!0.001!!!!0.0001!AbsBNBNCNN!85!!0.1!!absbnbncnn/results.txt!absbnbncnn/absbnbncnn_66_lr0.0001_chans[14, 14]!!!52.0!0.7772974967956543!naturalscene
-3.656154806617518!0.5252157882564481!-3.6010000078196764!0.5585849597703665!0.3222539331632203!0.09844769097497487!0.6882629492436007!!0.6748298406600952!!!False!0.3850314878851602!AbsBNBNCNN(#  (sequential): Sequential(#    (0): Conv2d(40, 18, kernel_size=(15, 15), stride=(1, 1))#    (1): Flatten()#    (2): AbsBatchNorm1d(bias=True, abs_bias=False, momentum=0.99, eps=0.001)#    (3): GaussianNoise(std=0.1, trainable=False, adapt=False, momentum=0.95)#    (4): ReLU()#    (5): Reshape()#    (6): Conv2d(18, 18, kernel_size=(11, 11), stride=(1, 1))#    (7): Flatten()#    (8): AbsBatchNorm1d(bias=True, abs_bias=False, momentum=0.99, eps=0.001)#    (9): GaussianNoise(std=0.1, trainable=False, adapt=False, momentum=0.95)#    (10): ReLU()#    (11): Linear(in_features=12168, out_features=5, bias=True)#    (12): AbsBatchNorm1d(bias=True, abs_bias=False, momentum=0.1, eps=1e-05)#    (13): Softplus(beta=1, threshold=20)#  )#)#!0.8425930142402649!512!0.6882629492436007!True!0.2572310128692941!!0.6781438243715101!0.5533744300640535!!!!!!!!!0.4108077433945733!!!!!!!!0.28074824432388185!!0.703004699128222!!!!!!all![18, 18]!15-10-07!absbnbncnn!67!0.18449465144823227!0.0001!0.001!!!!0.0001!AbsBNBNCNN!85!!0.1!!absbnbncnn/results.txt!absbnbncnn/absbnbncnn_67_lr0.0001_chans[18, 18]!!!52.0!0.1773742288351059!naturalscene
-3.4132570502984576!0.6696931296338747!-3.1826914277284235!0.6402449319360913!0.3498114949136261!0.13193681655180145!0.7361639759196503!!0.6238882541656494!!!False!0.3995243580992812!AbsBNBNCNN(#  (sequential): Sequential(#    (0): Conv2d(40, 10, kernel_size=(15, 15), stride=(1, 1))#    (1): Flatten()#    (2): AbsBatchNorm1d(bias=True, abs_bias=False, momentum=0.99, eps=0.001)#    (3): GaussianNoise(std=0.1, trainable=False, adapt=False, momentum=0.95)#    (4): ReLU()#    (5): Reshape()#    (6): Conv2d(10, 8, kernel_size=(11, 11), stride=(1, 1))#    (7): Flatten()#    (8): AbsBatchNorm1d(bias=True, abs_bias=False, momentum=0.99, eps=0.001)#    (9): GaussianNoise(std=0.1, trainable=False, adapt=False, momentum=0.95)#    (10): ReLU()#    (11): Linear(in_features=5408, out_features=5, bias=True)#    (12): AbsBatchNorm1d(bias=True, abs_bias=False, momentum=0.1, eps=1e-05)#    (13): Softplus(beta=1, threshold=20)#  )#)#!0.934782326221466!512!0.7361639759196503!True!0.3065898783282105!!0.7564672296586903!0.5489980723208298!!!!!!!!!0.523674281344014!!!!!!!!0.7294802137963006!!0.7898458510495395!!!!!!all![10, 8]!15-10-07!absbnbncnn!68!0.2342897182564285!0.0001!0.001!!!!0.001!AbsBNBNCNN!70!!0.1!!absbnbncnn/results.txt!absbnbncnn/absbnbncnn_68_lr0.001_chans[10, 8]!!!68.0!0.13935314118862152!naturalscene
-3.3813323476555484!0.6590679889246465!-3.340402796811395!0.5833112614647104!0.3675476125287744!0.13795621636248115!0.7277536288012288!!0.6171442270278931!!!False!0.4167081398310734!AbsBNBNCNN(#  (sequential): Sequential(#    (0): Conv2d(40, 12, kernel_size=(15, 15), stride=(1, 1))#    (1): Flatten()#    (2): AbsBatchNorm1d(bias=True, abs_bias=False, momentum=0.99, eps=0.001)#    (3): GaussianNoise(std=0.1, trainable=False, adapt=False, momentum=0.95)#    (4): ReLU()#    (5): Reshape()#    (6): Conv2d(12, 8, kernel_size=(11, 11), stride=(1, 1))#    (7): Flatten()#    (8): AbsBatchNorm1d(bias=True, abs_bias=False, momentum=0.99, eps=0.001)#    (9): GaussianNoise(std=0.1, trainable=False, adapt=False, momentum=0.95)#    (10): ReLU()#    (11): Linear(in_features=5408, out_features=5, bias=True)#    (12): AbsBatchNorm1d(bias=True, abs_bias=False, momentum=0.1, eps=1e-05)#    (13): Softplus(beta=1, threshold=20)#  )#)#!0.7631767988204956!512!0.7277536288012288!True!0.3179224857933756!!0.7576094469190644!0.44424929547427217!!!!!!!!!0.53643018743456!!!!!!!!0.7395426726444211!!0.8175083421509142!!!!!!all![12, 8]!15-10-07!absbnbncnn!69!0.2586633514160768!0.0001!0.001!!!!0.001!AbsBNBNCNN!70!!0.1!!absbnbncnn/results.txt!absbnbncnn/absbnbncnn_69_lr0.001_chans[12, 8]!!!68.0!0.16155853867530826!naturalscene
-3.3217058989077493!0.6391261702184093!-3.213057222172938!0.6200055632252721!0.3796849266506439!0.12941788080090708!0.6964920854485689!!0.5829132199287415!!!False!0.4267558852533258!AbsBNBNCNN(#  (sequential): Sequential(#    (0): Conv2d(40, 12, kernel_size=(15, 15), stride=(1, 1))#    (1): Flatten()#    (2): AbsBatchNorm1d(bias=True, abs_bias=False, momentum=0.99, eps=0.001)#    (3): GaussianNoise(std=0.1, trainable=False, adapt=False, momentum=0.95)#    (4): ReLU()#    (5): Reshape()#    (6): Conv2d(12, 10, kernel_size=(11, 11), stride=(1, 1))#    (7): Flatten()#    (8): AbsBatchNorm1d(bias=True, abs_bias=False, momentum=0.99, eps=0.001)#    (9): GaussianNoise(std=0.1, trainable=False, adapt=False, momentum=0.95)#    (10): ReLU()#    (11): Linear(in_features=6760, out_features=5, bias=True)#    (12): AbsBatchNorm1d(bias=True, abs_bias=False, momentum=0.1, eps=1e-05)#    (13): Softplus(beta=1, threshold=20)#  )#)#!0.8187352418899536!512!0.6964920854485689!True!0.30275111985228265!!0.7219409345285099!0.5338922765287558!!!!!!!!!0.5634268514244931!!!!!!!!0.6622603087044899!!0.7141104799057975!!!!!!all![12, 10]!15-10-07!absbnbncnn!70!0.2983094561302125!0.0001!0.001!!!!0.001!AbsBNBNCNN!70!!0.1!!absbnbncnn/results.txt!absbnbncnn/absbnbncnn_70_lr0.001_chans[12, 10]!!!68.0!0.227595329284668!naturalscene
-3.4330753026864467!0.6773094199565955!-3.295411198891816!0.5782329311814596!0.3807144716494748!0.13571274650420725!0.7266500563637431!!0.616470217704773!!!False!0.42924453522218503!AbsBNBNCNN(#  (sequential): Sequential(#    (0): Conv2d(40, 10, kernel_size=(15, 15), stride=(1, 1))#    (1): Flatten()#    (2): AbsBatchNorm1d(bias=True, abs_bias=False, momentum=0.99, eps=0.001)#    (3): GaussianNoise(std=0.1, trainable=False, adapt=False, momentum=0.95)#    (4): ReLU()#    (5): Reshape()#    (6): Conv2d(10, 8, kernel_size=(11, 11), stride=(1, 1))#    (7): Flatten()#    (8): AbsBatchNorm1d(bias=True, abs_bias=False, momentum=0.99, eps=0.001)#    (9): GaussianNoise(std=0.1, trainable=False, adapt=False, momentum=0.95)#    (10): ReLU()#    (11): Linear(in_features=5408, out_features=5, bias=True)#    (12): AbsBatchNorm1d(bias=True, abs_bias=False, momentum=0.1, eps=1e-05)#    (13): Softplus(beta=1, threshold=20)#  )#)#!1.1478383541107178!512!0.7266500563637431!True!0.35142038285655314!!0.7398339918009157!0.5334026808783773!!!!!!!!!0.6138091192038665!!!!!!!!0.7408988345345769!!0.7586024733652412!!!!!!all![10, 8]!15-10-07!absbnbncnn!71!0.2579085722147283!0.0001!0.001!!!!0.0005!AbsBNBNCNN!70!!0.1!!absbnbncnn/results.txt!absbnbncnn/absbnbncnn_71_lr0.0005_chans[10, 8]!!!68.0!0.7544079422950745!naturalscene
-3.416285938267255!0.6161411752438566!-3.538566963413905!0.5993431338041575!0.32462794030484304!0.1300767414222801!0.7134813467140271!!0.635663628578186!!!False!0.3736766577387616!AbsBNBNCNN(#  (sequential): Sequential(#    (0): Conv2d(40, 12, kernel_size=(15, 15), stride=(1, 1))#    (1): Flatten()#    (2): AbsBatchNorm1d(bias=True, abs_bias=False, momentum=0.99, eps=0.001)#    (3): GaussianNoise(std=0.1, trainable=False, adapt=False, momentum=0.95)#    (4): ReLU()#    (5): Reshape()#    (6): Conv2d(12, 8, kernel_size=(11, 11), stride=(1, 1))#    (7): Flatten()#    (8): AbsBatchNorm1d(bias=True, abs_bias=False, momentum=0.99, eps=0.001)#    (9): GaussianNoise(std=0.1, trainable=False, adapt=False, momentum=0.95)#    (10): ReLU()#    (11): Linear(in_features=5408, out_features=5, bias=True)#    (12): AbsBatchNorm1d(bias=True, abs_bias=False, momentum=0.1, eps=1e-05)#    (13): Softplus(beta=1, threshold=20)#  )#)#!0.5278617143630981!512!0.7134813467140271!True!0.28479267079467235!!0.7383058470401985!0.5477389594769307!!!!!!!!!0.46196042634740897!!!!!!!!0.5747511982519571!!0.7579494451027877!!!!!!all![12, 8]!15-10-07!absbnbncnn!72!0.2084647753998866!0.0001!0.001!!!!0.0005!AbsBNBNCNN!70!!0.1!!absbnbncnn/results.txt!absbnbncnn/absbnbncnn_72_lr0.0005_chans[12, 8]!!!68.0!0.26002565026283264!naturalscene
-3.4623796269185223!0.6209034004065117!-3.0900440530240303!0.6443322070215689!0.3814363410594934!0.1361870642956336!0.6718134842392415!!0.5990094542503357!!!False!0.4363866504197647!AbsBNBNCNN(#  (sequential): Sequential(#    (0): Conv2d(40, 12, kernel_size=(15, 15), stride=(1, 1))#    (1): Flatten()#    (2): AbsBatchNorm1d(bias=True, abs_bias=False, momentum=0.99, eps=0.001)#    (3): GaussianNoise(std=0.1, trainable=False, adapt=False, momentum=0.95)#    (4): ReLU()#    (5): Reshape()#    (6): Conv2d(12, 10, kernel_size=(11, 11), stride=(1, 1))#    (7): Flatten()#    (8): AbsBatchNorm1d(bias=True, abs_bias=False, momentum=0.99, eps=0.001)#    (9): GaussianNoise(std=0.1, trainable=False, adapt=False, momentum=0.95)#    (10): ReLU()#    (11): Linear(in_features=6760, out_features=5, bias=True)#    (12): AbsBatchNorm1d(bias=True, abs_bias=False, momentum=0.1, eps=1e-05)#    (13): Softplus(beta=1, threshold=20)#  )#)#!0.7970448732376099!512!0.6718134842392415!True!0.3275688491792523!!0.7206041480837442!0.4611686983452727!!!!!!!!!0.4705056114849895!!!!!!!!0.6654349798904281!!0.7868035642281243!!!!!!all![12, 10]!15-10-07!absbnbncnn!73!0.2584823511077559!0.0001!0.001!!!!0.0005!AbsBNBNCNN!70!!0.1!!absbnbncnn/results.txt!absbnbncnn/absbnbncnn_73_lr0.0005_chans[12, 10]!!!68.0!0.25226616859436035!naturalscene
-3.0561698389269107!0.6955200209169076!-2.9712998648952635!0.6702740087594297!0.43554732599432094!0.15547746919848068!0.6958067617529606!!0.5539083480834961!!!False!0.4878989824847091!AbsBNBNCNN(#  (sequential): Sequential(#    (0): Conv2d(40, 10, kernel_size=(15, 15), stride=(1, 1))#    (1): Flatten()#    (2): AbsBatchNorm1d(bias=True, abs_bias=False, momentum=0.99, eps=0.001)#    (3): GaussianNoise(std=0.1, trainable=False, adapt=False, momentum=0.95)#    (4): ReLU()#    (5): Reshape()#    (6): Conv2d(10, 12, kernel_size=(11, 11), stride=(1, 1))#    (7): Flatten()#    (8): AbsBatchNorm1d(bias=True, abs_bias=False, momentum=0.99, eps=0.001)#    (9): GaussianNoise(std=0.1, trainable=False, adapt=False, momentum=0.95)#    (10): ReLU()#    (11): Linear(in_features=8112, out_features=5, bias=True)#    (12): AbsBatchNorm1d(bias=True, abs_bias=False, momentum=0.1, eps=1e-05)#    (13): Softplus(beta=1, threshold=20)#  )#)#!1.5713669061660769!512!0.6958067617529606!True!0.3603105171805404!!0.7781787991063845!0.5886101497184573!!!!!!!!!0.6040373932104386!!!!!!!!0.7533415075977559!!0.7534322549515013!!!!!!all![10, 12]!15-10-07!absbnbncnn!74!0.33700987448942976!0.0001!0.001!!!!0.005!AbsBNBNCNN!85!!0.1!!absbnbncnn/results.txt!absbnbncnn/absbnbncnn_74_lr0.005_chans[10, 12]!!!74.0!0.5418189167976379!naturalscene
-3.0836512432918286!0.6969092791976992!-3.1115954628767213!0.6858993690993018!0.4321431368400818!0.16376224780224274!0.6931418706232897!!0.5565077066421509!!!False!0.4899859096065335!AbsBNBNCNN(#  (sequential): Sequential(#    (0): Conv2d(40, 10, kernel_size=(15, 15), stride=(1, 1))#    (1): Flatten()#    (2): AbsBatchNorm1d(bias=True, abs_bias=False, momentum=0.99, eps=0.001)#    (3): GaussianNoise(std=0.1, trainable=False, adapt=False, momentum=0.95)#    (4): ReLU()#    (5): Reshape()#    (6): Conv2d(10, 14, kernel_size=(11, 11), stride=(1, 1))#    (7): Flatten()#    (8): AbsBatchNorm1d(bias=True, abs_bias=False, momentum=0.99, eps=0.001)#    (9): GaussianNoise(std=0.1, trainable=False, adapt=False, momentum=0.95)#    (10): ReLU()#    (11): Linear(in_features=9464, out_features=5, bias=True)#    (12): AbsBatchNorm1d(bias=True, abs_bias=False, momentum=0.1, eps=1e-05)#    (13): Softplus(beta=1, threshold=20)#  )#)#!0.7363802194595337!512!0.6969092791976992!True!0.3674402732264992!!0.7742374039114235!0.6128503734039895!!!!!!!!!0.5833508550777101!!!!!!!!0.7474541652021558!!0.7666535983932171!!!!!!all![10, 14]!15-10-07!absbnbncnn!75!0.30893926801795746!0.0001!0.001!!!!0.005!AbsBNBNCNN!85!!0.1!!absbnbncnn/results.txt!absbnbncnn/absbnbncnn_75_lr0.005_chans[10, 14]!!!74.0!0.4065226912498474!naturalscene
-3.0545570634608894!0.6890370107605361!-3.1526917913928627!0.6421614053905672!0.41635791737454414!0.1617431051053522!0.6872710488077697!!0.5613074898719788!!!False!0.4746752965224663!AbsBNBNCNN(#  (sequential): Sequential(#    (0): Conv2d(40, 12, kernel_size=(15, 15), stride=(1, 1))#    (1): Flatten()#    (2): AbsBatchNorm1d(bias=True, abs_bias=False, momentum=0.99, eps=0.001)#    (3): GaussianNoise(std=0.1, trainable=False, adapt=False, momentum=0.95)#    (4): ReLU()#    (5): Reshape()#    (6): Conv2d(12, 14, kernel_size=(11, 11), stride=(1, 1))#    (7): Flatten()#    (8): AbsBatchNorm1d(bias=True, abs_bias=False, momentum=0.99, eps=0.001)#    (9): GaussianNoise(std=0.1, trainable=False, adapt=False, momentum=0.95)#    (10): ReLU()#    (11): Linear(in_features=9464, out_features=5, bias=True)#    (12): AbsBatchNorm1d(bias=True, abs_bias=False, momentum=0.1, eps=1e-05)#    (13): Softplus(beta=1, threshold=20)#  )#)#!0.9156333804130554!512!0.6890370107605361!True!0.3661586168421241!!0.7696680111763501!0.600820882510323!!!!!!!!!0.6155235689034492!!!!!!!!0.7139795919140192!!0.7451929992985395!!!!!!all![12, 14]!15-10-07!absbnbncnn!76!0.28044968034488194!0.0001!0.001!!!!0.005!AbsBNBNCNN!85!!0.1!!absbnbncnn/results.txt!absbnbncnn/absbnbncnn_76_lr0.005_chans[12, 14]!!!74.0!0.041848812252283096!naturalscene
-3.4195965203045!0.6623330821521952!-3.308094227466063!0.5905617833707211!0.3646110034073279!0.11622607743960862!0.7375524511893236!!0.6131240129470825!!!False!0.41620890015334416!AbsBNBNCNN(#  (sequential): Sequential(#    (0): Conv2d(40, 10, kernel_size=(15, 15), stride=(1, 1))#    (1): Flatten()#    (2): AbsBatchNorm1d(bias=True, abs_bias=False, momentum=0.99, eps=0.001)#    (3): GaussianNoise(std=0.1, trainable=False, adapt=False, momentum=0.95)#    (4): ReLU()#    (5): Reshape()#    (6): Conv2d(10, 12, kernel_size=(11, 11), stride=(1, 1))#    (7): Flatten()#    (8): AbsBatchNorm1d(bias=True, abs_bias=False, momentum=0.99, eps=0.001)#    (9): GaussianNoise(std=0.1, trainable=False, adapt=False, momentum=0.95)#    (10): ReLU()#    (11): Linear(in_features=8112, out_features=5, bias=True)#    (12): AbsBatchNorm1d(bias=True, abs_bias=False, momentum=0.1, eps=1e-05)#    (13): Softplus(beta=1, threshold=20)#  )#)#!1.0777193307876587!512!0.7375524511893236!True!0.3043348434642871!!0.7535923803816555!0.4708593353633963!!!!!!!!!0.5429412369243941!!!!!!!!0.7489796238136974!!0.7952928342778326!!!!!!all![10, 12]!15-10-07!absbnbncnn!77!0.2566987709027553!0.0001!0.001!!!!0.001!AbsBNBNCNN!85!!0.1!!absbnbncnn/results.txt!absbnbncnn/absbnbncnn_77_lr0.001_chans[10, 12]!!!74.0!0.27515673637390137!naturalscene
-3.4308779487782477!0.660895935412821!-3.5192758844568743!0.6079057224208573!0.3709409245075213!0.17857789938808175!0.72266432447017!!0.6296961903572083!!!False!0.4108470875308453!AbsBNBNCNN(#  (sequential): Sequential(#    (0): Conv2d(40, 10, kernel_size=(15, 15), stride=(1, 1))#    (1): Flatten()#    (2): AbsBatchNorm1d(bias=True, abs_bias=False, momentum=0.99, eps=0.001)#    (3): GaussianNoise(std=0.1, trainable=False, adapt=False, momentum=0.95)#    (4): ReLU()#    (5): Reshape()#    (6): Conv2d(10, 14, kernel_size=(11, 11), stride=(1, 1))#    (7): Flatten()#    (8): AbsBatchNorm1d(bias=True, abs_bias=False, momentum=0.99, eps=0.001)#    (9): GaussianNoise(std=0.1, trainable=False, adapt=False, momentum=0.95)#    (10): ReLU()#    (11): Linear(in_features=9464, out_features=5, bias=True)#    (12): AbsBatchNorm1d(bias=True, abs_bias=False, momentum=0.1, eps=1e-05)#    (13): Softplus(beta=1, threshold=20)#  )#)#!0.8488262891769409!512!0.72266432447017!True!0.3344575497452271!!0.7570547628259149!0.5129023828795557!!!!!!!!!0.5485988746550012!!!!!!!!0.7248260491152263!!0.7610976075884068!!!!!!all![10, 14]!15-10-07!absbnbncnn!78!0.2795983935860003!0.0001!0.001!!!!0.001!AbsBNBNCNN!85!!0.1!!absbnbncnn/results.txt!absbnbncnn/absbnbncnn_78_lr0.001_chans[10, 14]!!!74.0!0.3125995099544525!naturalscene
…
False, momentum=0.01, eps=1e-05)#    (13): Softplus(beta=1, threshold=20)#  )#)#!1.1605180501937866!2056!!True!0.4731674918746009!0.01!!!0.7158373708174361!!0.7615313978449144!0.8044612213096787!!!!!!!!!!!!!!!!!0.7709618388284323!!!!all![8, 8]!15-11-21a!absbndatasetsearch!45!0.30764918249283074!0.0001!0.01!False!False!PoissonNLLLoss!0.01!AbsBNBNCNN!100!!0.05!!absbndatasetsearch/results.txt!absbndatasetsearch/absbndatasetsearch_45_dataset15-11-21a_lr0.01!!1.0!43.0!0.2115032523870468!naturalscene
-5.993829874558883!0.6373192650859494!-6.136276380612983!0.6826844425343794!0.4423416498444265!0.1580905348883621!!!0.5470177531242371!!!False!0.5034189224216753!AbsBNBNCNN(#  (sequential): Sequential(#    (0): Conv2d(40, 8, kernel_size=(15, 15), stride=(1, 1))#    (1): Flatten()#    (2): AbsBatchNorm1d(bias=True, abs_bias=False, momentum=0.01, eps=0.001)#    (3): GaussianNoise(std=0.05, trainable=False, adapt=False, momentum=0.95)#    (4): ReLU()#    (5): Reshape()#    (6): Conv2d(8, 8, kernel_size=(11, 11), stride=(1, 1))#    (7): Flatten()#    (8): AbsBatchNorm1d(bias=True, abs_bias=False, momentum=0.01, eps=0.001)#    (9): GaussianNoise(std=0.05, trainable=False, adapt=False, momentum=0.95)#    (10): ReLU()#    (11): Linear(in_features=5408, out_features=17, bias=False)#    (12): AbsBatchNorm1d(bias=True, abs_bias=False, momentum=0.01, eps=1e-05)#    (13): Softplus(beta=1, threshold=20)#  )#)#!0.8622748851776123!2056!!True!0.4259911691627845!0.01!0.7124714742249465!0.6449059323485942!!!!0.6962279349562461!0.6891353095125129!0.6917018170329933!0.5376888008417855!0.7001141377848508!!0.7150426027475826!0.699250460088725
…
75252014475!0.7415124048042345!0.5051601453623008!0.6760664488436721!!0.5530179406096944!!!0.5483436512859885!!!0.4616662300441782!0.7584963390615254!all![8, 8]!15-11-21b!absbndatasetsearch!46!0.2321778920278975!0.0001!0.01!False!False!PoissonNLLLoss!0.00075!AbsBNBNCNN!100!!0.05!!!absbndatasetsearch/absbndatasetsearch_46_dataset15-11-21b_lr0.00075!!1.0!43.0!0.2933638393878937!naturalscene
-10.216734753233013!0.7765967579720618!-10.603793886792849!0.718609416712648!0.491016001513612!0.14008178677174515!!!0.689685583114624!!!False!0.5560083821492329!AbsBNBNCNN(#  (sequential): Sequential(#    (0): Conv2d(40, 8, kernel_size=(15, 15), stride=(1, 1))#    (1): Flatten()#    (2): AbsBatchNorm1d(bias=True, abs_bias=False, momentum=0.01, eps=0.001)#    (3): GaussianNoise(std=0.05, trainable=False, adapt=False, momentum=0.95)#    (4): ReLU()#    (5): Reshape()#    (6): Conv2d(8, 8, kernel_size=(11, 11), stride=(1, 1))#    (7): Flatten()#    (8): AbsBatchNorm1d(bias=True, abs_bias=False, momentum=0.01, eps=0.001)#    (9): GaussianNoise(std=0.05, trainable=False, adapt=False, momentum=0.95)#    (10): ReLU()#    (11): Linear(in_features=5408, out_features=4, bias=False)#    (12): AbsBatchNorm1d(bias=True, abs_bias=False, momentum=0.01, eps=1e-05)#    (13): Softplus(beta=1, threshold=20)#  )#)#!2.880456924438477!2056!!True!0.474913064316965!0.01!!!0.7402324845999714!!0.7555725697174859!0.8113968326225045!!!!!!!!!!!!!!!!!0.7991851449482855!!!!all![8, 8]!15-11-21a!absbndatasetsearch!46!0.30856336631525283!0.0001!0.01!False!False!PoissonNLLLoss!0.00075!AbsBNBNCNN!100!!0.05!!absbndatasetsearch/results.txt!absbndatasetsearch/absbndatasetsearch_46_dataset15-11-21a_lr0.00075!!1.0!43.0!1.616752862930298!naturalscene
-4.183520299285205!0.7131224351151456!-4.053966774258879!0.5673269376586697!0.3126294612672216!0.09033014374615657!!!0.6514565348625183!!!False!0.36546900520114667!AbsBNBNCNN(#  (sequential): Sequential(#    (0): Conv2d(40, 8, kernel_size=(15, 15), stride=(1, 1))#    (1): Flatten()#    (2): AbsBatchNorm1d(bias=True, abs_bias=False, momentum=0.01, eps=0.001)#    (3): GaussianNoise(std=0.1, trainable=False, adapt=False, momentum=0.95)#    (4): ReLU()#    (5): Reshape()#    (6): Conv2d(8, 8, kernel_size=(11, 11), stride=(1, 1))#    (7): Flatten()#    (8): AbsBatchNorm1d(bias=True, abs_bias=False, momentum=0.01, eps=0.001)#    (9): GaussianNoise(std=0.1, trainable=False, adapt=False, momentum=0.95)#    (10): ReLU()#    (11): Linear(in_features=5408, out_features=5, bias=False)#    (12): AbsBatchNorm1d(bias=True, abs_bias=False, momentum=0.01, eps=1e-05)#    (13): Softplus(beta=1, threshold=20)#  )#)#!!5000!!True!0.2758819965547366!0.01!0.7713251552398757!0.5962361427583703!!!!!!!!!0.6155007353291301!!!!!!!!0.7932034901253693!!0.7893466521229826!!!!!!all![8, 8]!15-10-07!absbndatasetsearch!47!0.18269219090849007!0.0001!0.001!False!False!PoissonNLLLoss!0.001!AbsBNBNCNN!200!!0.1!!!absbndatasetsearch/absbndatasetsearch_47_dataset15-10-07_lr0.001!!1.0!47.0!!naturalscene
-4.391161612610318!0.7140123401417019!-4.223880012266454!0.5847204513552107!0.3381646774841505!0.08996286194792957!!!0.6574603319168091!!!False!0.3990358388636888!AbsBNBNCNN(#  (sequential): Sequential(#    (0): Conv2d(40, 8, kernel_size=(15, 15), stride=(1, 1))#    (1): Flatten()#    (2): AbsBatchNorm1d(bias=True, abs_bias=False, momentum=0.01, eps=0.001)#    (3): GaussianNoise(std=0.1, trainable=False, adapt=False, momentum=0.95)#    (4): ReLU()#    (5): Reshape()#    (6): Conv2d(8, 8, kernel_size=(11, 11), stride=(1, 1))#    (7): Flatten()#    (8): AbsBatchNorm1d(bias=True, abs_bias=False, momentum=0.01, eps=0.001)#    (9): GaussianNoise(std=0.1, trainable=False, adapt=False, momentum=0.95)#    (10): ReLU()#    (11): Linear(in_features=5408, out_features=5, bias=False)#    (12): AbsBatchNorm1d(bias=True, abs_bias=False, momentum=0.01, eps=1e-05)#    (13): Softplus(beta=1, threshold=20)#  )#)#!!5000!!True!0.28937639459645004!0.01!0.7657711266223775!0.6142698355043872!!!!!!!!!0.6126752856632595!!!!!!!!0.776346342360152!!0.8009991105583332!!!!!!all![8, 8]!15-10-07!absbndatasetsearch!48!0.1934976355915246!0.0001!0.001!False!False!PoissonNLLLoss!0.005!AbsBNBNCNN!200!!0.1!!!absbndatasetsearch/absbndatasetsearch_48_dataset15-10-07_lr0.005!!1.0!47.0!!naturalscene
-4.317703610035911!0.7117566533058148!-4.243411140114768!0.5799625710461329!0.2972344892028808!0.08608945473017678!!!0.644776463508606!!!False!0.3477526213976921!AbsBNBNCNN(#  (sequential): Sequential(#    (0): Conv2d(40, 8, kernel_size=(15, 15), stride=(1, 1))#    (1): Flatten()#    (2): AbsBatchNorm1d(bias=True, abs_bias=False, momentum=0.01, eps=0.001)#    (3): GaussianNoise(std=0.1, trainable=False, adapt=False, momentum=0.95)#    (4): ReLU()#    (5): Reshape()#    (6): Conv2d(8, 8, kernel_size=(11, 11), stride=(1, 1))#    (7): Flatten()#    (8): AbsBatchNorm1d(bias=True, abs_bias=False, momentum=0.01, eps=0.001)#    (9): GaussianNoise(std=0.1, trainable=False, adapt=False, momentum=0.95)#    (10): ReLU()#    (11): Linear(in_features=5408, out_features=5, bias=False)#    (12): AbsBatchNorm1d(bias=True, abs_bias=False, momentum=0.01, eps=1e-05)#    (13): Softplus(beta=1, threshold=20)#  )#)#!!5000!!True!0.2588609788303173!0.01!0.7657100917037813!0.6021165192112131!!!!!!!!!0.5969570948225685!!!!!!!!0.7876194157622921!!0.8063801450292191!!!!!!all![8, 8]!15-10-07!absbndatasetsearch!49!0.1755261562415516!0.0001!0.001!False!False!PoissonNLLLoss!0.01!AbsBNBNCNN!200!!0.1!!!absbndatasetsearch/absbndatasetsearch_49_dataset15-10-07_lr0.01!!1.0!47.0!!naturalscene
-3.5925750732421875!0.7018680282981762!-3.473596172964608!0.5651937523531099!0.4404404998052449!0.16050947448344702!!!0.5675567388534546!!!False!0.4505632544245191!AbsBNBNCNN(#  (sequential): Sequential(#    (0): Conv2d(40, 8, kernel_size=(15, 15), stride=(1, 1))#    (1): Flatten()#    (2): AbsBatchNorm1d(bias=True, abs_bias=False, momentum=0.01, eps=0.001)#    (3): GaussianNoise(std=0.1, trainable=False, adapt=False, momentum=0.95)#    (4): ReLU()#    (5): Reshape()#    (6): Conv2d(8, 8, kernel_size=(11, 11), stride=(1, 1))#    (7): Flatten()#    (8): AbsBatchNorm1d(bias=True, abs_bias=False, momentum=0.01, eps=0.001)#    (9): GaussianNoise(std=0.1, trainable=False, adapt=False, momentum=0.95)#    (10): ReLU()#    (11): Linear(in_features=5408, out_features=5, bias=False)#    (12): AbsBatchNorm1d(bias=True, abs_bias=False, momentum=0.01, eps=1e-05)#    (13): Softplus(beta=1, threshold=20)#  )#)#!!5000!!True!0.3798002648376077!0.01!0.7379037337004523!0.6180876182386308!!!!!!!!!0.6132069673834295!!!!!!!!0.788130331473899!!0.7520114906944696!!!!!!all![8, 8]!15-10-07!absbndatasetsearch!50!0.4572368631444733!0.0001!0.001!False!False!PoissonNLLLoss!0.0075!AbsBNBNCNN!200!!0.1!!!absbndatasetsearch/absbndatasetsearch_50_dataset15-10-07_lr0.0075!!1.0!47.0!!naturalscene
-10.535602654983748!0.7844787305772154!-10.481185111260855!0.702553595255765!0.5103560635761072!0.22301474794765253!!!0.6891844272613525!!!False!0.5646429109309561!AbsBNBNCNN(#  (sequential): Sequential(#    (0): Conv2d(40, 8, kernel_size=(15, 15), stride=(1, 1))#    (1): Flatten()#    (2): AbsBatchNorm1d(bias=True, abs_bias=False, momentum=0.01, eps=0.001)#    (3): GaussianNoise(std=0.1, trainable=False, adapt=False, momentum=0.95)#    (4): ReLU()#    (5): Reshape()#    (6): Conv2d(8, 8, kernel_size=(11, 11), stride=(1, 1))#    (7): Flatten()#    (8): AbsBatchNorm1d(bias=True, abs_bias=False, momentum=0.01, eps=0.001)#    (9): GaussianNoise(std=0.1, trainable=False, adapt=False, momentum=0.95)#    (10): ReLU()#    (11): Linear(in_features=5408, out_features=4, bias=False)#    (12): AbsBatchNorm1d(bias=True, abs_bias=False, momentum=0.01, eps=1e-05)#    (13): Softplus(beta=1, threshold=20)#  )#)#!!5000!!True!0.4796349343305607!0.01!!!0.7283795683567644!!0.7735845632459548!0.8424849429859731!!!!!!!!!!!!!!!!!0.7934658477201691!!!!all![8, 8]!15-11-21a!absbndatasetsearch!51!0.3713897331469858!0.0001!0.001!False!False!PoissonNLLLoss!0.001!AbsBNBNCNN!200!!0.1!!!absbndatasetsearch/absbndatasetsearch_51_dataset15-11-21a_lr0.001!!1.0!51.0!!naturalscene
-11.65103508109477!0.7827223002902972!-11.396475506800925!0.5852294227469754!0.4045217949778533!0.15782058412610464!!!0.7025430202484131!!!False!0.4593788237129723!AbsBNBNCNN(#  (sequential): Sequential(#    (0): Conv2d(40, 8, kernel_size=(15, 15), stride=(1, 1))#    (1): Flatten()#    (2): AbsBatchNorm1d(bias=True, abs_bias=False, momentum=0.01, eps=0.001)#    (3): GaussianNoise(std=0.1, trainable=False, adapt=False, momentum=0.95)#    (4): ReLU()#    (5): Reshape()#    (6): Conv2d(8, 8, kernel_size=(11, 11), stride=(1, 1))#    (7): Flatten()#    (8): AbsBatchNorm1d(bias=True, abs_bias=False, momentum=0.01, eps=0.001)#    (9): GaussianNoise(std=0.1, trainable=False, adapt=False, momentum=0.95)#    (10): ReLU()#    (11): Linear(in_features=5408, out_features=4, bias=False)#    (12): AbsBatchNorm1d(bias=True, abs_bias=False, momentum=0.01, eps=1e-05)#    (13): Softplus(beta=1, threshold=20)#  )#)#!!5000!!True!0.3796954607130663!0.01!!!0.7191469087047692!!0.7790835806338072!0.853019498924135!!!!!!!!!!!!!!!!!0.7796392128984775!!!!all![8, 8]!15-11-21a!absbndatasetsearch!52!0.2592600798673309!0.0001!0.001!False!False!PoissonNLLLoss!0.005!AbsBNBNCNN!200!!0.1!!!absbndatasetsearch/absbndatasetsearch_52_dataset15-11-21a_lr0.005!!1.0!52.0!!naturalscene
-11.675401132498214!0.7455881356174764!-11.21236458699568!0.6483055561167245!0.4284565596032036!0.1585960563888463!!!0.6930243968963623!!!False!0.4913291066587155!AbsBNBNCNN(#  (sequential): Sequential(#    (0): Conv2d(40, 8, kernel_size=(15, 15), stride=(1, 1))#    (1): Flatten()#    (2): AbsBatchNorm1d(bias=True, abs_bias=False, momentum=0.01, eps=0.001)#    (3): GaussianNoise(std=0.1, trainable=False, adapt=False, momentum=0.95)#    (4): ReLU()#    (5): Reshape()#    (6): Conv2d(8, 8, kernel_size=(11, 11), stride=(1, 1))#    (7): Flatten()#    (8): AbsBatchNorm1d(bias=True, abs_bias=False, momentum=0.01, eps=0.001)#    (9): GaussianNoise(std=0.1, trainable=False, adapt=False, momentum=0.95)#    (10): ReLU()#    (11): Linear(in_features=5408, out_features=4, bias=False)#    (12): AbsBatchNorm1d(bias=True, abs_bias=False, momentum=0.01, eps=1e-05)#    (13): Softplus(beta=1, threshold=20)#  )#)#!!5000!!True!0.4041462268125117!0.01!!!0.6768028219399376!!0.7420851370097507!0.8121057635503126!!!!!!!!!!!!!!!!!0.7513588199699048!!!!all![8, 8]!15-11-21a!absbndatasetsearch!53!0.2587469550516505!0.0001!0.001!False!False!PoissonNLLLoss!0.01!AbsBNBNCNN!200!!0.1!!!absbndatasetsearch/absbndatasetsearch_53_dataset15-11-21a_lr0.01!!1.0!53.0!!naturalscene
-6.246626120894702!0.7710234607876613!-6.069393620501069!0.7761620723345815!0.5763829048804427!0.23284599117395585!!!0.650219738483429!!!False!0.6324414606259592!AbsBNBNCNN(#  (sequential): Sequential(#    (0): Conv2d(40, 8, kernel_size=(15, 15), stride=(1, 1))#    (1): Flatten()#    (2): AbsBatchNorm1d(bias=True, abs_bias=False, momentum=0.01, eps=0.001)#    (3): GaussianNoise(std=0.1, trainable=False, adapt=False, momentum=0.95)#    (4): ReLU()#    (5): Reshape()#    (6): Conv2d(8, 8, kernel_size=(11, 11), stride=(1, 1))#    (7): Flatten()#    (8): AbsBatchNorm1d(bias=True, abs_bias=False, momentum=0.01, eps=0.001)#    (9): GaussianNoise(std=0.1, trainable=False, adapt=False, momentum=0.95)#    (10): ReLU()#    (11): Linear(in_features=5408, out_features=4, bias=False)#    (12): AbsBatchNorm1d(bias=True, abs_bias=False, momentum=0.01, eps=1e-05)#    (13): Softplus(beta=1, threshold=20)#  )#)#!!5000!!True!0.5406056220834599!0.01!!!0.7183276242235369!!0.7656163140999093!0.8027841978247777!!!!!!!!!!!!!!!!!0.7973657070024209!!!!all![8, 8]!15-11-21a!absbndatasetsearch!54!0.4360340131526583!0.0001!0.001!False!False!PoissonNLLLoss!0.0008!AbsBNBNCNN!200!!0.1!!!absbndatasetsearch/absbndatasetsearch_54_dataset15-11-21a_lr0.0008!!1.0!54.0!!naturalscene
-7.728696894289842!0.6815312875906671!-8.063477425288875!0.6791901943973933!0.3901406019229126!0.13164417468781656!!!0.617681086063385!!!False!0.45382069954681203!AbsBNBNCNN(#  (sequential): Sequential(#    (0): Conv2d(40, 8, kernel_size=(15, 15), stride=(1, 1))#    (1): Flatten()#    (2): AbsBatchNorm1d(bias=True, abs_bias=False, momentum=0.01, eps=0.001)#    (3): GaussianNoise(std=0.1, trainable=False, adapt=False, momentum=0.95)#    (4): ReLU()#    (5): Reshape()#    (6): Conv2d(8, 8, kernel_size=(11, 11), stride=(1, 1))#    (7): Flatten()#    (8): AbsBatchNorm1d(bias=True, abs_bias=False, momentum=0.01, eps=0.001)#    (9): GaussianNoise(std=0.1, trainable=False, adapt=False, momentum=0.95)#    (10): ReLU()#    (11): Linear(in_features=5408, out_features=17, bias=False)#    (12): AbsBatchNorm1d(bias=True, abs_bias=False, momentum=0.01, eps=1e-05)#    (13): Softplus(beta=1, threshold=20)#  )#)#!!5000!!True!0.3475848064771679!0.01!0.772866502249983!0.6869903662217896!!!!0.7581012167948008!0.7645089531062048!0.7295807179227379!0.5921347800557581!0.7452470362858441!!0.7526609018201793!0.7739629734378008!0.625421408641298
…
1355625470655!0.5697858432647955!0.7259817848631637!0.4579862093535448!0.6672746482002602!!0.4878880742218921!!!0.5214861760476285!!!0.4560876330038754!0.7399887540074155!all![8, 8]!15-11-21b!absbndatasetsearch!66!0.25571095203565675!0.0001!0.01!False!False!PoissonNLLLoss!0.0008!AbsBNBNCNN!225!!0.1!!!absbndatasetsearch/absbndatasetsearch_66_lr0.0008_l20.01_noise0.1!!1.0!61.0!!naturalscene
-7.543067426823857!0.6777430233783381!-6.879054488087423!0.6054683678668418!0.3633305501809293!0.10179521602700574!!!0.6578658819198608!!!False!0.434904498639882!AbsBNBNCNN(#  (sequential): Sequential(#    (0): Conv2d(40, 8, kernel_size=(15, 15), stride=(1, 1))#    (1): Flatten()#    (2): AbsBatchNorm1d(bias=True, abs_bias=False, momentum=0.01, eps=0.001)#    (3): GaussianNoise(std=0.1, trainable=False, adapt=False, momentum=0.95)#    (4): ReLU()#    (5): Reshape()#    (6): Conv2d(8, 8, kernel_size=(11, 11), stride=(1, 1))#    (7): Flatten()#    (8): AbsBatchNorm1d(bias=True, abs_bias=False, momentum=0.01, eps=0.001)#    (9): GaussianNoise(std=0.1, trainable=False, adapt=False, momentum=0.95)#    (10): ReLU()#    (11): Linear(in_features=5408, out_features=5, bias=False)#    (12): AbsBatchNorm1d(bias=True, abs_bias=False, momentum=0.01, eps=1e-05)#    (13): Softplus(beta=1, threshold=20)#  )#)#!!5000!!True!0.2979867246799028!0.01!0.8016916681975989!0.6116161614724599!!!!!!!!!0.5237181541818405!!!!!!!!0.7843913109176398!!0.6672978221221517!!!!!!all![8, 8]!15-10-07!absbndatasetsearch!67!0.19943168019375804!0.0001!0.001!False!False!PoissonNLLLoss!0.001!AbsBNBNCNN!250!!0.1!!!absbndatasetsearch/absbndatasetsearch_67_dataset15-10-07_lr0.001!!1.0!67.0!!whitenoise
-7.576004170659763!0.6656020797832328!-7.647746482095681!0.6418453417481361!0.3830313915403908!0.12177042038886847!!!0.646481454372406!!!False!0.4394519856192071!AbsBNBNCNN(#  (sequential): Sequential(#    (0): Conv2d(40, 8, kernel_size=(15, 15), stride=(1, 1))#    (1): Flatten()#    (2): AbsBatchNorm1d(bias=True, abs_bias=False, momentum=0.01, eps=0.001)#    (3): GaussianNoise(std=0.05, trainable=False, adapt=False, momentum=0.95)#    (4): ReLU()#    (5): Reshape()#    (6): Conv2d(8, 8, kernel_size=(11, 11), stride=(1, 1))#    (7): Flatten()#    (8): AbsBatchNorm1d(bias=True, abs_bias=False, momentum=0.01, eps=0.001)#    (9): GaussianNoise(std=0.05, trainable=False, adapt=False, momentum=0.95)#    (10): ReLU()#    (11): Linear(in_features=5408, out_features=17, bias=False)#    (12): AbsBatchNorm1d(bias=True, abs_bias=False, momentum=0.01, eps=1e-05)#    (13): Softplus(beta=1, threshold=20)#  )#)#!!5000!!True!0.3702371439714919!0.01!0.7476704039759491!0.6765765583352732!!!!0.7332166424277287!0.7106403157410219!0.7033012272403886!0.5531441994436985!0.7578800075679415!!0.7634624501373266!0.7412771135369929!0.61205488616427
…
69560514395232!!0.5694246148889445!!!0.5349240320565214!!!0.4357312300631289!0.7436410826648356!all![8, 8]!15-11-21b!absbndatasetsearch!67!0.22372069074641807!0.0001!0.001!False!False!PoissonNLLLoss!0.0008!AbsBNBNCNN!225!!0.05!!!absbndatasetsearch/absbndatasetsearch_67_lr0.0008_l20.001_noise0.05!!1.0!61.0!!naturalscene
-4.000079759910925!0.7591654173851075!-3.9359477189282175!0.5533486325928776!0.3379985329058904!0.09821341816821362!!!0.6278027296066284!!!False!0.3879678526283371!LinearStackedBNCNN(#  (sequential): Sequential(#    (0): LinearStackedConv2d(#      (convs): Sequential(#        (0): Conv2d(40, 8, kernel_size=(3, 3), stride=(1, 1), bias=False)#        (1): AbsBatchNorm2d(bias=True, abs_bias=False, momentum=0.1, eps=1e-05)#        (2): Conv2d(8, 8, kernel_size=(3, 3), stride=(1, 1), bias=False)#        (3): AbsBatchNorm2d(bias=True, abs_bias=False, momentum=0.1, eps=1e-05)#        (4): Conv2d(8, 8, kernel_size=(3, 3), stride=(1, 1), bias=False)#        (5): AbsBatchNorm2d(bias=True, abs_bias=False, momentum=0.1, eps=1e-05)#        (6): Conv2d(8, 8, kernel_size=(3, 3), stride=(1, 1), bias=False)#        (7): AbsBatchNorm2d(bias=True, abs_bias=False, momentum=0.1, eps=1e-05)#        (8): Conv2d(8, 8, kernel_size=(3, 3), stride=(1, 1), bias=False)#        (9): AbsBatchNorm2d(bias=True, abs_bias=False, momentum=0.1, eps=1e-05)#        (10): Conv2d(8, 8, kernel_size=(3, 3), stride=(1, 1), bias=False)#        (11): AbsBatchNorm2d(bias=True, abs_bias=False, momentum=0.1, eps=1e-05)#        (12): Conv2d(8, 8, kernel_size=(3, 3), stride=(1, 1))#        (13): AbsBatchNorm2d(bias=True, abs_bias=False, momentum=0.1, eps=1e-05)#      )#    )#    (1): Flatten()#    (2): AbsBatchNorm1d(bias=True, abs_bias=False, momentum=0.01, eps=0.001)#    (3): GaussianNoise(std=0.1, trainable=False, adapt=False, momentum=0.95)#    (4): ReLU()#    (5): Reshape()#    (6): LinearStackedConv2d(#      (convs): Sequential(#        (0): Conv2d(8, 8, kernel_size=(3, 3), stride=(1, 1), bias=False)#        (1): AbsBatchNorm2d(bias=True, abs_bias=False, momentum=0.1, eps=1e-05)#        (2): Conv2d(8, 8, kernel_size=(3, 3), stride=(1, 1), bias=False)#        (3): AbsBatchNorm2d(bias=True, abs_bias=False, momentum=0.1, eps=1e-05)#        (4): Conv2d(8, 8, kernel_size=(3, 3), stride=(1, 1), bias=False)#        (5): AbsBatchNorm2d(bias=True, abs_bias=False, momentum=0.1, eps=1e-05)#        (6): Conv2d(8, 8, kernel_size=(3, 3), stride=(1, 1), bias=False)#        (7): AbsBatchNorm2d(bias=True, abs_bias=False, momentum=0.1, eps=1e-05)#        (8): Conv2d(8, 8, kernel_size=(3, 3), stride=(1, 1))#        (9): AbsBatchNorm2d(bias=True, abs_bias=False, momentum=0.1, eps=1e-05)#      )#    )#    (7): Flatten()#    (8): AbsBatchNorm1d(bias=True, abs_bias=False, momentum=0.01, eps=0.001)#    (9): GaussianNoise(std=0.1, trainable=False, adapt=False, momentum=0.95)#    (10): ReLU()#    (11): Linear(in_features=5408, out_features=5, bias=False)#    (12): AbsBatchNorm1d(bias=True, abs_bias=False, momentum=0.01, eps=0.001)#    (13): Softplus(beta=1, threshold=20)#  )#)#!!5000!!True!0.32952426548339553!0.01!0.8214076323417175!0.6574374858511091!!!!!!!!!0.6735624799388021!!!!!!!!0.8249899737232338!!0.8184295150706755!!!!!!all![8, 8]!15-10-07!linearstacked!1!0.19468167062271266!0.0001!0.001!False!False!PoissonNLLLoss!0.0075!LinearStackedBNCNN!150!!0.1!!!linearstacked/linearstacked_1_lr0.0075!!1.0!1.0!!naturalscene
-4.036833421507878!0.7579337145623516!-4.03034983787511!0.4897728127972445!0.3250045715520509!0.09893384445138564!!!0.630444347858429!!!False!0.3765602896244853!LinearStackedBNCNN(#  (sequential): Sequential(#    (0): LinearStackedConv2d(#      (convs): Sequential(#        (0): Conv2d(40, 8, kernel_size=(3, 3), stride=(1, 1), bias=False)#        (1): AbsBatchNorm2d(bias=True, abs_bias=False, momentum=0.1, eps=1e-05)#        (2): Conv2d(8, 8, kernel_size=(3, 3), stride=(1, 1), bias=False)#        (3): AbsBatchNorm2d(bias=True, abs_bias=False, momentum=0.1, eps=1e-05)#        (4): Conv2d(8, 8, kernel_size=(3, 3), stride=(1, 1), bias=False)#        (5): AbsBatchNorm2d(bias=True, abs_bias=False, momentum=0.1, eps=1e-05)#        (6): Conv2d(8, 8, kernel_size=(3, 3), stride=(1, 1), bias=False)#        (7): AbsBatchNorm2d(bias=True, abs_bias=False, momentum=0.1, eps=1e-05)#        (8): Conv2d(8, 8, kernel_size=(3, 3), stride=(1, 1), bias=False)#        (9): AbsBatchNorm2d(bias=True, abs_bias=False, momentum=0.1, eps=1e-05)#        (10): Conv2d(8, 8, kernel_size=(3, 3), stride=(1, 1), bias=False)#        (11): AbsBatchNorm2d(bias=True, abs_bias=False, momentum=0.1, eps=1e-05)#        (12): Conv2d(8, 8, kernel_size=(3, 3), stride=(1, 1))#        (13): AbsBatchNorm2d(bias=True, abs_bias=False, momentum=0.1, eps=1e-05)#      )#    )#    (1): Flatten()#    (2): AbsBatchNorm1d(bias=True, abs_bias=False, momentum=0.01, eps=0.001)#    (3): GaussianNoise(std=0.1, trainable=False, adapt=False, momentum=0.95)#    (4): ReLU()#    (5): Reshape()#    (6): LinearStackedConv2d(#      (convs): Sequential(#        (0): Conv2d(8, 8, kernel_size=(3, 3), stride=(1, 1), bias=False)#        (1): AbsBatchNorm2d(bias=True, abs_bias=False, momentum=0.1, eps=1e-05)#        (2): Conv2d(8, 8, kernel_size=(3, 3), stride=(1, 1), bias=False)#        (3): AbsBatchNorm2d(bias=True, abs_bias=False, momentum=0.1, eps=1e-05)#        (4): Conv2d(8, 8, kernel_size=(3, 3), stride=(1, 1), bias=False)#        (5): AbsBatchNorm2d(bias=True, abs_bias=False, momentum=0.1, eps=1e-05)#        (6): Conv2d(8, 8, kernel_size=(3, 3), stride=(1, 1), bias=False)#        (7): AbsBatchNorm2d(bias=True, abs_bias=False, momentum=0.1, eps=1e-05)#        (8): Conv2d(8, 8, kernel_size=(3, 3), stride=(1, 1))#        (9): AbsBatchNorm2d(bias=True, abs_bias=False, momentum=0.1, eps=1e-05)#      )#    )#    (7): Flatten()#    (8): AbsBatchNorm1d(bias=True, abs_bias=False, momentum=0.01, eps=0.001)#    (9): GaussianNoise(std=0.1, trainable=False, adapt=False, momentum=0.95)#    (10): ReLU()#    (11): Linear(in_features=5408, out_features=5, bias=False)#    (12): AbsBatchNorm1d(bias=True, abs_bias=False, momentum=0.01, eps=0.001)#    (13): Softplus(beta=1, threshold=20)#  )#)#!!5000!!True!0.3027186956575644!0.01!0.8167662024515292!0.6350970548047365!!!!!!!!!0.6883317369692603!!!!!!!!0.8258330941197309!!0.8236404844665011!!!!!!all![8, 8]!15-10-07!linearstacked!2!0.18767087636379248!0.0001!0.001!False!False!PoissonNLLLoss!0.005!LinearStackedBNCNN!150!!0.1!!!linearstacked/linearstacked_2_lr0.005!!1.0!1.0!!naturalscene
-4.014184101304012!0.7414775144990242!-4.1265673768357365!0.42827603832029854!0.28964893619783866!0.08324536846386034!!!0.6361078023910522!!!False!0.3331628040069001!LinearStackedBNCNN(#  (sequential): Sequential(#    (0): LinearStackedConv2d(#      (convs): Sequential(#        (0): Conv2d(40, 8, kernel_size=(3, 3), stride=(1, 1), bias=False)#        (1): AbsBatchNorm2d(bias=True, abs_bias=False, momentum=0.1, eps=1e-05)#        (2): Conv2d(8, 8, kernel_size=(3, 3), stride=(1, 1), bias=False)#        (3): AbsBatchNorm2d(bias=True, abs_bias=False, momentum=0.1, eps=1e-05)#        (4): Conv2d(8, 8, kernel_size=(3, 3), stride=(1, 1), bias=False)#        (5): AbsBatchNorm2d(bias=True, abs_bias=False, momentum=0.1, eps=1e-05)#        (6): Conv2d(8, 8, kernel_size=(3, 3), stride=(1, 1), bias=False)#        (7): AbsBatchNorm2d(bias=True, abs_bias=False, momentum=0.1, eps=1e-05)#        (8): Conv2d(8, 8, kernel_size=(3, 3), stride=(1, 1), bias=False)#        (9): AbsBatchNorm2d(bias=True, abs_bias=False, momentum=0.1, eps=1e-05)#        (10): Conv2d(8, 8, kernel_size=(3, 3), stride=(1, 1), bias=False)#        (11): AbsBatchNorm2d(bias=True, abs_bias=False, momentum=0.1, eps=1e-05)#        (12): Conv2d(8, 8, kernel_size=(3, 3), stride=(1, 1))#        (13): AbsBatchNorm2d(bias=True, abs_bias=False, momentum=0.1, eps=1e-05)#      )#    )#    (1): Flatten()#    (2): AbsBatchNorm1d(bias=True, abs_bias=False, momentum=0.01, eps=0.001)#    (3): GaussianNoise(std=0.1, trainable=False, adapt=False, momentum=0.95)#    (4): ReLU()#    (5): Reshape()#    (6): LinearStackedConv2d(#      (convs): Sequential(#        (0): Conv2d(8, 8, kernel_size=(3, 3), stride=(1, 1), bias=False)#        (1): AbsBatchNorm2d(bias=True, abs_bias=False, momentum=0.1, eps=1e-05)#        (2): Conv2d(8, 8, kernel_size=(3, 3), stride=(1, 1), bias=False)#        (3): AbsBatchNorm2d(bias=True, abs_bias=False, momentum=0.1, eps=1e-05)#        (4): Conv2d(8, 8, kernel_size=(3, 3), stride=(1, 1), bias=False)#        (5): AbsBatchNorm2d(bias=True, abs_bias=False, momentum=0.1, eps=1e-05)#        (6): Conv2d(8, 8, kernel_size=(3, 3), stride=(1, 1), bias=False)#        (7): AbsBatchNorm2d(bias=True, abs_bias=False, momentum=0.1, eps=1e-05)#        (8): Conv2d(8, 8, kernel_size=(3, 3), stride=(1, 1))#        (9): AbsBatchNorm2d(bias=True, abs_bias=False, momentum=0.1, eps=1e-05)#      )#    )#    (7): Flatten()#    (8): AbsBatchNorm1d(bias=True, abs_bias=False, momentum=0.01, eps=0.001)#    (9): GaussianNoise(std=0.1, trainable=False, adapt=False, momentum=0.95)#    (10): ReLU()#    (11): Linear(in_features=5408, out_features=5, bias=False)#    (12): AbsBatchNorm1d(bias=True, abs_bias=False, momentum=0.01, eps=0.001)#    (13): Softplus(beta=1, threshold=20)#  )#)#!!5000!!True!0.26902571451497026!0.01!0.7935545968586242!0.625751790602994!!!!!!!!!0.6622320713038287!!!!!!!!0.8043946711232833!!0.821454442606391!!!!!!all![8, 8]!15-10-07!linearstacked!3!0.1751476163017744!0.0001!0.001!False!False!PoissonNLLLoss!0.001!LinearStackedBNCNN!150!!0.1!!!linearstacked/linearstacked_3_lr0.001!!1.0!1.0!!naturalscene
-0.4532548484962378!0.1442205354139227!-0.06620521529112011!!!!!!0.1374656856060028!!!False!!LinearStackedBNCNN(#  (sequential): Sequential(#    (0): LinearStackedConv2d(#      (convs): Sequential(#        (0): Conv2d(40, 8, kernel_size=(3, 3), stride=(1, 1), bias=False)#        (1): Conv2d(8, 8, kernel_size=(3, 3), stride=(1, 1), bias=False)#        (2): Conv2d(8, 8, kernel_size=(3, 3), stride=(1, 1), bias=False)#        (3): Conv2d(8, 8, kernel_size=(3, 3), stride=(1, 1), bias=False)#        (4): Conv2d(8, 8, kernel_size=(3, 3), stride=(1, 1), bias=False)#        (5): Conv2d(8, 8, kernel_size=(3, 3), stride=(1, 1), bias=False)#        (6): Conv2d(8, 8, kernel_size=(3, 3), stride=(1, 1))#      )#    )#    (1): Flatten()#    (2): AbsBatchNorm1d(bias=True, abs_bias=False, momentum=0.01, eps=0.001)#    (3): GaussianNoise(std=0.1, trainable=False, adapt=False, momentum=0.95)#    (4): ReLU()#    (5): Reshape()#    (6): LinearStackedConv2d(#      (convs): Sequential(#        (0): Conv2d(8, 8, kernel_size=(3, 3), stride=(1, 1), bias=False)#        (1): Conv2d(8, 8, kernel_size=(3, 3), stride=(1, 1), bias=False)#        (2): Conv2d(8, 8, kernel_size=(3, 3), stride=(1, 1), bias=False)#        (3): Conv2d(8, 8, kernel_size=(3, 3), stride=(1, 1), bias=False)#        (4): Conv2d(8, 8, kernel_size=(3, 3), stride=(1, 1))#      )#    )#    (7): Flatten()#    (8): AbsBatchNorm1d(bias=True, abs_bias=False, momentum=0.01, eps=0.001)#    (9): GaussianNoise(std=0.1, trainable=False, adapt=False, momentum=0.95)#    (10): ReLU()#    (11): Linear(in_features=5408, out_features=5, bias=False)#    (12): AbsBatchNorm1d(bias=True, abs_bias=False, momentum=0.01, eps=0.001)#    (13): Softplus(beta=1, threshold=20)#  )#)#!!5000!!True!!0.01!0.1888087836656336!0.13233835012177375!!!!!!!!!0.15053973542493834!!!!!!!!0.16240192065245332!!0.08701388720481468!!!!!!all![8, 8]!15-10-07!linearstacked!4!!0.0001!0.001!False!False!PoissonNLLLoss!0.01!LinearStackedBNCNN!150!!0.1!!!linearstacked/linearstacked_4_lr0.01!!1.0!4.0!!naturalscene
-4.017476540892871!0.7495643440592951!-3.9264248748251696!0.5969606279714641!0.3887238326423583!0.11107329232934632!!!0.626376748085022!!!False!0.450779146398778!LinearStackedBNCNN(#  (sequential): Sequential(#    (0): LinearStackedConv2d(#      (convs): Sequential(#        (0): Conv2d(40, 8, kernel_size=(3, 3), stride=(1, 1), bias=False)#        (1): Conv2d(8, 8, kernel_size=(3, 3), stride=(1, 1), bias=False)#        (2): Conv2d(8, 8, kernel_size=(3, 3), stride=(1, 1), bias=False)#        (3): Conv2d(8, 8, kernel_size=(3, 3), stride=(1, 1), bias=False)#        (4): Conv2d(8, 8, kernel_size=(3, 3), stride=(1, 1), bias=False)#        (5): Conv2d(8, 8, kernel_size=(3, 3), stride=(1, 1), bias=False)#        (6): Conv2d(8, 8, kernel_size=(3, 3), stride=(1, 1))#      )#    )#    (1): Flatten()#    (2): AbsBatchNorm1d(bias=True, abs_bias=False, momentum=0.01, eps=0.001)#    (3): GaussianNoise(std=0.1, trainable=False, adapt=False, momentum=0.95)#    (4): ReLU()#    (5): Reshape()#    (6): LinearStackedConv2d(#      (convs): Sequential(#        (0): Conv2d(8, 8, kernel_size=(3, 3), stride=(1, 1), bias=False)#        (1): Conv2d(8, 8, kernel_size=(3, 3), stride=(1, 1), bias=False)#        (2): Conv2d(8, 8, kernel_size=(3, 3), stride=(1, 1), bias=False)#        (3): Conv2d(8, 8, kernel_size=(3, 3), stride=(1, 1), bias=False)#        (4): Conv2d(8, 8, kernel_size=(3, 3), stride=(1, 1))#      )#    )#    (7): Flatten()#    (8): AbsBatchNorm1d(bias=True, abs_bias=False, momentum=0.01, eps=0.001)#    (9): GaussianNoise(std=0.1, trainable=False, adapt=False, momentum=0.95)#    (10): ReLU()#    (11): Linear(in_features=5408, out_features=5, bias=False)#    (12): AbsBatchNorm1d(bias=True, abs_bias=False, momentum=0.01, eps=0.001)#    (13): Softplus(beta=1, threshold=20)#  )#)#!!5000!!True!0.3614903767904344!0.01!0.8180818660981556!0.6318625656031686!!!!!!!!!0.6749143855439448!!!!!!!!0.8026327854282367!!0.8203301176229688!!!!!!all![8, 8]!15-10-07!linearstacked!5!0.22373946814681733!0.0001!0.001!False!False!PoissonNLLLoss!0.0075!LinearStackedBNCNN!150!!0.1!!!linearstacked/linearstacked_5_lr0.0075!!1.0!5.0!!naturalscene
-4.015746739373278!0.758939211095234!-4.004100264122826!0.5587910747397569!0.3548760462619149!0.10396024213225878!!!0.6269418597221375!!!False!0.4101374494825581!LinearStackedBNCNN(#  (sequential): Sequential(#    (0): LinearStackedConv2d(#      (convs): Sequential(#        (0): Conv2d(40, 8, kernel_size=(3, 3), stride=(1, 1), bias=False)#        (1): Conv2d(8, 8, kernel_size=(3, 3), stride=(1, 1), bias=False)#        (2): Conv2d(8, 8, kernel_size=(3, 3), stride=(1, 1), bias=False)#        (3): Conv2d(8, 8, kernel_size=(3, 3), stride=(1, 1), bias=False)#        (4): Conv2d(8, 8, kernel_size=(3, 3), stride=(1, 1), bias=False)#        (5): Conv2d(8, 8, kernel_size=(3, 3), stride=(1, 1), bias=False)#        (6): Conv2d(8, 8, kernel_size=(3, 3), stride=(1, 1))#      )#    )#    (1): Flatten()#    (2): AbsBatchNorm1d(bias=True, abs_bias=False, momentum=0.01, eps=0.001)#    (3): GaussianNoise(std=0.1, trainable=False, adapt=False, momentum=0.95)#    (4): ReLU()#    (5): Reshape()#    (6): LinearStackedConv2d(#      (convs): Sequential(#        (0): Conv2d(8, 8, kernel_size=(3, 3), stride=(1, 1), bias=False)#        (1): Conv2d(8, 8, kernel_size=(3, 3), stride=(1, 1), bias=False)#        (2): Conv2d(8, 8, kernel_size=(3, 3), stride=(1, 1), bias=False)#        (3): Conv2d(8, 8, kernel_size=(3, 3), stride=(1, 1), bias=False)#        (4): Conv2d(8, 8, kernel_size=(3, 3), stride=(1, 1))#      )#    )#    (7): Flatten()#    (8): AbsBatchNorm1d(bias=True, abs_bias=False, momentum=0.01, eps=0.001)#    (9): GaussianNoise(std=0.1, trainable=False, adapt=False, momentum=0.95)#    (10): ReLU()#    (11): Linear(in_features=5408, out_features=5, bias=False)#    (12): AbsBatchNorm1d(bias=True, abs_bias=False, momentum=0.01, eps=0.001)#    (13): Softplus(beta=1, threshold=20)#  )#)#!!5000!!True!0.3309537475929863!0.01!0.8144247484982416!0.6467008518844498!!!!!!!!!0.6943163220273278!!!!!!!!0.8296909031542979!!0.8095632299118525!!!!!!all![8, 8]!15-10-07!linearstacked!6!0.2076980688980409!0.0001!0.001!False!False!PoissonNLLLoss!0.005!LinearStackedBNCNN!150!!0.1!!!linearstacked/linearstacked_6_lr0.005!!1.0!5.0!!naturalscene
-3.9655311961672206!0.7490796528491857!-4.068399457258057!0.5922838827069904!0.3281070078316721!0.08759831859493876!!!0.6390774846076965!!!False!0.3892758414360041!LinearStackedBNCNN(#  (sequential): Sequential(#    (0): LinearStackedConv2d(#      (convs): Sequential(#        (0): Conv2d(40, 8, kernel_size=(3, 3), stride=(1, 1), bias=False)#        (1): Conv2d(8, 8, kernel_size=(3, 3), stride=(1, 1), bias=False)#        (2): Conv2d(8, 8, kernel_size=(3, 3), stride=(1, 1), bias=False)#        (3): Conv2d(8, 8, kernel_size=(3, 3), stride=(1, 1), bias=False)#        (4): Conv2d(8, 8, kernel_size=(3, 3), stride=(1, 1), bias=False)#        (5): Conv2d(8, 8, kernel_size=(3, 3), stride=(1, 1), bias=False)#        (6): Conv2d(8, 8, kernel_size=(3, 3), stride=(1, 1))#      )#    )#    (1): Flatten()#    (2): AbsBatchNorm1d(bias=True, abs_bias=False, momentum=0.01, eps=0.001)#    (3): GaussianNoise(std=0.1, trainable=False, adapt=False, momentum=0.95)#    (4): ReLU()#    (5): Reshape()#    (6): LinearStackedConv2d(#      (convs): Sequential(#        (0): Conv2d(8, 8, kernel_size=(3, 3), stride=(1, 1), bias=False)#        (1): Conv2d(8, 8, kernel_size=(3, 3), stride=(1, 1), bias=False)#        (2): Conv2d(8, 8, kernel_size=(3, 3), stride=(1, 1), bias=False)#        (3): Conv2d(8, 8, kernel_size=(3, 3), stride=(1, 1), bias=False)#        (4): Conv2d(8, 8, kernel_size=(3, 3), stride=(1, 1))#      )#    )#    (7): Flatten()#    (8): AbsBatchNorm1d(bias=True, abs_bias=False, momentum=0.01, eps=0.001)#    (9): GaussianNoise(std=0.1, trainable=False, adapt=False, momentum=0.95)#    (10): ReLU()#    (11): Linear(in_features=5408, out_features=5, bias=False)#    (12): AbsBatchNorm1d(bias=True, abs_bias=False, momentum=0.01, eps=0.001)#    (13): Softplus(beta=1, threshold=20)#  )#)#!!5000!!True!0.29042406597839804!0.01!0.8098712779587829!0.650749058939021!!!!!!!!!0.6588331137843445!!!!!!!!0.8306098347023888!!0.7953349788613906!!!!!!all![8, 8]!15-10-07!linearstacked!7!0.17390946179344435!0.0001!0.001!False!False!PoissonNLLLoss!0.001!LinearStackedBNCNN!150!!0.1!!!linearstacked/linearstacked_7_lr0.001!!1.0!5.0!!naturalscene
-3.1717546377609027!0.7533277822607222!-3.2515109444939303!0.6084323237198218!0.33737142969239353!0.10244448799431503!!!0.626886248588562!!!False!0.3996913256688309!LinearStackedBNCNN(#  (sequential): Sequential(#    (0): LinearStackedConv2d(#      (convs): Sequential(#        (0): Conv2d(40, 8, kernel_size=(3, 3), stride=(1, 1), bias=False)#        (1): Conv2d(8, 8, kernel_size=(3, 3), stride=(1, 1), bias=False)#        (2): Conv2d(8, 8, kernel_size=(3, 3), stride=(1, 1), bias=False)#        (3): Conv2d(8, 8, kernel_size=(3, 3), stride=(1, 1), bias=False)#        (4): Conv2d(8, 8, kernel_size=(3, 3), stride=(1, 1), bias=False)#        (5): Conv2d(8, 8, kernel_size=(3, 3), stride=(1, 1), bias=False)#        (6): Conv2d(8, 8, kernel_size=(3, 3), stride=(1, 1))#      )#    )#    (1): Flatten()#    (2): AbsBatchNorm1d(bias=True, abs_bias=False, momentum=0.01, eps=0.001)#    (3): GaussianNoise(std=0.1, trainable=False, adapt=False, momentum=0.95)#    (4): ReLU()#    (5): Reshape()#    (6): LinearStackedConv2d(#      (convs): Sequential(#        (0): Conv2d(8, 8, kernel_size=(3, 3), stride=(1, 1), bias=False)#        (1): Conv2d(8, 8, kernel_size=(3, 3), stride=(1, 1), bias=False)#        (2): Conv2d(8, 8, kernel_size=(3, 3), stride=(1, 1), bias=False)#        (3): Conv2d(8, 8, kernel_size=(3, 3), stride=(1, 1), bias=False)#        (4): Conv2d(8, 8, kernel_size=(3, 3), stride=(1, 1))#      )#    )#    (7): Flatten()#    (8): AbsBatchNorm1d(bias=True, abs_bias=False, momentum=0.01, eps=0.001)#    (9): GaussianNoise(std=0.1, trainable=False, adapt=False, momentum=0.95)#    (10): ReLU()#    (11): Linear(in_features=5408, out_features=5, bias=False)#    (12): AbsBatchNorm1d(bias=True, abs_bias=False, momentum=0.01, eps=0.001)#    (13): Softplus(beta=1, threshold=20)#  )#)#!!5000!!True!0.2860336727127356!0.01!0.794283148863237!0.6498673480537384!!!!!!!!!0.6852314125746697!!!!!!!!0.8120325264326242!!0.8252244753793416!!!!!!all![8, 8]!15-10-07!linearstacked!8!0.1903411083028155!0.0001!0.001!False!False!PoissonNLLLoss!0.00025!LinearStackedBNCNN!150!!0.1!!!linearstacked/linearstacked_8_lr0.00025!!1.0!5.0!!naturalscene
-3.940390373343852!0.7308838912788486!-2.0083089583153195!0.6496082492703978!0.38929298538910223!0.12600022916192485!!!0.5022321343421936!!!False!0.4564767898473007!BNCNN(#  (sequential): Sequential(#    (0): Conv2d(40, 8, kernel_size=(15, 15), stride=(1, 1))#    (1): Flatten()#    (2): BatchNorm1d(10368, eps=0.001, momentum=0.01, affine=True, track_running_stats=True)#    (3): GaussianNoise(std=0.1, trainable=False, adapt=False, momentum=0.95)#    (4): ReLU()#    (5): Reshape()#    (6): Conv2d(8, 8, kernel_size=(11, 11), stride=(1, 1))#    (7): Flatten()#    (8): BatchNorm1d(5408, eps=0.001, momentum=0.01, affine=True, track_running_stats=True)#    (9): GaussianNoise(std=0.1, trainable=False, adapt=False, momentum=0.95)#    (10): ReLU()#    (11): Linear(in_features=5408, out_features=5, bias=False)#    (12): BatchNorm1d(5, eps=0.001, momentum=0.01, affine=True, track_running_stats=True)#    (13): Softplus(beta=1, threshold=20)#  )#)#!!5000!!True!0.3296556352256803!0.01!0.7892662434667694!0.6432885885116253!!!!!!!!!0.6376791704533733!!!!!!!!0.7851677574306041!!0.7990176965318708!!!!!!all![8, 8]!15-10-07!noshufflebncnn!1!0.23412617769716856!0.0001!0.001!False!False!PoissonNLLLoss!0.0075!BNCNN!150!!0.1!!!noshufflebncnn/noshufflebncnn_1_dataset15-10-07_lr0.0075!!1.0!1.0!!naturalscene
-3.9029590015980733!0.7427889976272152!-2.0736562672376757!0.6431900997487162!0.38117888550057627!0.1213456388792362!!!0.5090228915214539!!!False!0.4433794782787587!BNCNN(#  (sequential): Sequential(#    (0): Conv2d(40, 8, kernel_size=(15, 15), stride=(1, 1))#    (1): Flatten()#    (2): BatchNorm1d(10368, eps=0.001, momentum=0.01, affine=True, track_running_stats=True)#    (3): GaussianNoise(std=0.1, trainable=False, adapt=False, momentum=0.95)#    (4): ReLU()#    (5): Reshape()#    (6): Conv2d(8, 8, kernel_size=(11, 11), stride=(1, 1))#    (7): Flatten()#    (8): BatchNorm1d(5408, eps=0.001, momentum=0.01, affine=True, track_running_stats=True)#    (9): GaussianNoise(std=0.1, trainable=False, adapt=False, momentum=0.95)#    (10): ReLU()#    (11): Linear(in_features=5408, out_features=5, bias=False)#    (12): BatchNorm1d(5, eps=0.001, momentum=0.01, affine=True, track_running_stats=True)#    (13): Softplus(beta=1, threshold=20)#  )#)#!!5000!!True!0.34338623245800204!0.01!0.7973138453919858!0.6510396074699063!!!!!!!!!0.6580418161498524!!!!!!!!0.8005188209398321!!0.8070308981844996!!!!!!all![8, 8]!15-10-07!noshufflebncnn!2!0.2239713928658091!0.0001!0.001!False!False!PoissonNLLLoss!0.005!BNCNN!150!!0.1!!!noshufflebncnn/noshufflebncnn_2_dataset15-10-07_lr0.005!!1.0!1.0!!naturalscene
-3.2658551379815846!0.7479513964936523!-1.7376755843921274!0.6261743043118431!0.336346318076505!0.08642396776526083!!!0.4911412298679352!!!False!0.4007360381194588!BNCNN(#  (sequential): Sequential(#    (0): Conv2d(40, 8, kernel_size=(15, 15), stride=(1, 1))#    (1): Flatten()#    (2): BatchNorm1d(10368, eps=0.001, momentum=0.01, affine=True, track_running_stats=True)#    (3): GaussianNoise(std=0.1, trainable=False, adapt=False, momentum=0.95)#    (4): ReLU()#    (5): Reshape()#    (6): Conv2d(8, 8, kernel_size=(11, 11), stride=(1, 1))#    (7): Flatten()#    (8): BatchNorm1d(5408, eps=0.001, momentum=0.01, affine=True, track_running_stats=True)#    (9): GaussianNoise(std=0.1, trainable=False, adapt=False, momentum=0.95)#    (10): ReLU()#    (11): Linear(in_features=5408, out_features=5, bias=False)#    (12): BatchNorm1d(5, eps=0.001, momentum=0.01, affine=True, track_running_stats=True)#    (13): Softplus(beta=1, threshold=20)#  )#)#!!5000!!True!0.28277075744307417!0.01!0.7774206817197464!0.6578413919404109!!!!!!!!!0.6786940458184756!!!!!!!!0.8186416922190501!!0.807159170770578!!!!!!all![8, 8]!15-10-07!noshufflebncnn!3!0.184847038440312!0.0001!0.001!False!False!PoissonNLLLoss!0.001!BNCNN!150!!0.1!!!noshufflebncnn/noshufflebncnn_3_dataset15-10-07_lr0.001!!1.0!1.0!!naturalscene
-10.756741281765606!0.7896054194390307!-13.25329944177356!0.7257089367704649!0.5097538337752688!0.2322856759922913!!!0.6731239557266235!!!False!0.5626432797588874!BNCNN(#  (sequential): Sequential(#    (0): Conv2d(40, 8, kernel_size=(15, 15), stride=(1, 1))#    (1): Flatten()#    (2): BatchNorm1d(10368, eps=0.001, momentum=0.01, affine=True, track_running_stats=True)#    (3): GaussianNoise(std=0.1, trainable=False, adapt=False, momentum=0.95)#    (4): ReLU()#    (5): Reshape()#    (6): Conv2d(8, 8, kernel_size=(11, 11), stride=(1, 1))#    (7): Flatten()#    (8): BatchNorm1d(5408, eps=0.001, momentum=0.01, affine=True, track_running_stats=True)#    (9): GaussianNoise(std=0.1, trainable=False, adapt=False, momentum=0.95)#    (10): ReLU()#    (11): Linear(in_features=5408, out_features=4, bias=False)#    (12): BatchNorm1d(4, eps=0.001, momentum=0.01, affine=True, track_running_stats=True)#    (13): Softplus(beta=1, threshold=20)#  )#)#!!5000!!True!0.5058174498127509!0.01!!!0.7416774356924286!!0.7909575140061414!0.8348093906846302!!!!!!!!!!!!!!!!!0.7909773373729228!!!!all![8, 8]!15-11-21a!noshufflebncnn!4!0.35414712779526075!0.0001!0.001!False!False!PoissonNLLLoss!0.0075!BNCNN!150!!0.1!!!noshufflebncnn/noshufflebncnn_4_dataset15-11-21a_lr0.0075!!1.0!1.0!!naturalscene
-11.01140008043887!0.7838171739629844!-12.856035201851046!0.6776909783298001!0.4810924165397703!0.20443295791726315!!!0.6760818958282471!!!False!0.5328079515860528!BNCNN(#  (sequential): Sequential(#    (0): Conv2d(40, 8, kernel_size=(15, 15), stride=(1, 1))#    (1): Flatten()#    (2): BatchNorm1d(10368, eps=0.001, momentum=0.01, affine=True, track_running_stats=True)#    (3): GaussianNoise(std=0.1, trainable=False, adapt=False, momentum=0.95)#    (4): ReLU()#    (5): Reshape()#    (6): Conv2d(8, 8, kernel_size=(11, 11), stride=(1, 1))#    (7): Flatten()#    (8): BatchNorm1d(5408, eps=0.001, momentum=0.01, affine=True, track_running_stats=True)#    (9): GaussianNoise(std=0.1, trainable=False, adapt=False, momentum=0.95)#    (10): ReLU()#    (11): Linear(in_features=5408, out_features=4, bias=False)#    (12): BatchNorm1d(4, eps=0.001, momentum=0.01, affine=True, track_running_stats=True)#    (13): Softplus(beta=1, threshold=20)#  )#)#!!5000!!True!0.4453705437260551!0.01!!!0.7482558152570363!!0.7946311132263686!0.8074843555992369!!!!!!!!!!!!!!!!!0.784897411769296!!!!all![8, 8]!15-11-21a!noshufflebncnn!5!0.3537294902560349!0.0001!0.001!False!False!PoissonNLLLoss!0.005!BNCNN!150!!0.1!!!noshufflebncnn/noshufflebncnn_5_dataset15-11-21a_lr0.005!!1.0!1.0!!naturalscene
-10.699932923957485!0.7602596176984402!-12.311248914347381!0.7551557177705381!0.4951386603360789!0.1494125719750048!!!0.6647334694862366!!!False!0.5694907881629777!BNCNN(#  (sequential): Sequential(#    (0): Conv2d(40, 8, kernel_size=(15, 15), stride=(1, 1))#    (1): Flatten()#    (2): BatchNorm1d(10368, eps=0.001, momentum=0.01, affine=True, track_running_stats=True)#    (3): GaussianNoise(std=0.1, trainable=False, adapt=False, momentum=0.95)#    (4): ReLU()#    (5): Reshape()#    (6): Conv2d(8, 8, kernel_size=(11, 11), stride=(1, 1))#    (7): Flatten()#    (8): BatchNorm1d(5408, eps=0.001, momentum=0.01, affine=True, track_running_stats=True)#    (9): GaussianNoise(std=0.1, trainable=False, adapt=False, momentum=0.95)#    (10): ReLU()#    (11): Linear(in_features=5408, out_features=4, bias=False)#    (12): BatchNorm1d(4, eps=0.001, momentum=0.01, affine=True, track_running_stats=True)#    (13): Softplus(beta=1, threshold=20)#  )#)#!!5000!!True!0.4723844377636585!0.01!!!0.7414253527106153!!0.7805913903473758!0.7718086360715686!!!!!!!!!!!!!!!!!0.7472130916642009!!!!all![8, 8]!15-11-21a!noshufflebncnn!6!0.28978000552281963!0.0001!0.001!False!False!PoissonNLLLoss!0.001!BNCNN!150!!0.1!!!noshufflebncnn/noshufflebncnn_6_dataset15-11-21a_lr0.001!!1.0!1.0!!naturalscene
-7.5748455631199185!0.6754253634011051!-6.1452576379699195!0.7108434885216109!0.4693243404523054!0.2649617925434127!!!0.5152212977409363!!!False!0.5110386963381839!BNCNN(#  (sequential): Sequential(#    (0): Conv2d(40, 8, kernel_size=(15, 15), stride=(1, 1))#    (1): Flatten()#    (2): BatchNorm1d(10368, eps=0.001, momentum=0.01, affine=True, track_running_stats=True)#    (3): GaussianNoise(std=0.1, trainable=False, adapt=False, momentum=0.95)#    (4): ReLU()#    (5): Reshape()#    (6): Conv2d(8, 8, kernel_size=(11, 11), stride=(1, 1))#    (7): Flatten()#    (8): BatchNorm1d(5408, eps=0.001, momentum=0.01, affine=True, track_running_stats=True)#    (9): GaussianNoise(std=0.1, trainable=False, adapt=False, momentum=0.95)#    (10): ReLU()#    (11): Linear(in_features=5408, out_features=17, bias=False)#    (12): BatchNorm1d(17, eps=0.001, momentum=0.01, affine=True, track_running_stats=True)#    (13): Softplus(beta=1, threshold=20)#  )#)#!!5000!!True!0.4196007797919393!0.01!0.7539980961199606!0.6869473712700396!!!!0.7459985157637319!0.7384119541875144!0.7213513960176334!0.5504446919419907!0.7282224280889505!!0.7615344552759621!0.7478947788700552!0.6187127659748858!0.7874006926295274!0.5351931111494329!0.7283433871732551!!0.5660238593197356!!!0.5807829808851561!!!0.4618759973440227!0.7690946958069331!all![8, 8]!15-11-21b!noshufflebncnn!7!0.38285515330828784!0.0001!0.001!False!False!PoissonNLLLoss!0.0075!BNCNN!150!!0.1!!!noshufflebncnn/noshufflebncnn_7_dataset15-11-21b_lr0.0075!!1.0!1.0!!naturalscene
-7.748936574850509!0.6828939015310078!-6.186570119840328!0.650041651670523!0.38698011383165815!0.21374165292095185!!!0.5152299404144287!!!False!0.4304071552785088!BNCNN(#  (sequential): Sequential(#    (0): Conv2d(40, 8, kernel_size=(15, 15), stride=(1, 1))#    (1): Flatten()#    (2): BatchNorm1d(10368, eps=0.001, momentum=0.01, affine=True, track_running_stats=True)#    (3): GaussianNoise(std=0.1, trainable=False, adapt=False, momentum=0.95)#    (4): ReLU()#    (5): Reshape()#    (6): Conv2d(8, 8, kernel_size=(11, 11), stride=(1, 1))#    (7): Flatten()#    (8): BatchNorm1d(5408, eps=0.001, momentum=0.01, affine=True, track_running_stats=True)#    (9): GaussianNoise(std=0.1, trainable=False, adapt=False, momentum=0.95)#    (10): ReLU()#    (11): Linear(in_features=5408, out_features=17, bias=False)#    (12): BatchNorm1d(17, eps=0.001, momentum=0.01, affine=True, track_running_stats=True)#    (13): Softplus(beta=1, threshold=20)#  )#)#!!5000!!True!0.3702166055438068!0.01!0.749432171833467!0.7183636373346168!!!!0.7569372052597549!0.754473368678392!0.7142828321442086!0.5796645257173944!0.7347426966660404!!0.7632113989720873!0.7466817255767745!0.6213005498400795!0.7852308172299236!0.4994350463786328!0.7343902520306951!!0.5658959097863988!!!0.5852803981288828!!!0.5189359723911147!0.7809378180586701!all![8, 8]!15-11-21b!noshufflebncnn!8!0.2697372737149902!0.0001!0.001!False!False!PoissonNLLLoss!0.005!BNCNN!150!!0.1!!!noshufflebncnn/noshufflebncnn_8_dataset15-11-21b_lr0.005!!1.0!1.0!!naturalscene
-6.76085442215649!0.6749408041554157!-5.522595891612582!0.6073524982300386!0.413607001921608!0.12851715604953076!!!0.5190938711166382!!!False!0.4609640598090657!BNCNN(#  (sequential): Sequential(#    (0): Conv2d(40, 8, kernel_size=(15, 15), stride=(1, 1))#    (1): Flatten()#    (2): BatchNorm1d(10368, eps=0.001, momentum=0.01, affine=True, track_running_stats=True)#    (3): GaussianNoise(std=0.1, trainable=False, adapt=False, momentum=0.95)#    (4): ReLU()#    (5): Reshape()#    (6): Conv2d(8, 8, kernel_size=(11, 11), stride=(1, 1))#    (7): Flatten()#    (8): BatchNorm1d(5408, eps=0.001, momentum=0.01, affine=True, track_running_stats=True)#    (9): GaussianNoise(std=0.1, trainable=False, adapt=False, momentum=0.95)#    (10): ReLU()#    (11): Linear(in_features=5408, out_features=17, bias=False)#    (12): BatchNorm1d(17, eps=0.001, momentum=0.01, affine=True, track_running_stats=True)#    (13): Softplus(beta=1, threshold=20)#  )#)#!!5000!!True!0.4274263109183077!0.01!0.7584541094271402!0.6909349812990669!!!!0.7575316066465748!0.7275502288438127!0.7064005759976921!0.5457329734631114!0.7410606485586616!!0.7372518305936394!0.7434930165017917!0.6002438712970155!0.7813574734462803!0.5231004983133718!0.748320720221923!!0.5841429164351282!!!0.5539524694578231!!!0.4974851797581108!0.7769805703809245!all![8, 8]!15-11-21b!noshufflebncnn!9!0.2607874768173573!0.0001!0.001!False!False!PoissonNLLLoss!0.001!BNCNN!150!!0.1!!!noshufflebncnn/noshufflebncnn_9_dataset15-11-21b_lr0.001!!1.0!1.0!!naturalscene
