…
h_size!FinalVal!save_folder!cell0!cell1!cell2!cell3!cell4!cell5!cell6!cell7!cell8!cell9!cell10!cell11!cell12!cell13!cell14!cell16!cell17!cell18!cell20!cell21!cell22!cell23!cell24!cell25!cell27!cell31!bnorm_momentum!linear_bias!shift!lossfxn!abs_bias!log_poisson!softplus!bipolar_intr_cor!amacrine_intr_cor!horizontal_intr_cor!avg_oms_ratio!std_oms_ratio
dalesbncnnfixedbias!0!15-10-07!0.001!0.492499053478241!50!DalesBNCNN!True![8, 8]!dalesbncnnfixedbias/results.txt!0.001!!0.0!0.0001!False!0.5861128671221097!0.6110966323442579!DalesBNCNN(#  (sequential): Sequential(#    (0): AbsConv2d(#      (conv): Conv2d(40, 8, kernel_size=(15, 15), stride=(1, 1))#    )#    (1): Flatten()#    (2): BatchNorm1d(10368, eps=0.001, momentum=0.01, affine=True, track_running_stats=True)#    (3): GaussianNoise(std=0.05, trainable=False, adapt=False, momentum=0.95)#    (4): ReLU()#    (5): Reshape()#    (6): DaleActivations(n_chan=8, neg_p=0.5, n_neg_chan=4)#    (7): AbsConv2d(#      (conv): Conv2d(8, 8, kernel_size=(11, 11), stride=(1, 1))#    )#    (8): Flatten()#    (9): BatchNorm1d(5408, eps=0.001, momentum=0.01, affine=True, track_running_stats=True)#    (10): GaussianNoise(std=0.05, trainable=False, adapt=False, momentum=0.95)#    (11): ReLU()#    (12): Reshape()#    (13): DaleActivations(n_chan=8, neg_p=0.5, n_neg_chan=4)#    (14): Flatten()#    (15): AbsLinear(#      (linear): Linear(in_features=5408, out_features=5, bias=True)#    )#    (16): BatchNorm1d(5, eps=1e-05, momentum=0.01, affine=True, track_running_stats=True)#    (17): Softplus(beta=1, threshold=20)#  )#)#!0.4791070650499138!all!!0.05!0.1960295968039636!naturalscene!!!0.6634854676719649!-2.373335829147926!512!-2.441412721047891!dalesbncnnfixedbias/dalesbncnnfixedbias_0_noise0.05!0.7035082909899737!0.39252673792576576!0.4803553536988907!0.6316007347310264!0.7225732182648922!!!!!!!!!!!!!!!!!!!!!!0.01!True!!!True!!!0.4622057439326484!0.5279378195870179!0.3457602734186971!0.6852623224258423!0.19925549626350408
dalesbncnnfixedbias!1!15-10-07!0.001!0.4819185137748718!50!DalesBNCNN!True![8, 8]!dalesbncnnfixedbias/results.txt!0.001!!0.0!0.0001!False!0.5593983156530449!0.5997571455404305!DalesBNCNN(#  (sequential): Sequential(#    (0): AbsConv2d(#      (conv): Conv2d(40, 8, kernel_size=(15, 15), stride=(1, 1))#    )#    (1): Flatten()#    (2): BatchNorm1d(10368, eps=0.001, momentum=0.01, affine=True, track_running_stats=True)#    (3): GaussianNoise(std=0.1, trainable=False, adapt=False, momentum=0.95)#    (4): ReLU()#    (5): Reshape()#    (6): DaleActivations(n_chan=8, neg_p=0.5, n_neg_chan=4)#    (7): AbsConv2d(#      (conv): Conv2d(8, 8, kernel_size=(11, 11), stride=(1, 1))#    )#    (8): Flatten()#    (9): BatchNorm1d(5408, eps=0.001, momentum=0.01, affine=True, track_running_stats=True)#    (10): GaussianNoise(std=0.1, trainable=False, adapt=False, momentum=0.95)#    (11): ReLU()#    (12): Reshape()#    (13): DaleActivations(n_chan=8, neg_p=0.5, n_neg_chan=4)#    (14): Flatten()#    (15): AbsLinear(#      (linear): Linear(in_features=5408, out_features=5, bias=True)#    )#    (16): BatchNorm1d(5, eps=1e-05, momentum=0.01, affine=True, track_running_stats=True)#    (17): Softplus(beta=1, threshold=20)#  )#)#!0.4165405106112676!all!!0.1!0.15590469894669173!naturalscene!!!0.6810568072848129!-2.1679990025936746!512!-2.362101694464582!dalesbncnnfixedbias/dalesbncnnfixedbias_1_noise0.1!0.6659552841864539!0.303343541127721!0.44592873253620974!0.6701787368842952!0.7115852835305445!!!!!!!!!!!!!!!!!!!!!!0.01!True!!!True!!!0.3458761948894827!0.4903112134649775!0.25018953650041464!1.0261579751968384!0.11698204278945926
dalesbncnnfixedbias!6!15-10-07!0.001!0.4974638819694519!50!DalesBNCNN!True![8, 8]!dalesbncnnfixedbias/results.txt!0.001!!6.0!0.0001!False!0.5992790364739761!0.6146065572158578!DalesBNCNN(#  (sequential): Sequential(#    (0): AbsConv2d(#      (conv): Conv2d(40, 8, kernel_size=(15, 15), stride=(1, 1))#    )#    (1): Flatten()#    (2): BatchNorm1d(10368, eps=0.001, momentum=0.01, affine=True, track_running_stats=True)#    (3): GaussianNoise(std=0.05, trainable=False, adapt=False, momentum=0.95)#    (4): ReLU()#    (5): Reshape()#    (6): DaleActivations(n_chan=8, neg_p=0.5, n_neg_chan=4)#    (7): AbsConv2d(#      (conv): Conv2d(8, 8, kernel_size=(11, 11), stride=(1, 1))#    )#    (8): Flatten()#    (9): BatchNorm1d(5408, eps=0.001, momentum=0.01, affine=True, track_running_stats=True)#    (10): GaussianNoise(std=0.05, trainable=False, adapt=False, momentum=0.95)#    (11): ReLU()#    (12): Reshape()#    (13): DaleActivations(n_chan=8, neg_p=0.5, n_neg_chan=4)#    (14): Flatten()#    (15): AbsLinear(#      (linear): Linear(in_features=5408, out_features=5, bias=True)#    )#    (16): BatchNorm1d(5, eps=1e-05, momentum=0.01, affine=True, track_running_stats=True)#    (17): Softplus(beta=1, threshold=20)#  )#)#!0.4610886389494996!all!!0.05!0.2004946242985936!naturalscene!!!0.6643051154800994!-2.375422986204628!512!-2.4076490618892423!dalesbncnnfixedbias/dalesbncnnfixedbias_6_noise0.05!0.6822033830901257!0.3528289904567965!0.5248484478157321!0.6830632393702661!0.7534511216369592!!!!!!!!!!!!!!!!!!!!!!0.01!True!!!!!!0.4388530351472566!0.5184866194095961!0.3061890560820666!0.7072716355323792!0.1672002375125885
dalesbncnnfixedbias!7!15-10-07!0.001!0.4735159873962402!50!DalesBNCNN!True![8, 8]!dalesbncnnfixedbias/results.txt!0.001!!6.0!0.0001!False!0.5435978518194655!0.5861713478524251!DalesBNCNN(#  (sequential): Sequential(#    (0): AbsConv2d(#      (conv): Conv2d(40, 8, kernel_size=(15, 15), stride=(1, 1))#    )#    (1): Flatten()#    (2): BatchNorm1d(10368, eps=0.001, momentum=0.01, affine=True, track_running_stats=True)#    (3): GaussianNoise(std=0.1, trainable=False, adapt=False, momentum=0.95)#    (4): ReLU()#    (5): Reshape()#    (6): DaleActivations(n_chan=8, neg_p=0.5, n_neg_chan=4)#    (7): AbsConv2d(#      (conv): Conv2d(8, 8, kernel_size=(11, 11), stride=(1, 1))#    )#    (8): Flatten()#    (9): BatchNorm1d(5408, eps=0.001, momentum=0.01, affine=True, track_running_stats=True)#    (10): GaussianNoise(std=0.1, trainable=False, adapt=False, momentum=0.95)#    (11): ReLU()#    (12): Reshape()#    (13): DaleActivations(n_chan=8, neg_p=0.5, n_neg_chan=4)#    (14): Flatten()#    (15): AbsLinear(#      (linear): Linear(in_features=5408, out_features=5, bias=True)#    )#    (16): BatchNorm1d(5, eps=1e-05, momentum=0.01, affine=True, track_running_stats=True)#    (17): Softplus(beta=1, threshold=20)#  )#)#!0.456987374003054!all!!0.1!0.09659639118923548!naturalscene!!!0.6639431575831316!-2.1618165496068125!512!-2.3246182327129645!dalesbncnnfixedbias/dalesbncnnfixedbias_7_noise0.1!0.6682343681787499!0.2626193638774891!0.4283115742268175!0.645310418068317!0.7135135347459546!!!!!!!!!!!!!!!!!!!!!!0.01!True!!!!!!0.3784468335688317!0.517242358520549!0.337309507454964!0.8417407870292664!0.09214533120393753
dalesskip!0!15-10-07!0.001!0.3894068598747253!70!DalesSkipBNCNN!True![8, 8]!dalesskip/results.txt!0.01!!0.0!1e-05!False!0.4878658848319972!0.479624041996898!DalesSkipBNCNN(#  (sequential): Sequential(#    (0): DalesSkipConnection(#      (sequential): Sequential(#        (0): AbsConv2d(#          (conv): Conv2d(40, 2, kernel_size=(15, 15), stride=(1, 1), padding=(7, 7))#        )#        (1): Flatten()#        (2): BatchNorm1d(5000, eps=1e-05, momentum=0.1, affine=True, track_running_stats=True)#        (3): GaussianNoise(std=0.05, trainable=False, adapt=False, momentum=0.95)#        (4): ReLU()#        (5): Reshape()#        (6): DaleActivations(n_chan=2, neg_p=1, n_neg_chan=2)#      )#    )#    (1): AbsConv2d(#      (conv): Conv2d(42, 8, kernel_size=(15, 15), stride=(1, 1))#    )#    (2): Flatten()#    (3): BatchNorm1d(10368, eps=0.001, momentum=0.1, affine=True, track_running_stats=True)#    (4): GaussianNoise(std=0.05, trainable=False, adapt=False, momentum=0.95)#    (5): ReLU()#    (6): Reshape()#    (7): DaleActivations(n_chan=8, neg_p=0.5, n_neg_chan=4)#    (8): AbsConv2d(#      (conv): Conv2d(8, 8, kernel_size=(11, 11), stride=(1, 1))#    )#    (9): Flatten()#    (10): BatchNorm1d(5408, eps=0.001, momentum=0.1, affine=True, track_running_stats=True)#    (11): GaussianNoise(std=0.05, trainable=False, adapt=False, momentum=0.95)#    (12): ReLU()#    (13): Reshape()#    (14): DaleActivations(n_chan=8, neg_p=0.5, n_neg_chan=4)#    (15): Flatten()#    (16): AbsLinear(#      (linear): Linear(in_features=5408, out_features=5, bias=True)#    )#    (17): BatchNorm1d(5, eps=1e-05, momentum=0.1, affine=True, track_running_stats=True)#    (18): Softplus(beta=1, threshold=20)#  )#)#!0.5373681812233735!all!!0.05!0.11700576975085705!naturalscene!!!0.6886459030151083!-1.6057454965458018!512!-1.6204155109140632!dalesskip/dalesskip_0_lr0.01!0.5406993161392446!0.2741314978139144!0.3671498300087925!0.5801345741972738!0.6772142060007604!!!!!!!!!!!!!!!!!!!!!!!!!!!!!0.4631295687453968!0.5847778401840791!0.452880347379683!1.0080744028091428!0.08046272397041321
dalesskip!1!15-10-07!0.001!0.5207783579826355!70!DalesSkipBNCNN!True![8, 8]!dalesskip/results.txt!0.001!!0.0!1e-05!False!0.4901002612036314!0.6389571305354361!DalesSkipBNCNN(#  (sequential): Sequential(#    (0): DalesSkipConnection(#      (sequential): Sequential(#        (0): AbsConv2d(#          (conv): Conv2d(40, 2, kernel_size=(15, 15), stride=(1, 1), padding=(7, 7))#        )#        (1): Flatten()#        (2): BatchNorm1d(5000, eps=1e-05, momentum=0.1, affine=True, track_running_stats=True)#        (3): GaussianNoise(std=0.05, trainable=False, adapt=False, momentum=0.95)#        (4): ReLU()#        (5): Reshape()#        (6): DaleActivations(n_chan=2, neg_p=1, n_neg_chan=2)#      )#    )#    (1): AbsConv2d(#      (conv): Conv2d(42, 8, kernel_size=(15, 15), stride=(1, 1))#    )#    (2): Flatten()#    (3): BatchNorm1d(10368, eps=0.001, momentum=0.1, affine=True, track_running_stats=True)#    (4): GaussianNoise(std=0.05, trainable=False, adapt=False, momentum=0.95)#    (5): ReLU()#    (6): Reshape()#    (7): DaleActivations(n_chan=8, neg_p=0.5, n_neg_chan=4)#    (8): AbsConv2d(#      (conv): Conv2d(8, 8, kernel_size=(11, 11), stride=(1, 1))#    )#    (9): Flatten()#    (10): BatchNorm1d(5408, eps=0.001, momentum=0.1, affine=True, track_running_stats=True)#    (11): GaussianNoise(std=0.05, trainable=False, adapt=False, momentum=0.95)#    (12): ReLU()#    (13): Reshape()#    (14): DaleActivations(n_chan=8, neg_p=0.5, n_neg_chan=4)#    (15): Flatten()#    (16): AbsLinear(#      (linear): Linear(in_features=5408, out_features=5, bias=True)#    )#    (17): BatchNorm1d(5, eps=1e-05, momentum=0.1, affine=True, track_running_stats=True)#    (18): Softplus(beta=1, threshold=20)#  )#)#!0.5627837822341828!all!!0.05!0.124958641516157!naturalscene!!!0.7259198563273648!-2.540341563713856!512!-2.6258775251833866!dalesskip/dalesskip_1_lr0.001!0.6162177506813568!0.40325147162406!0.4333911140758784!0.6845384639118834!0.31310250572497844!!!!!!!!!!!!!!!!!!!!!!!!!!!!!0.4904784728584682!0.5951306774142578!0.5219805595417355!0.695806622505188!0.2475402355194092
dalesskip!2!15-10-07!0.001!0.5308011174201965!70!DalesSkipBNCNN!True![8, 8]!dalesskip/results.txt!0.0001!!0.0!1e-05!False!0.5521756970473473!0.6552061749638546!DalesSkipBNCNN(#  (sequential): Sequential(#    (0): DalesSkipConnection(#      (sequential): Sequential(#        (0): AbsConv2d(#          (conv): Conv2d(40, 2, kernel_size=(15, 15), stride=(1, 1), padding=(7, 7))#        )#        (1): Flatten()#        (2): BatchNorm1d(5000, eps=1e-05, momentum=0.1, affine=True, track_running_stats=True)#        (3): GaussianNoise(std=0.05, trainable=False, adapt=False, momentum=0.95)#        (4): ReLU()#        (5): Reshape()#        (6): DaleActivations(n_chan=2, neg_p=1, n_neg_chan=2)#      )#    )#    (1): AbsConv2d(#      (conv): Conv2d(42, 8, kernel_size=(15, 15), stride=(1, 1))#    )#    (2): Flatten()#    (3): BatchNorm1d(10368, eps=0.001, momentum=0.1, affine=True, track_running_stats=True)#    (4): GaussianNoise(std=0.05, trainable=False, adapt=False, momentum=0.95)#    (5): ReLU()#    (6): Reshape()#    (7): DaleActivations(n_chan=8, neg_p=0.5, n_neg_chan=4)#    (8): AbsConv2d(#      (conv): Conv2d(8, 8, kernel_size=(11, 11), stride=(1, 1))#    )#    (9): Flatten()#    (10): BatchNorm1d(5408, eps=0.001, momentum=0.1, affine=True, track_running_stats=True)#    (11): GaussianNoise(std=0.05, trainable=False, adapt=False, momentum=0.95)#    (12): ReLU()#    (13): Reshape()#    (14): DaleActivations(n_chan=8, neg_p=0.5, n_neg_chan=4)#    (15): Flatten()#    (16): AbsLinear(#      (linear): Linear(in_features=5408, out_features=5, bias=True)#    )#    (17): BatchNorm1d(5, eps=1e-05, momentum=0.1, affine=True, track_running_stats=True)#    (18): Softplus(beta=1, threshold=20)#  )#)#!0.3653637412556117!all!!0.05!0.12507923711029448!naturalscene!!!0.6119654757970762!-2.6461675729866663!512!-2.822022361188192!dalesskip/dalesskip_2_lr0.0001!0.637157985136937!0.5141439363137361!0.5360897764318472!0.7612089615004597!0.3122778258537561!!!!!!!!!!!!!!!!!!!!!!!!!!!!!0.31870474608793176!0.4267545652733494!0.21748159877726034!1.3142551183700562!0.3466300666332245
dalesskip!3!15-10-07!0.001!0.507881760597229!70!DalesSkipBNCNN!True![8, 8]!dalesskip/results.txt!1e-05!!0.0!1e-05!False!0.5330776020303285!0.6236791624552234!DalesSkipBNCNN(#  (sequential): Sequential(#    (0): DalesSkipConnection(#      (sequential): Sequential(#        (0): AbsConv2d(#          (conv): Conv2d(40, 2, kernel_size=(15, 15), stride=(1, 1), padding=(7, 7))#        )#        (1): Flatten()#        (2): BatchNorm1d(5000, eps=1e-05, momentum=0.1, affine=True, track_running_stats=True)#        (3): GaussianNoise(std=0.05, trainable=False, adapt=False, momentum=0.95)#        (4): ReLU()#        (5): Reshape()#        (6): DaleActivations(n_chan=2, neg_p=1, n_neg_chan=2)#      )#    )#    (1): AbsConv2d(#      (conv): Conv2d(42, 8, kernel_size=(15, 15), stride=(1, 1))#    )#    (2): Flatten()#    (3): BatchNorm1d(10368, eps=0.001, momentum=0.1, affine=True, track_running_stats=True)#    (4): GaussianNoise(std=0.05, trainable=False, adapt=False, momentum=0.95)#    (5): ReLU()#    (6): Reshape()#    (7): DaleActivations(n_chan=8, neg_p=0.5, n_neg_chan=4)#    (8): AbsConv2d(#      (conv): Conv2d(8, 8, kernel_size=(11, 11), stride=(1, 1))#    )#    (9): Flatten()#    (10): BatchNorm1d(5408, eps=0.001, momentum=0.1, affine=True, track_running_stats=True)#    (11): GaussianNoise(std=0.05, trainable=False, adapt=False, momentum=0.95)#    (12): ReLU()#    (13): Reshape()#    (14): DaleActivations(n_chan=8, neg_p=0.5, n_neg_chan=4)#    (15): Flatten()#    (16): AbsLinear(#      (linear): Linear(in_features=5408, out_features=5, bias=True)#    )#    (17): BatchNorm1d(5, eps=1e-05, momentum=0.1, affine=True, track_running_stats=True)#    (18): Softplus(beta=1, threshold=20)#  )#)#!0.4578879199347461!all!!0.05!0.16458227220607852!naturalscene!!!0.7413022757119558!-1.836886234109488!512!-1.8525092042820688!dalesskip/dalesskip_3_lr1e-05!0.5067961369178228!0.4666152481753227!0.4763983257206586!0.5628675530421371!0.6527107462957017!!!!!!!!!!!!!!!!!!!!!!!!!!!!!0.41865111548620026!0.5299341687660649!0.2722666880118809!1.1006215810775757!0.07931441813707353
dalesskip!4!15-10-07!0.001!0.4360457956790924!70!DalesSkipBNCNN!True![8, 8]!dalesskip/results.txt!1e-06!!0.0!1e-05!False!0.4530217151921978!0.5232639402806025!DalesSkipBNCNN(#  (sequential): Sequential(#    (0): DalesSkipConnection(#      (sequential): Sequential(#        (0): AbsConv2d(#          (conv): Conv2d(40, 2, kernel_size=(15, 15), stride=(1, 1), padding=(7, 7))#        )#        (1): Flatten()#        (2): BatchNorm1d(5000, eps=1e-05, momentum=0.1, affine=True, track_running_stats=True)#        (3): GaussianNoise(std=0.05, trainable=False, adapt=False, momentum=0.95)#        (4): ReLU()#        (5): Reshape()#        (6): DaleActivations(n_chan=2, neg_p=1, n_neg_chan=2)#      )#    )#    (1): AbsConv2d(#      (conv): Conv2d(42, 8, kernel_size=(15, 15), stride=(1, 1))#    )#    (2): Flatten()#    (3): BatchNorm1d(10368, eps=0.001, momentum=0.1, affine=True, track_running_stats=True)#    (4): GaussianNoise(std=0.05, trainable=False, adapt=False, momentum=0.95)#    (5): ReLU()#    (6): Reshape()#    (7): DaleActivations(n_chan=8, neg_p=0.5, n_neg_chan=4)#    (8): AbsConv2d(#      (conv): Conv2d(8, 8, kernel_size=(11, 11), stride=(1, 1))#    )#    (9): Flatten()#    (10): BatchNorm1d(5408, eps=0.001, momentum=0.1, affine=True, track_running_stats=True)#    (11): GaussianNoise(std=0.05, trainable=False, adapt=False, momentum=0.95)#    (12): ReLU()#    (13): Reshape()#    (14): DaleActivations(n_chan=8, neg_p=0.5, n_neg_chan=4)#    (15): Flatten()#    (16): AbsLinear(#      (linear): Linear(in_features=5408, out_features=5, bias=True)#    )#    (17): BatchNorm1d(5, eps=1e-05, momentum=0.1, affine=True, track_running_stats=True)#    (18): Softplus(beta=1, threshold=20)#  )#)#!0.2987369321479381!all!!0.05!0.14884719697798868!naturalscene!!!0.4219893403777433!-1.2585422244614066!512!-1.5147592277156945!dalesskip/dalesskip_4_lr1e-06!0.5285394583079804!0.3614849567948559!0.3758911626106082!0.5299603851961064!0.4692326130514385!!!!!!!!!!!!!!!!!!!!!!!!!!!!!0.32436077950964176!0.3178405897492652!0.22149630028485398!0.9427021741867064!0.02849142998456955
dalesskip!5!15-10-07!0.001!0.42920440435409546!70!DalesSkipBNCNN!True![14, 8]!dalesskip/results.txt!0.005!!5.0!1e-05!False!0.5316830216254735!0.528933961769426!DalesSkipBNCNN(#  (sequential): Sequential(#    (0): DalesSkipConnection(#      (sequential): Sequential(#        (0): AbsConv2d(#          (conv): Conv2d(40, 2, kernel_size=(15, 15), stride=(1, 1), padding=(7, 7))#        )#        (1): Flatten()#        (2): BatchNorm1d(5000, eps=1e-05, momentum=0.1, affine=True, track_running_stats=True)#        (3): GaussianNoise(std=0.05, trainable=False, adapt=False, momentum=0.95)#        (4): ReLU()#        (5): Reshape()#        (6): DaleActivations(n_chan=2, neg_p=1, n_neg_chan=2)#      )#    )#    (1): AbsConv2d(#      (conv): Conv2d(42, 14, kernel_size=(15, 15), stride=(1, 1))#    )#    (2): Flatten()#    (3): BatchNorm1d(18144, eps=0.001, momentum=0.1, affine=True, track_running_stats=True)#    (4): GaussianNoise(std=0.05, trainable=False, adapt=False, momentum=0.95)#    (5): ReLU()#    (6): Reshape()#    (7): DaleActivations(n_chan=14, neg_p=0.5, n_neg_chan=7)#    (8): AbsConv2d(#      (conv): Conv2d(14, 8, kernel_size=(11, 11), stride=(1, 1))#    )#    (9): Flatten()#    (10): BatchNorm1d(5408, eps=0.001, momentum=0.1, affine=True, track_running_stats=True)#    (11): GaussianNoise(std=0.05, trainable=False, adapt=False, momentum=0.95)#    (12): ReLU()#    (13): Reshape()#    (14): DaleActivations(n_chan=8, neg_p=0.5, n_neg_chan=4)#    (15): Flatten()#    (16): AbsLinear(#      (linear): Linear(in_features=5408, out_features=5, bias=True)#    )#    (17): BatchNorm1d(5, eps=1e-05, momentum=0.1, affine=True, track_running_stats=True)#    (18): Softplus(beta=1, threshold=20)#  )#)#!0.424747881520086!all!!0.05!0.1326817567991954!naturalscene!!!0.7483718343364283!-2.0253658785314763!512!-1.9767902158109791!dalesskip/dalesskip_5_chans[14, 8]_lr0.005!0.6187127218298762!0.2880735462499604!0.4299368701578388!0.6455248802092393!0.6761670896804529!!!!!!!!!!!!!!!!!!!!!!!!!!!!!0.3501348266003658!0.4892252324697235!0.28934820471984496!0.979024052619934!0.037209108471870415
dalesskip!6!15-10-07!0.001!0.5062054991722107!70!DalesSkipBNCNN!True![14, 8]!dalesskip/results.txt!0.001!!5.0!1e-05!False!0.6180581547028602!0.6351131039027778!DalesSkipBNCNN(#  (sequential): Sequential(#    (0): DalesSkipConnection(#      (sequential): Sequential(#        (0): AbsConv2d(#          (conv): Conv2d(40, 2, kernel_size=(15, 15), stride=(1, 1), padding=(7, 7))#        )#        (1): Flatten()#        (2): BatchNorm1d(5000, eps=1e-05, momentum=0.1, affine=True, track_running_stats=True)#        (3): GaussianNoise(std=0.05, trainable=False, adapt=False, momentum=0.95)#        (4): ReLU()#        (5): Reshape()#        (6): DaleActivations(n_chan=2, neg_p=1, n_neg_chan=2)#      )#    )#    (1): AbsConv2d(#      (conv): Conv2d(42, 14, kernel_size=(15, 15), stride=(1, 1))#    )#    (2): Flatten()#    (3): BatchNorm1d(18144, eps=0.001, momentum=0.1, affine=True, track_running_stats=True)#    (4): GaussianNoise(std=0.05, trainable=False, adapt=False, momentum=0.95)#    (5): ReLU()#    (6): Reshape()#    (7): DaleActivations(n_chan=14, neg_p=0.5, n_neg_chan=7)#    (8): AbsConv2d(#      (conv): Conv2d(14, 8, kernel_size=(11, 11), stride=(1, 1))#    )#    (9): Flatten()#    (10): BatchNorm1d(5408, eps=0.001, momentum=0.1, affine=True, track_running_stats=True)#    (11): GaussianNoise(std=0.05, trainable=False, adapt=False, momentum=0.95)#    (12): ReLU()#    (13): Reshape()#    (14): DaleActivations(n_chan=8, neg_p=0.5, n_neg_chan=4)#    (15): Flatten()#    (16): AbsLinear(#      (linear): Linear(in_features=5408, out_features=5, bias=True)#    )#    (17): BatchNorm1d(5, eps=1e-05, momentum=0.1, affine=True, track_running_stats=True)#    (18): Softplus(beta=1, threshold=20)#  )#)#!0.543259019795594!all!!0.05!0.20027597727159746!naturalscene!!!0.6767578418663361!-2.4684469004921605!512!-2.6064079073622453!dalesskip/dalesskip_6_chans[14, 8]_lr0.001!0.7120491751350916!0.4226947141825285!0.5264652441128862!0.6850547194108827!0.7440269206729121!!!!!!!!!!!!!!!!!!!!!!!!!!!!!0.4711817290475585!0.5698185797977954!0.5196404548152397!0.5882771611213684!0.2293945401906967
dalesskip!7!15-10-07!0.001!0.5263829231262207!70!DalesSkipBNCNN!True![14, 8]!dalesskip/results.txt!0.0001!!5.0!1e-05!False!0.652052920863468!0.6534757124112662!DalesSkipBNCNN(#  (sequential): Sequential(#    (0): DalesSkipConnection(#      (sequential): Sequential(#        (0): AbsConv2d(#          (conv): Conv2d(40, 2, kernel_size=(15, 15), stride=(1, 1), padding=(7, 7))#        )#        (1): Flatten()#        (2): BatchNorm1d(5000, eps=1e-05, momentum=0.1, affine=True, track_running_stats=True)#        (3): GaussianNoise(std=0.05, trainable=False, adapt=False, momentum=0.95)#        (4): ReLU()#        (5): Reshape()#        (6): DaleActivations(n_chan=2, neg_p=1, n_neg_chan=2)#      )#    )#    (1): AbsConv2d(#      (conv): Conv2d(42, 14, kernel_size=(15, 15), stride=(1, 1))#    )#    (2): Flatten()#    (3): BatchNorm1d(18144, eps=0.001, momentum=0.1, affine=True, track_running_stats=True)#    (4): GaussianNoise(std=0.05, trainable=False, adapt=False, momentum=0.95)#    (5): ReLU()#    (6): Reshape()#    (7): DaleActivations(n_chan=14, neg_p=0.5, n_neg_chan=7)#    (8): AbsConv2d(#      (conv): Conv2d(14, 8, kernel_size=(11, 11), stride=(1, 1))#    )#    (9): Flatten()#    (10): BatchNorm1d(5408, eps=0.001, momentum=0.1, affine=True, track_running_stats=True)#    (11): GaussianNoise(std=0.05, trainable=False, adapt=False, momentum=0.95)#    (12): ReLU()#    (13): Reshape()#    (14): DaleActivations(n_chan=8, neg_p=0.5, n_neg_chan=4)#    (15): Flatten()#    (16): AbsLinear(#      (linear): Linear(in_features=5408, out_features=5, bias=True)#    )#    (17): BatchNorm1d(5, eps=1e-05, momentum=0.1, affine=True, track_running_stats=True)#    (18): Softplus(beta=1, threshold=20)#  )#)#!0.43950431815876395!all!!0.05!0.11472177370898935!naturalscene!!!0.7228384444669491!-2.6737977042457097!512!-2.8231839865961774!dalesskip/dalesskip_7_chans[14, 8]_lr0.0001!0.698135910955355!0.5241990160138648!0.5442321348630028!0.7236332854547297!0.7700642570303876!!!!!!!!!!!!!!!!!!!!!!!!!!!!!0.4050150097709522!0.5115911387523735!0.2500688740128997!0.8562413454055786!0.3116886615753174
dalesskip!8!15-10-07!0.001!0.4571321904659271!70!DalesSkipBNCNN!True![14, 14]!dalesskip/results.txt!0.005!!5.0!1e-05!False!0.545131454693476!0.5639567259751674!DalesSkipBNCNN(#  (sequential): Sequential(#    (0): DalesSkipConnection(#      (sequential): Sequential(#        (0): AbsConv2d(#          (conv): Conv2d(40, 2, kernel_size=(15, 15), stride=(1, 1), padding=(7, 7))#        )#        (1): Flatten()#        (2): BatchNorm1d(5000, eps=1e-05, momentum=0.1, affine=True, track_running_stats=True)#        (3): GaussianNoise(std=0.05, trainable=False, adapt=False, momentum=0.95)#        (4): ReLU()#        (5): Reshape()#        (6): DaleActivations(n_chan=2, neg_p=1, n_neg_chan=2)#      )#    )#    (1): AbsConv2d(#      (conv): Conv2d(42, 14, kernel_size=(15, 15), stride=(1, 1))#    )#    (2): Flatten()#    (3): BatchNorm1d(18144, eps=0.001, momentum=0.1, affine=True, track_running_stats=True)#    (4): GaussianNoise(std=0.05, trainable=False, adapt=False, momentum=0.95)#    (5): ReLU()#    (6): Reshape()#    (7): DaleActivations(n_chan=14, neg_p=0.5, n_neg_chan=7)#    (8): AbsConv2d(#      (conv): Conv2d(14, 14, kernel_size=(11, 11), stride=(1, 1))#    )#    (9): Flatten()#    (10): BatchNorm1d(9464, eps=0.001, momentum=0.1, affine=True, track_running_stats=True)#    (11): GaussianNoise(std=0.05, trainable=False, adapt=False, momentum=0.95)#    (12): ReLU()#    (13): Reshape()#    (14): DaleActivations(n_chan=14, neg_p=0.5, n_neg_chan=7)#    (15): Flatten()#    (16): AbsLinear(#      (linear): Linear(in_features=9464, out_features=5, bias=True)#    )#    (17): BatchNorm1d(5, eps=1e-05, momentum=0.1, affine=True, track_running_stats=True)#    (18): Softplus(beta=1, threshold=20)#  )#)#!0.4985979061810417!all!!0.05!0.1898273622989895!naturalscene!!!0.710754083214196!-2.1927420934311046!512!-2.274433371936812!dalesskip/dalesskip_8_chans[14, 14]_lr0.005!0.658492691402647!0.30624658076559674!0.3844922260463208!0.6518706846206281!0.7245550906321875!!!!!!!!!!!!!!!!!!!!!!!!!!!!!0.4382672886737668!0.5600530074677608!0.361156415937654!0.8493205308914185!0.170985147356987
dalesskip!9!15-10-07!0.001!0.5191307067871094!70!DalesSkipBNCNN!True![14, 14]!dalesskip/results.txt!0.001!!5.0!1e-05!False!0.5613656482699898!0.6251084351759814!DalesSkipBNCNN(#  (sequential): Sequential(#    (0): DalesSkipConnection(#      (sequential): Sequential(#        (0): AbsConv2d(#          (conv): Conv2d(40, 2, kernel_size=(15, 15), stride=(1, 1), padding=(7, 7))#        )#        (1): Flatten()#        (2): BatchNorm1d(5000, eps=1e-05, momentum=0.1, affine=True, track_running_stats=True)#        (3): GaussianNoise(std=0.05, trainable=False, adapt=False, momentum=0.95)#        (4): ReLU()#        (5): Reshape()#        (6): DaleActivations(n_chan=2, neg_p=1, n_neg_chan=2)#      )#    )#    (1): AbsConv2d(#      (conv): Conv2d(42, 14, kernel_size=(15, 15), stride=(1, 1))#    )#    (2): Flatten()#    (3): BatchNorm1d(18144, eps=0.001, momentum=0.1, affine=True, track_running_stats=True)#    (4): GaussianNoise(std=0.05, trainable=False, adapt=False, momentum=0.95)#    (5): ReLU()#    (6): Reshape()#    (7): DaleActivations(n_chan=14, neg_p=0.5, n_neg_chan=7)#    (8): AbsConv2d(#      (conv): Conv2d(14, 14, kernel_size=(11, 11), stride=(1, 1))#    )#    (9): Flatten()#    (10): BatchNorm1d(9464, eps=0.001, momentum=0.1, affine=True, track_running_stats=True)#    (11): GaussianNoise(std=0.05, trainable=False, adapt=False, momentum=0.95)#    (12): ReLU()#    (13): Reshape()#    (14): DaleActivations(n_chan=14, neg_p=0.5, n_neg_chan=7)#    (15): Flatten()#    (16): AbsLinear(#      (linear): Linear(in_features=9464, out_features=5, bias=True)#    )#    (17): BatchNorm1d(5, eps=1e-05, momentum=0.1, affine=True, track_running_stats=True)#    (18): Softplus(beta=1, threshold=20)#  )#)#!0.4357056842488647!all!!0.05!0.201173148986376!naturalscene!!!0.6203379088192911!-2.5080327477030804!512!-2.9196122403163827!dalesskip/dalesskip_9_chans[14, 14]_lr0.001!0.7015516067062031!0.3282938557130189!0.5006298641576616!0.6888213250223069!0.5875315897507587!!!!!!!!!!!!!!!!!!!!!!!!!!!!!0.3571518768160721!0.4636819946797353!0.4128741587373145!0.5837461948394775!0.2262554913759232
dalesskip!10!15-10-07!0.001!0.4983119070529938!70!DalesSkipBNCNN!True![14, 14]!dalesskip/results.txt!0.0001!!5.0!1e-05!False!0.6228529096965939!0.6292693250821206!DalesSkipBNCNN(#  (sequential): Sequential(#    (0): DalesSkipConnection(#      (sequential): Sequential(#        (0): AbsConv2d(#          (conv): Conv2d(40, 2, kernel_size=(15, 15), stride=(1, 1), padding=(7, 7))#        )#        (1): Flatten()#        (2): BatchNorm1d(5000, eps=1e-05, momentum=0.1, affine=True, track_running_stats=True)#        (3): GaussianNoise(std=0.05, trainable=False, adapt=False, momentum=0.95)#        (4): ReLU()#        (5): Reshape()#        (6): DaleActivations(n_chan=2, neg_p=1, n_neg_chan=2)#      )#    )#    (1): AbsConv2d(#      (conv): Conv2d(42, 14, kernel_size=(15, 15), stride=(1, 1))#    )#    (2): Flatten()#    (3): BatchNorm1d(18144, eps=0.001, momentum=0.1, affine=True, track_running_stats=True)#    (4): GaussianNoise(std=0.05, trainable=False, adapt=False, momentum=0.95)#    (5): ReLU()#    (6): Reshape()#    (7): DaleActivations(n_chan=14, neg_p=0.5, n_neg_chan=7)#    (8): AbsConv2d(#      (conv): Conv2d(14, 14, kernel_size=(11, 11), stride=(1, 1))#    )#    (9): Flatten()#    (10): BatchNorm1d(9464, eps=0.001, momentum=0.1, affine=True, track_running_stats=True)#    (11): GaussianNoise(std=0.05, trainable=False, adapt=False, momentum=0.95)#    (12): ReLU()#    (13): Reshape()#    (14): DaleActivations(n_chan=14, neg_p=0.5, n_neg_chan=7)#    (15): Flatten()#    (16): AbsLinear(#      (linear): Linear(in_features=9464, out_features=5, bias=True)#    )#    (17): BatchNorm1d(5, eps=1e-05, momentum=0.1, affine=True, track_running_stats=True)#    (18): Softplus(beta=1, threshold=20)#  )#)#!0.38753939726824427!all!!0.05!0.14450314816937254!naturalscene!!!0.5287699117247914!-2.7807651411174468!512!-1.8671887479162248!dalesskip/dalesskip_10_chans[14, 14]_lr0.0001!0.6357586752252878!0.5130472875386037!0.508476756937229!0.7228937537602431!0.7340880750216056!!!!!!!!!!!!!!!!!!!!!!!!!!!!!0.35450803630684485!0.4251655138918252!0.30035210592303385!0.7351564168930054!0.1829153299331665
dalesskip!11!15-10-07!0.001!0.4620953500270844!70!DalesSkipBNCNN!True![8, 14]!dalesskip/results.txt!0.005!!5.0!1e-05!False!0.5811929232117049!0.5832358648698716!DalesSkipBNCNN(#  (sequential): Sequential(#    (0): DalesSkipConnection(#      (sequential): Sequential(#        (0): AbsConv2d(#          (conv): Conv2d(40, 2, kernel_size=(15, 15), stride=(1, 1), padding=(7, 7))#        )#        (1): Flatten()#        (2): BatchNorm1d(5000, eps=1e-05, momentum=0.1, affine=True, track_running_stats=True)#        (3): GaussianNoise(std=0.05, trainable=False, adapt=False, momentum=0.95)#        (4): ReLU()#        (5): Reshape()#        (6): DaleActivations(n_chan=2, neg_p=1, n_neg_chan=2)#      )#    )#    (1): AbsConv2d(#      (conv): Conv2d(42, 8, kernel_size=(15, 15), stride=(1, 1))#    )#    (2): Flatten()#    (3): BatchNorm1d(10368, eps=0.001, momentum=0.1, affine=True, track_running_stats=True)#    (4): GaussianNoise(std=0.05, trainable=False, adapt=False, momentum=0.95)#    (5): ReLU()#    (6): Reshape()#    (7): DaleActivations(n_chan=8, neg_p=0.5, n_neg_chan=4)#    (8): AbsConv2d(#      (conv): Conv2d(8, 14, kernel_size=(11, 11), stride=(1, 1))#    )#    (9): Flatten()#    (10): BatchNorm1d(9464, eps=0.001, momentum=0.1, affine=True, track_running_stats=True)#    (11): GaussianNoise(std=0.05, trainable=False, adapt=False, momentum=0.95)#    (12): ReLU()#    (13): Reshape()#    (14): DaleActivations(n_chan=14, neg_p=0.5, n_neg_chan=7)#    (15): Flatten()#    (16): AbsLinear(#      (linear): Linear(in_features=9464, out_features=5, bias=True)#    )#    (17): BatchNorm1d(5, eps=1e-05, momentum=0.1, affine=True, track_running_stats=True)#    (18): Softplus(beta=1, threshold=20)#  )#)#!0.4892655758323132!all!!0.05!0.16621239832431214!naturalscene!!!0.7365851088373253!-2.278012682230045!512!-2.3069866550800726!dalesskip/dalesskip_11_chans[8, 14]_lr0.005!0.6704733258376551!0.3176063346516647!0.4567584705671509!0.680743835046826!0.7803826499552287!!!!!!!!!!!!!!!!!!!!!!!!!!!!!0.3874284457984037!0.5519078838121582!0.3805453085858192!0.8539708852767944!0.1148419827222824
dalesskip!12!15-10-07!0.001!0.5370152592658997!70!DalesSkipBNCNN!True![8, 14]!dalesskip/results.txt!0.001!!5.0!1e-05!False!0.6111031312626977!0.6787714491830112!DalesSkipBNCNN(#  (sequential): Sequential(#    (0): DalesSkipConnection(#      (sequential): Sequential(#        (0): AbsConv2d(#          (conv): Conv2d(40, 2, kernel_size=(15, 15), stride=(1, 1), padding=(7, 7))#        )#        (1): Flatten()#        (2): BatchNorm1d(5000, eps=1e-05, momentum=0.1, affine=True, track_running_stats=True)#        (3): GaussianNoise(std=0.05, trainable=False, adapt=False, momentum=0.95)#        (4): ReLU()#        (5): Reshape()#        (6): DaleActivations(n_chan=2, neg_p=1, n_neg_chan=2)#      )#    )#    (1): AbsConv2d(#      (conv): Conv2d(42, 8, kernel_size=(15, 15), stride=(1, 1))#    )#    (2): Flatten()#    (3): BatchNorm1d(10368, eps=0.001, momentum=0.1, affine=True, track_running_stats=True)#    (4): GaussianNoise(std=0.05, trainable=False, adapt=False, momentum=0.95)#    (5): ReLU()#    (6): Reshape()#    (7): DaleActivations(n_chan=8, neg_p=0.5, n_neg_chan=4)#    (8): AbsConv2d(#      (conv): Conv2d(8, 14, kernel_size=(11, 11), stride=(1, 1))#    )#    (9): Flatten()#    (10): BatchNorm1d(9464, eps=0.001, momentum=0.1, affine=True, track_running_stats=True)#    (11): GaussianNoise(std=0.05, trainable=False, adapt=False, momentum=0.95)#    (12): ReLU()#    (13): Reshape()#    (14): DaleActivations(n_chan=14, neg_p=0.5, n_neg_chan=7)#    (15): Flatten()#    (16): AbsLinear(#      (linear): Linear(in_features=9464, out_features=5, bias=True)#    )#    (17): BatchNorm1d(5, eps=1e-05, momentum=0.1, affine=True, track_running_stats=True)#    (18): Softplus(beta=1, threshold=20)#  )#)#!0.4983680071659025!all!!0.05!0.16896044537795452!naturalscene!!!0.649095697099195!-2.6909983522212344!512!-2.7897924440751916!dalesskip/dalesskip_12_chans[8, 14]_lr0.001!0.6955692351600374!0.5045892353412759!0.5706308614189342!0.6964936244134294!0.5882326999798111!!!!!!!!!!!!!!!!!!!!!!!!!!!!!0.4091237913315825!0.5149272465901196!0.5181024567643893!0.5660740733146667!0.2642264664173126
dalesskip!13!15-10-07!0.001!0.5278326272964478!70!DalesSkipBNCNN!True![8, 14]!dalesskip/results.txt!0.0001!!5.0!1e-05!False!0.5801576102011375!0.6485968106003058!DalesSkipBNCNN(#  (sequential): Sequential(#    (0): DalesSkipConnection(#      (sequential): Sequential(#        (0): AbsConv2d(#          (conv): Conv2d(40, 2, kernel_size=(15, 15), stride=(1, 1), padding=(7, 7))#        )#        (1): Flatten()#        (2): BatchNorm1d(5000, eps=1e-05, momentum=0.1, affine=True, track_running_stats=True)#        (3): GaussianNoise(std=0.05, trainable=False, adapt=False, momentum=0.95)#        (4): ReLU()#        (5): Reshape()#        (6): DaleActivations(n_chan=2, neg_p=1, n_neg_chan=2)#      )#    )#    (1): AbsConv2d(#      (conv): Conv2d(42, 8, kernel_size=(15, 15), stride=(1, 1))#    )#    (2): Flatten()#    (3): BatchNorm1d(10368, eps=0.001, momentum=0.1, affine=True, track_running_stats=True)#    (4): GaussianNoise(std=0.05, trainable=False, adapt=False, momentum=0.95)#    (5): ReLU()#    (6): Reshape()#    (7): DaleActivations(n_chan=8, neg_p=0.5, n_neg_chan=4)#    (8): AbsConv2d(#      (conv): Conv2d(8, 14, kernel_size=(11, 11), stride=(1, 1))#    )#    (9): Flatten()#    (10): BatchNorm1d(9464, eps=0.001, momentum=0.1, affine=True, track_running_stats=True)#    (11): GaussianNoise(std=0.05, trainable=False, adapt=False, momentum=0.95)#    (12): ReLU()#    (13): Reshape()#    (14): DaleActivations(n_chan=14, neg_p=0.5, n_neg_chan=7)#    (15): Flatten()#    (16): AbsLinear(#      (linear): Linear(in_features=9464, out_features=5, bias=True)#    )#    (17): BatchNorm1d(5, eps=1e-05, momentum=0.1, affine=True, track_running_stats=True)#    (18): Softplus(beta=1, threshold=20)#  )#)#!0.4964919149968608!all!!0.05!0.2397922693752431!naturalscene!!!0.6442171623047824!-2.553043195474921!512!-2.4601001382965486!dalesskip/dalesskip_13_chans[8, 14]_lr0.0001!0.6325309754874429!0.4600446856797288!0.4203324546037843!0.6489586635168684!0.7389212717178631!!!!!!!!!!!!!!!!!!!!!!!!!!!!!0.4786166986321045!0.5326587940322879!0.4018942239520564!0.8720201253890991!0.08417478948831557
dalesskip!14!15-10-07!0.001!0.5136132836341858!50!DalesSkipBNCNN!True![8, 8]!dalesskip/results.txt!0.001!!14.0!0.0001!False!0.6482695547511294!0.6392262877221698!DalesSkipBNCNN(#  (sequential): Sequential(#    (0): DalesSkipConnection(#      (sequential): Sequential(#        (0): AbsConv2d(#          (conv): Conv2d(40, 2, kernel_size=(15, 15), stride=(1, 1), padding=(7, 7))#        )#        (1): Flatten()#        (2): BatchNorm1d(5000, eps=1e-05, momentum=0.1, affine=True, track_running_stats=True)#        (3): GaussianNoise(std=0.05, trainable=False, adapt=False, momentum=0.95)#        (4): ReLU()#        (5): Reshape()#        (6): DaleActivations(n_chan=2, neg_p=1, n_neg_chan=2)#      )#    )#    (1): AbsConv2d(#      (conv): Conv2d(42, 8, kernel_size=(15, 15), stride=(1, 1))#    )#    (2): Flatten()#    (3): BatchNorm1d(10368, eps=0.001, momentum=0.01, affine=True, track_running_stats=True)#    (4): GaussianNoise(std=0.05, trainable=False, adapt=False, momentum=0.95)#    (5): ReLU()#    (6): Reshape()#    (7): DaleActivations(n_chan=8, neg_p=0.5, n_neg_chan=4)#    (8): AbsConv2d(#      (conv): Conv2d(8, 8, kernel_size=(11, 11), stride=(1, 1))#    )#    (9): Flatten()#    (10): BatchNorm1d(5408, eps=0.001, momentum=0.01, affine=True, track_running_stats=True)#    (11): GaussianNoise(std=0.05, trainable=False, adapt=False, momentum=0.95)#    (12): ReLU()#    (13): Reshape()#    (14): DaleActivations(n_chan=8, neg_p=0.5, n_neg_chan=4)#    (15): Flatten()#    (16): AbsLinear(#      (linear): Linear(in_features=5408, out_features=5, bias=True)#    )#    (17): BatchNorm1d(5, eps=1e-05, momentum=0.01, affine=True, track_running_stats=True)#    (18): Softplus(beta=1, threshold=20)#  )#)#!0.4289001136453876!all!!0.05!0.16688554543519146!naturalscene!!!0.6471805943124415!-2.6236726914056288!512!-2.6087128218641737!dalesskip/dalesskip_14_noise0.05!0.7005751784695182!0.5463770041351199!0.5445583125984937!0.7140498466915283!0.7357874318609866!!!!!!!!!!!!!!!!!!!!!!0.01!True!!!!!!0.36236696874071!0.4952063117822548!0.2817295208273137!1.127766728401184!0.3236274719238281
dalesskip!15!15-10-07!0.001!0.4492165446281433!50!DalesSkipBNCNN!True![8, 8]!dalesskip/results.txt!0.001!!14.0!0.0001!False!0.5521175446583007!0.5590225937887876!DalesSkipBNCNN(#  (sequential): Sequential(#    (0): DalesSkipConnection(#      (sequential): Sequential(#        (0): AbsConv2d(#          (conv): Conv2d(40, 2, kernel_size=(15, 15), stride=(1, 1), padding=(7, 7))#        )#        (1): Flatten()#        (2): BatchNorm1d(5000, eps=1e-05, momentum=0.1, affine=True, track_running_stats=True)#        (3): GaussianNoise(std=0.1, trainable=False, adapt=False, momentum=0.95)#        (4): ReLU()#        (5): Reshape()#        (6): DaleActivations(n_chan=2, neg_p=1, n_neg_chan=2)#      )#    )#    (1): AbsConv2d(#      (conv): Conv2d(42, 8, kernel_size=(15, 15), stride=(1, 1))#    )#    (2): Flatten()#    (3): BatchNorm1d(10368, eps=0.001, momentum=0.01, affine=True, track_running_stats=True)#    (4): GaussianNoise(std=0.1, trainable=False, adapt=False, momentum=0.95)#    (5): ReLU()#    (6): Reshape()#    (7): DaleActivations(n_chan=8, neg_p=0.5, n_neg_chan=4)#    (8): AbsConv2d(#      (conv): Conv2d(8, 8, kernel_size=(11, 11), stride=(1, 1))#    )#    (9): Flatten()#    (10): BatchNorm1d(5408, eps=0.001, momentum=0.01, affine=True, track_running_stats=True)#    (11): GaussianNoise(std=0.1, trainable=False, adapt=False, momentum=0.95)#    (12): ReLU()#    (13): Reshape()#    (14): DaleActivations(n_chan=8, neg_p=0.5, n_neg_chan=4)#    (15): Flatten()#    (16): AbsLinear(#      (linear): Linear(in_features=5408, out_features=5, bias=True)#    )#    (17): BatchNorm1d(5, eps=1e-05, momentum=0.01, affine=True, track_running_stats=True)#    (18): Softplus(beta=1, threshold=20)#  )#)#!0.33872147939891845!all!!0.1!0.11052688626481257!naturalscene!!!0.6376451596361544!-2.3695270269884423!512!-2.134389855379049!dalesskip/dalesskip_15_noise0.1!0.6354066569217866!0.3389374824505791!0.4803016742145517!0.595852909637525!0.7100890000670609!!!!!!!!!!!!!!!!!!!!!!0.01!True!!!!!!0.3123565197170031!0.3933580627962277!0.1953178089595917!0.5028101205825806!0.20077989995479584
absbnbncnn!0!15-10-07!0.01!0.2497144639492035!70!AbsBNBNCNN!True!!absbnbncnn/results.txt!0.006999999999999999!!0.0!0.0001!True!0.6108202968668999!0.6261888574867281!AbsBNBNCNN(#  (sequential): Sequential(#    (0): Conv2d(40, 8, kernel_size=(15, 15), stride=(1, 1))#    (1): Flatten()#    (2): AbsBatchNorm1d(bias=True, abs_bias=False, momentum=0.99, eps=0.001)#    (3): GaussianNoise(std=0.1, trainable=False, adapt=True, momentum=0.95)#    (4): ReLU()#    (5): Reshape()#    (6): Conv2d(8, 8, kernel_size=(11, 11), stride=(1, 1))#    (7): Flatten()#    (8): AbsBatchNorm1d(bias=True, abs_bias=False, momentum=0.99, eps=0.001)#    (9): GaussianNoise(std=0.1, trainable=False, adapt=True, momentum=0.95)#    (10): ReLU()#    (11): Linear(in_features=5408, out_features=5, bias=True)#    (12): AbsBatchNorm1d(bias=True, abs_bias=False, momentum=0.1, eps=1e-05)#    (13): Softplus(beta=1, threshold=20)#  )#)#!0.5076070006540754!all!!0.1!0.15985404080937568!naturalscene!!!0.7110817169266024!-2.570293073201072!512!-2.538542398444406!absbnbncnn/absbnbncnn_0_lr0.007_l20.01!0.6995606734269351!0.472797356676962!0.4974309827010808!0.7308374347904492!0.6534750367390726!!!!!!!!!!!!!!!!!!!!!!!!!!!!!0.4785603172987845!0.5652345710506502!0.3573161542962439!0.6083716154098511!0.1520138382911682
absbnbncnn!0!15-10-07!0.01!0.5389859676361084!50!AbsBNBNCNN!True![8, 8]!absbnbncnn/results.txt!0.0007!!0.0!0.0001!False!0.6872478034367565!0.6745291405702502!AbsBNBNCNN(#  (sequential): Sequential(#    (0): Conv2d(40, 8, kernel_size=(15, 15), stride=(1, 1))#    (1): Flatten()#    (2): AbsBatchNorm1d(bias=True, abs_bias=False, momentum=0.01, eps=0.001)#    (3): GaussianNoise(std=0.1, trainable=False, adapt=False, momentum=0.95)#    (4): ReLU()#    (5): Reshape()#    (6): Conv2d(8, 8, kernel_size=(11, 11), stride=(1, 1))#    (7): Flatten()#    (8): AbsBatchNorm1d(bias=True, abs_bias=False, momentum=0.01, eps=0.001)#    (9): GaussianNoise(std=0.1, trainable=False, adapt=False, momentum=0.95)#    (10): ReLU()#    (11): Linear(in_features=5408, out_features=5, bias=True)#    (12): AbsBatchNorm1d(bias=True, abs_bias=False, momentum=0.01, eps=1e-05)#    (13): Softplus(beta=1, threshold=20)#  )#)#!0.38537888540086135!all!!0.1!0.15664766437714822!naturalscene!!!0.6334850612268782!-2.806527075184956!512!-2.741464607507805!absbnbncnn/absbnbncnn_0_lr0.0007_l20.01!0.7419016370586504!0.5923758560590415!0.5914913458371892!0.7718243154718225!0.7386458627570788!!!!!!!!!!!!!!!!!!!!!!0.01!None!!!!!!0.3256705305588213!0.4463393412834261!0.24893734929697656!0.7319709062576294!0.17009973526000974
absbnbncnn!1!15-10-07!0.001!0.6053382754325867!50!AbsBNBNCNN!True![8, 8]!absbnbncnn/results.txt!0.0007!!0.0!0.0001!False!0.6813667704483095!0.7226851612123188!AbsBNBNCNN(#  (sequential): Sequential(#    (0): Conv2d(40, 8, kernel_size=(15, 15), stride=(1, 1))#    (1): Flatten()#    (2): AbsBatchNorm1d(bias=True, abs_bias=False, momentum=0.01, eps=0.001)#    (3): GaussianNoise(std=0.1, trainable=False, adapt=False, momentum=0.95)#    (4): ReLU()#    (5): Reshape()#    (6): Conv2d(8, 8, kernel_size=(11, 11), stride=(1, 1))#    (7): Flatten()#    (8): AbsBatchNorm1d(bias=True, abs_bias=False, momentum=0.01, eps=0.001)#    (9): GaussianNoise(std=0.1, trainable=False, adapt=False, momentum=0.95)#    (10): ReLU()#    (11): Linear(in_features=5408, out_features=5, bias=True)#    (12): AbsBatchNorm1d(bias=True, abs_bias=False, momentum=0.01, eps=1e-05)#    (13): Softplus(beta=1, threshold=20)#  )#)#!0.3535259352804894!all!!0.1!0.10951248768044412!naturalscene!!!0.6304736591830409!-3.3102935802523006!512!-3.3210669669948403!absbnbncnn/absbnbncnn_1_lr0.0007_l20.001!0.7519724870187808!0.5773669644265339!0.60465196748489!0.7407788203193997!0.7320636129919432!!!!!!!!!!!!!!!!!!!!!!0.01!None!!!!!!0.29998614056126244!0.4200614159860696!0.1955615557231475!1.0158915519714355!0.1535753458738327
absbnbncnn!1!15-10-07!0.001!0.26688985526561737!70!AbsBNBNCNN!True!!absbnbncnn/results.txt!0.006999999999999999!!0.0!0.0001!False!0.6906009734053133!0.6655011314077398!AbsBNBNCNN(#  (sequential): Sequential(#    (0): Conv2d(40, 8, kernel_size=(15, 15), stride=(1, 1))#    (1): Flatten()#    (2): AbsBatchNorm1d(bias=True, abs_bias=False, momentum=0.99, eps=0.001)#    (3): GaussianNoise(std=0.05, trainable=False, adapt=False)#    (4): ReLU()#    (5): Reshape()#    (6): Conv2d(8, 8, kernel_size=(11, 11), stride=(1, 1))#    (7): Flatten()#    (8): AbsBatchNorm1d(bias=True, abs_bias=False, momentum=0.99, eps=0.001)#    (9): GaussianNoise(std=0.05, trainable=False, adapt=False)#    (10): ReLU()#    (11): Linear(in_features=5408, out_features=5, bias=True)#    (12): AbsBatchNorm1d(bias=True, abs_bias=False, momentum=0.1, eps=1e-05)#    (13): Softplus(beta=1, threshold=20)#  )#)#!0.44278308472579975!all!!0.05!0.12920503597599126!naturalscene!!!0.6781500589026531!-3.0275785338644887!512!-3.0088018123478832!absbnbncnn/absbnbncnn_1_lr0.007_l20.001!0.7470945662306842!0.6024413351359994!0.5714708913949891!0.7565807120383451!0.7754173622265491!!!!!!!!!!!!!!!!!!!!!!!!!!!!!0.3873297943016216!0.5031575340554421!0.3047900737334557!1.1453197002410889!0.2201468050479889
absbnbncnn!2!15-10-07!0.01!0.5716907978057861!50!AbsBNBNCNN!True![8, 8]!absbnbncnn/results.txt!0.0002!!0.0!0.0001!False!0.711454611250033!0.7159882084205916!AbsBNBNCNN(#  (sequential): Sequential(#    (0): Conv2d(40, 8, kernel_size=(15, 15), stride=(1, 1))#    (1): Flatten()#    (2): AbsBatchNorm1d(bias=True, abs_bias=False, momentum=0.01, eps=0.001)#    (3): GaussianNoise(std=0.1, trainable=False, adapt=False, momentum=0.95)#    (4): ReLU()#    (5): Reshape()#    (6): Conv2d(8, 8, kernel_size=(11, 11), stride=(1, 1))#    (7): Flatten()#    (8): AbsBatchNorm1d(bias=True, abs_bias=False, momentum=0.01, eps=0.001)#    (9): GaussianNoise(std=0.1, trainable=False, adapt=False, momentum=0.95)#    (10): ReLU()#    (11): Linear(in_features=5408, out_features=5, bias=True)#    (12): AbsBatchNorm1d(bias=True, abs_bias=False, momentum=0.01, eps=1e-05)#    (13): Softplus(beta=1, threshold=20)#  )#)#!0.3804359817532464!all!!0.1!0.13797246423470322!naturalscene!!!0.6014698547966189!-2.9226238114441863!512!-3.097749115796978!absbnbncnn/absbnbncnn_2_lr0.0002_l20.01!0.7588051972329434!0.6326944702265638!0.6080569474435961!0.7649600299095257!0.7927564114375361!!!!!!!!!!!!!!!!!!!!!!0.01!None!!!!!!0.3378933596159958!0.4315877489015423!0.2600693864151096!0.7925561666488647!0.15268272161483765
absbnbncnn!2!15-10-07!0.01!0.26781385242938993!70!AbsBNBNCNN!True!!absbnbncnn/results.txt!0.005!!0.0!0.0001!False!0.6557606608041789!0.6730867759339187!AbsBNBNCNN(#  (sequential): Sequential(#    (0): Conv2d(40, 8, kernel_size=(15, 15), stride=(1, 1))#    (1): Flatten()#    (2): AbsBatchNorm1d(bias=True, abs_bias=False, momentum=0.99, eps=0.001)#    (3): GaussianNoise(std=0.05, trainable=False, adapt=False)#    (4): ReLU()#    (5): Reshape()#    (6): Conv2d(8, 8, kernel_size=(11, 11), stride=(1, 1))#    (7): Flatten()#    (8): AbsBatchNorm1d(bias=True, abs_bias=False, momentum=0.99, eps=0.001)#    (9): GaussianNoise(std=0.05, trainable=False, adapt=False)#    (10): ReLU()#    (11): Linear(in_features=5408, out_features=5, bias=True)#    (12): AbsBatchNorm1d(bias=True, abs_bias=False, momentum=0.1, eps=1e-05)#    (13): Softplus(beta=1, threshold=20)#  )#)#!0.4667796208381778!all!!0.05!0.17888797140759222!naturalscene!!!0.7173521194115184!-2.7504171603225838!512!-2.8924550880765314!absbnbncnn/absbnbncnn_2_lr0.005_l20.01!0.7508089017828405!0.5367449617729064!0.5517810602621329!0.7293107319638537!0.7101576482391617!!!!!!!!!!!!!!!!!!!!!!!!!!!!!0.4154712522738364!0.5340846558423726!0.3047710247089709!0.7861520648002625!0.2975627183914185
absbnbncnn!3!15-10-07!0.001!0.6122494339942932!50!AbsBNBNCNN!True![8, 8]!absbnbncnn/results.txt!0.0002!!0.0!0.0001!False!0.6699244031568068!0.7150226500765238!AbsBNBNCNN(#  (sequential): Sequential(#    (0): Conv2d(40, 8, kernel_size=(15, 15), stride=(1, 1))#    (1): Flatten()#    (2): AbsBatchNorm1d(bias=True, abs_bias=False, momentum=0.01, eps=0.001)#    (3): GaussianNoise(std=0.1, trainable=False, adapt=False, momentum=0.95)#    (4): ReLU()#    (5): Reshape()#    (6): Conv2d(8, 8, kernel_size=(11, 11), stride=(1, 1))#    (7): Flatten()#    (8): AbsBatchNorm1d(bias=True, abs_bias=False, momentum=0.01, eps=0.001)#    (9): GaussianNoise(std=0.1, trainable=False, adapt=False, momentum=0.95)#    (10): ReLU()#    (11): Linear(in_features=5408, out_features=5, bias=True)#    (12): AbsBatchNorm1d(bias=True, abs_bias=False, momentum=0.01, eps=1e-05)#    (13): Softplus(beta=1, threshold=20)#  )#)#!0.3498964872984203!all!!0.1!0.10697946780478496!naturalscene!!!0.6337165918381485!-3.3097425398963254!512!-3.2947551999783173!absbnbncnn/absbnbncnn_3_lr0.0002_l20.001!0.7018298099885842!0.6446022026095717!0.4848058485195944!0.7431268533203501!0.7752573013459335!!!!!!!!!!!!!!!!!!!!!!0.01!None!!!!!!0.29569469349318594!0.4102656607969441!0.21094591754025346!0.7637835741043091!0.18429383635520927
absbnbncnn!3!15-10-07!0.001!0.27961982786655426!70!AbsBNBNCNN!True!!absbnbncnn/results.txt!0.005!!0.0!0.0001!False!0.6889004623288062!0.6947497736874262!AbsBNBNCNN(#  (sequential): Sequential(#    (0): Conv2d(40, 8, kernel_size=(15, 15), stride=(1, 1))#    (1): Flatten()#    (2): AbsBatchNorm1d(bias=True, abs_bias=False, momentum=0.99, eps=0.001)#    (3): GaussianNoise(std=0.05, trainable=False, adapt=False)#    (4): ReLU()#    (5): Reshape()#    (6): Conv2d(8, 8, kernel_size=(11, 11), stride=(1, 1))#    (7): Flatten()#    (8): AbsBatchNorm1d(bias=True, abs_bias=False, momentum=0.99, eps=0.001)#    (9): GaussianNoise(std=0.05, trainable=False, adapt=False)#    (10): ReLU()#    (11): Linear(in_features=5408, out_features=5, bias=True)#    (12): AbsBatchNorm1d(bias=True, abs_bias=False, momentum=0.1, eps=1e-05)#    (13): Softplus(beta=1, threshold=20)#  )#)#!0.4137214439871403!all!!0.05!0.13102536424978076!naturalscene!!!0.6716218511989436!-3.124445406020497!512!-3.0448129230080667!absbnbncnn/absbnbncnn_3_lr0.005_l20.001!0.7474574081453752!0.5508233646936588!0.6478222000860798!0.7513790202358531!0.747020318483064!!!!!!!!!!!!!!!!!!!!!!!!!!!!!0.3713470268763682!0.4741989946632543!0.2652466719338432!0.6344853639602661!0.16416563093662262
absbnbncnn!4!15-10-07!0.01!0.5660518407821655!50!AbsBNBNCNN!True![8, 8]!absbnbncnn/results.txt!8e-05!!0.0!0.0001!False!0.6917353220152579!0.7157354811063128!AbsBNBNCNN(#  (sequential): Sequential(#    (0): Conv2d(40, 8, kernel_size=(15, 15), stride=(1, 1))#    (1): Flatten()#    (2): AbsBatchNorm1d(bias=True, abs_bias=False, momentum=0.01, eps=0.001)#    (3): GaussianNoise(std=0.1, trainable=False, adapt=False, momentum=0.95)#    (4): ReLU()#    (5): Reshape()#    (6): Conv2d(8, 8, kernel_size=(11, 11), stride=(1, 1))#    (7): Flatten()#    (8): AbsBatchNorm1d(bias=True, abs_bias=False, momentum=0.01, eps=0.001)#    (9): GaussianNoise(std=0.1, trainable=False, adapt=False, momentum=0.95)#    (10): ReLU()#    (11): Linear(in_features=5408, out_features=5, bias=True)#    (12): AbsBatchNorm1d(bias=True, abs_bias=False, momentum=0.01, eps=1e-05)#    (13): Softplus(beta=1, threshold=20)#  )#)#!0.3576581685221429!all!!0.1!0.10182891463519664!naturalscene!!!0.6214967816716869!-2.815440400693212!512!-3.1304551877146882!absbnbncnn/absbnbncnn_4_lr8e-05_l20.01!0.7647905482644222!0.6290664343383712!0.5971248174689101!0.774218231106351!0.6934765788982358!!!!!!!!!!!!!!!!!!!!!!0.01!None!!!!!!0.292727958877152!0.4254190965971517!0.20487665846544406!0.6463655233383179!0.2101220041513443
absbnbncnn!4!15-10-07!0.01!0.28224252462387084!70!AbsBNBNCNN!True!!absbnbncnn/results.txt!0.001!!0.0!0.0001!False!0.6880066821509868!0.6919474519410833!AbsBNBNCNN(#  (sequential): Sequential(#    (0): Conv2d(40, 8, kernel_size=(15, 15), stride=(1, 1))#    (1): Flatten()#    (2): AbsBatchNorm1d(bias=True, abs_bias=False, momentum=0.99, eps=0.001)#    (3): GaussianNoise(std=0.05, trainable=False, adapt=False)#    (4): ReLU()#    (5): Reshape()#    (6): Conv2d(8, 8, kernel_size=(11, 11), stride=(1, 1))#    (7): Flatten()#    (8): AbsBatchNorm1d(bias=True, abs_bias=False, momentum=0.99, eps=0.001)#    (9): GaussianNoise(std=0.05, trainable=False, adapt=False)#    (10): ReLU()#    (11): Linear(in_features=5408, out_features=5, bias=True)#    (12): AbsBatchNorm1d(bias=True, abs_bias=False, momentum=0.1, eps=1e-05)#    (13): Softplus(beta=1, threshold=20)#  )#)#!0.3882256948186323!all!!0.05!0.11677596048139292!naturalscene!!!0.6134756313922203!-2.9527304428734933!512!-3.2771034858687926!absbnbncnn/absbnbncnn_4_lr0.001_l20.01!0.7831088430934569!0.6108467475310619!0.6019407280071739!0.7115116316025266!0.732625460520715!!!!!!!!!!!!!!!!!!!!!!!!!!!!!0.3246446761977936!0.4505454914808706!0.25071820820368024!0.9175243377685548!0.14154747128486633
absbnbncnn!5!15-10-07!0.001!0.31600584387779235!70!AbsBNBNCNN!True!!absbnbncnn/results.txt!0.001!!0.0!0.0001!False!0.6389473554618406!0.6963413605030192!AbsBNBNCNN(#  (sequential): Sequential(#    (0): Conv2d(40, 8, kernel_size=(15, 15), stride=(1, 1))#    (1): Flatten()#    (2): AbsBatchNorm1d(bias=True, abs_bias=False, momentum=0.99, eps=0.001)#    (3): GaussianNoise(std=0.05, trainable=False, adapt=False)#    (4): ReLU()#    (5): Reshape()#    (6): Conv2d(8, 8, kernel_size=(11, 11), stride=(1, 1))#    (7): Flatten()#    (8): AbsBatchNorm1d(bias=True, abs_bias=False, momentum=0.99, eps=0.001)#    (9): GaussianNoise(std=0.05, trainable=False, adapt=False)#    (10): ReLU()#    (11): Linear(in_features=5408, out_features=5, bias=True)#    (12): AbsBatchNorm1d(bias=True, abs_bias=False, momentum=0.1, eps=1e-05)#    (13): Softplus(beta=1, threshold=20)#  )#)#!0.3640317668085644!all!!0.05!0.13737832899718766!naturalscene!!!0.6385185196442472!-3.5684824263168498!512!-3.3815151115250046!absbnbncnn/absbnbncnn_5_lr0.001_l20.001!0.7238500008220248!0.4758083666501114!0.511752802629961!0.7139510303920263!0.7693745768150793!!!!!!!!!!!!!!!!!!!!!!!!!!!!!0.3173489243109425!0.4184051852077583!0.2372203891091331!1.0192301273345947!0.3099109828472137
absbnbncnn!5!15-10-07!0.001!0.6009839773178101!50!AbsBNBNCNN!True![8, 8]!absbnbncnn/results.txt!8e-05!!0.0!0.0001!False!0.4573345790686034!0.6294623249112042!AbsBNBNCNN(#  (sequential): Sequential(#    (0): Conv2d(40, 8, kernel_size=(15, 15), stride=(1, 1))#    (1): Flatten()#    (2): AbsBatchNorm1d(bias=True, abs_bias=False, momentum=0.01, eps=0.001)#    (3): GaussianNoise(std=0.1, trainable=False, adapt=False, momentum=0.95)#    (4): ReLU()#    (5): Reshape()#    (6): Conv2d(8, 8, kernel_size=(11, 11), stride=(1, 1))#    (7): Flatten()#    (8): AbsBatchNorm1d(bias=True, abs_bias=False, momentum=0.01, eps=0.001)#    (9): GaussianNoise(std=0.1, trainable=False, adapt=False, momentum=0.95)#    (10): ReLU()#    (11): Linear(in_features=5408, out_features=5, bias=True)#    (12): AbsBatchNorm1d(bias=True, abs_bias=False, momentum=0.01, eps=1e-05)#    (13): Softplus(beta=1, threshold=20)#  )#)#!0.326521895019646!all!!0.1!0.08892269382635361!naturalscene!!!0.5556284016134879!-3.177955462741996!512!-3.0816123937598605!absbnbncnn/absbnbncnn_5_lr8e-05_l20.001!0.6406255758158113!0.4715233630091501!0.2678113512918879!0.6336269350876362!0.2730856701385312!!!!!!!!!!!!!!!!!!!!!!0.01!None!!!!!!0.27426254061156563!0.3866389707132904!0.1868168324783307!0.6297962069511414!0.16292719542980194
absbnbncnn!6!15-10-07!0.01!0.2937103986740112!70!AbsBNBNCNN!True!!absbnbncnn/results.txt!0.0001!!0.0!0.0001!False!0.6883397296899277!0.7074335759854767!AbsBNBNCNN(#  (sequential): Sequential(#    (0): Conv2d(40, 8, kernel_size=(15, 15), stride=(1, 1))#    (1): Flatten()#    (2): AbsBatchNorm1d(bias=True, abs_bias=False, momentum=0.99, eps=0.001)#    (3): GaussianNoise(std=0.05, trainable=False, adapt=False)#    (4): ReLU()#    (5): Reshape()#    (6): Conv2d(8, 8, kernel_size=(11, 11), stride=(1, 1))#    (7): Flatten()#    (8): AbsBatchNorm1d(bias=True, abs_bias=False, momentum=0.99, eps=0.001)#    (9): GaussianNoise(std=0.05, trainable=False, adapt=False)#    (10): ReLU()#    (11): Linear(in_features=5408, out_features=5, bias=True)#    (12): AbsBatchNorm1d(bias=True, abs_bias=False, momentum=0.1, eps=1e-05)#    (13): Softplus(beta=1, threshold=20)#  )#)#!0.3496043021816511!all!!0.05!0.11736504112999124!naturalscene!!!0.6360220582946849!-3.1240382119001846!512!-3.084440179145531!absbnbncnn/absbnbncnn_6_lr0.0001_l20.01!0.7587436719792098!0.5796271785206701!0.5823905731299269!0.7521122344019342!0.7688249904178976!!!!!!!!!!!!!!!!!!!!!!!!!!!!!0.2938040301703061!0.41376915835649775!0.2005099452214908!0.8738909959793091!0.1800781786441803
absbnbncnn!7!15-10-07!0.001!0.32950723767280576!70!AbsBNBNCNN!True!!absbnbncnn/results.txt!0.0001!!0.0!0.0001!False!0.519473447905443!0.6259569883538799!AbsBNBNCNN(#  (sequential): Sequential(#    (0): Conv2d(40, 8, kernel_size=(15, 15), stride=(1, 1))#    (1): Flatten()#    (2): AbsBatchNorm1d(bias=True, abs_bias=False, momentum=0.99, eps=0.001)#    (3): GaussianNoise(std=0.05, trainable=False, adapt=False)#    (4): ReLU()#    (5): Reshape()#    (6): Conv2d(8, 8, kernel_size=(11, 11), stride=(1, 1))#    (7): Flatten()#    (8): AbsBatchNorm1d(bias=True, abs_bias=False, momentum=0.99, eps=0.001)#    (9): GaussianNoise(std=0.05, trainable=False, adapt=False)#    (10): ReLU()#    (11): Linear(in_features=5408, out_features=5, bias=True)#    (12): AbsBatchNorm1d(bias=True, abs_bias=False, momentum=0.1, eps=1e-05)#    (13): Softplus(beta=1, threshold=20)#  )#)#!0.3287564572109036!all!!0.05!0.08368825395644718!naturalscene!!!0.5910684043972019!-3.701337313939723!512!-3.534850699903473!absbnbncnn/absbnbncnn_7_lr0.0001_l20.001!0.5710617689095022!0.3882121125754122!0.4287086923758399!0.5878353669677783!0.6215492986986827!!!!!!!!!!!!!!!!!!!!!!!!!!!!!0.2770092894074805!0.3889567763613337!0.18840329694005314!2.1304154396057133!1.1098790168762207
absbnbncnn!8!15-10-07!0.01!0.5199304819107056!70!AbsBNBNCNN!True!!absbnbncnn/results.txt!0.006999999999999999!!8.0!0.0001!True!0.6800459610487192!0.6561921636912819!AbsBNBNCNN(#  (sequential): Sequential(#    (0): Conv2d(40, 8, kernel_size=(15, 15), stride=(1, 1))#    (1): Flatten()#    (2): AbsBatchNorm1d(bias=True, abs_bias=False, momentum=0.99, eps=0.001)#    (3): GaussianNoise(std=0.1, trainable=False, adapt=True, momentum=0.95)#    (4): ReLU()#    (5): Reshape()#    (6): Conv2d(8, 8, kernel_size=(11, 11), stride=(1, 1))#    (7): Flatten()#    (8): AbsBatchNorm1d(bias=True, abs_bias=False, momentum=0.99, eps=0.001)#    (9): GaussianNoise(std=0.1, trainable=False, adapt=True, momentum=0.95)#    (10): ReLU()#    (11): Linear(in_features=5408, out_features=5, bias=True)#    (12): AbsBatchNorm1d(bias=True, abs_bias=False, momentum=0.1, eps=1e-05)#    (13): Softplus(beta=1, threshold=20)#  )#)#!0.4748994449445949!all!!0.1!0.13730672328826687!naturalscene!!!0.7668672006629156!-2.8541912910265803!512!-2.7012631290999707!absbnbncnn/absbnbncnn_8_lr0.007_l20.01!0.7282850258377455!0.5597931807621429!0.5730536400240391!0.7512712584716734!0.7878267001479948!!!!!!!!!!!!!!!!!!!!!!!!!!!!!0.42943767622286505!0.5454717882403072!0.2985415685076925!0.6056368350982666!0.24953150749206546
absbnbncnn!9!15-10-07!0.001!0.5124516487121582!70!AbsBNBNCNN!True!!absbnbncnn/results.txt!0.006999999999999999!!8.0!0.0001!True!0.6744193944267057!0.6491579656719004!AbsBNBNCNN(#  (sequential): Sequential(#    (0): Conv2d(40, 8, kernel_size=(15, 15), stride=(1, 1))#    (1): Flatten()#    (2): AbsBatchNorm1d(bias=True, abs_bias=False, momentum=0.99, eps=0.001)#    (3): GaussianNoise(std=0.1, trainable=False, adapt=True, momentum=0.95)#    (4): ReLU()#    (5): Reshape()#    (6): Conv2d(8, 8, kernel_size=(11, 11), stride=(1, 1))#    (7): Flatten()#    (8): AbsBatchNorm1d(bias=True, abs_bias=False, momentum=0.99, eps=0.001)#    (9): GaussianNoise(std=0.1, trainable=False, adapt=True, momentum=0.95)#    (10): ReLU()#    (11): Linear(in_features=5408, out_features=5, bias=True)#    (12): AbsBatchNorm1d(bias=True, abs_bias=False, momentum=0.1, eps=1e-05)#    (13): Softplus(beta=1, threshold=20)#  )#)#!0.5046372366514995!all!!0.1!0.12614931302493654!naturalscene!!!0.7595959285324729!-2.892245186220287!512!-2.862381058761457!absbnbncnn/absbnbncnn_9_lr0.007_l20.001!0.7444802842896558!0.5435955774160562!0.5802068947825617!0.7404072690783727!0.7634069465668821!!!!!!!!!!!!!!!!!!!!!!!!!!!!!0.4210518827257075!0.5547975953160554!0.4191669914890032!0.8131405115127563!0.18029221892356875
absbnbncnn!10!15-10-07!0.01!0.5300372242927551!70!AbsBNBNCNN!True!!absbnbncnn/results.txt!0.005!!8.0!0.0001!True!0.6683243861240332!0.6590708255181851!AbsBNBNCNN(#  (sequential): Sequential(#    (0): Conv2d(40, 8, kernel_size=(15, 15), stride=(1, 1))#    (1): Flatten()#    (2): AbsBatchNorm1d(bias=True, abs_bias=False, momentum=0.99, eps=0.001)#    (3): GaussianNoise(std=0.1, trainable=False, adapt=True, momentum=0.95)#    (4): ReLU()#    (5): Reshape()#    (6): Conv2d(8, 8, kernel_size=(11, 11), stride=(1, 1))#    (7): Flatten()#    (8): AbsBatchNorm1d(bias=True, abs_bias=False, momentum=0.99, eps=0.001)#    (9): GaussianNoise(std=0.1, trainable=False, adapt=True, momentum=0.95)#    (10): ReLU()#    (11): Linear(in_features=5408, out_features=5, bias=True)#    (12): AbsBatchNorm1d(bias=True, abs_bias=False, momentum=0.1, eps=1e-05)#    (13): Softplus(beta=1, threshold=20)#  )#)#!0.4788087478720568!all!!0.1!0.15072295952202866!naturalscene!!!0.7373222837484534!-2.8617508370951827!512!-2.9361204431588703!absbnbncnn/absbnbncnn_10_lr0.005_l20.01!0.7404778681386628!0.5408639638275152!0.5367774234563284!0.7521653204030286!0.7713373547946308!!!!!!!!!!!!!!!!!!!!!!!!!!!!!0.4189099920331218!0.5489385098262938!0.31500738321740634!0.5930980443954468!0.2231026142835617
absbnbncnn!11!15-10-07!0.001!0.5626899600028992!70!AbsBNBNCNN!True!!absbnbncnn/results.txt!0.005!!8.0!0.0001!True!0.6876609343793934!0.6879898940482565!AbsBNBNCNN(#  (sequential): Sequential(#    (0): Conv2d(40, 8, kernel_size=(15, 15), stride=(1, 1))#    (1): Flatten()#    (2): AbsBatchNorm1d(bias=True, abs_bias=False, momentum=0.99, eps=0.001)#    (3): GaussianNoise(std=0.1, trainable=False, adapt=True, momentum=0.95)#    (4): ReLU()#    (5): Reshape()#    (6): Conv2d(8, 8, kernel_size=(11, 11), stride=(1, 1))#    (7): Flatten()#    (8): AbsBatchNorm1d(bias=True, abs_bias=False, momentum=0.99, eps=0.001)#    (9): GaussianNoise(std=0.1, trainable=False, adapt=True, momentum=0.95)#    (10): ReLU()#    (11): Linear(in_features=5408, out_features=5, bias=True)#    (12): AbsBatchNorm1d(bias=True, abs_bias=False, momentum=0.1, eps=1e-05)#    (13): Softplus(beta=1, threshold=20)#  )#)#!0.4157035225242968!all!!0.1!0.14955241961718901!naturalscene!!!0.669653464023076!-3.2118423833746355!512!-3.0855735339737294!absbnbncnn/absbnbncnn_11_lr0.005_l20.001!0.75245436540525!0.5512971441446084!0.5974968221163399!0.7545354322364772!0.7825209079942912!!!!!!!!!!!!!!!!!!!!!!!!!!!!!0.35959272951339954!0.4731662613778585!0.2869570338609765!0.8649978637695312!0.346539705991745
absbnbncnn!12!15-10-07!0.01!0.5896528363227844!70!AbsBNBNCNN!True!!absbnbncnn/results.txt!0.001!!8.0!0.0001!True!0.6740946412728197!0.6962123844780381!AbsBNBNCNN(#  (sequential): Sequential(#    (0): Conv2d(40, 8, kernel_size=(15, 15), stride=(1, 1))#    (1): Flatten()#    (2): AbsBatchNorm1d(bias=True, abs_bias=False, momentum=0.99, eps=0.001)#    (3): GaussianNoise(std=0.1, trainable=False, adapt=True, momentum=0.95)#    (4): ReLU()#    (5): Reshape()#    (6): Conv2d(8, 8, kernel_size=(11, 11), stride=(1, 1))#    (7): Flatten()#    (8): AbsBatchNorm1d(bias=True, abs_bias=False, momentum=0.99, eps=0.001)#    (9): GaussianNoise(std=0.1, trainable=False, adapt=True, momentum=0.95)#    (10): ReLU()#    (11): Linear(in_features=5408, out_features=5, bias=True)#    (12): AbsBatchNorm1d(bias=True, abs_bias=False, momentum=0.1, eps=1e-05)#    (13): Softplus(beta=1, threshold=20)#  )#)#!0.4062958337861913!all!!0.1!0.15935075297425533!naturalscene!!!0.6358658085115482!-3.286055179383061!512!-3.464338169036637!absbnbncnn/absbnbncnn_12_lr0.001_l20.01!0.7315732801316082!0.5522203161826196!0.5567684989237379!0.7308955417102118!0.7990155694159209!!!!!!!!!!!!!!!!!!!!!!!!!!!!!0.3596495255743957!0.4661215823542521!0.2630990500245169!1.0676147937774658!0.16067437827587128
absbnbncnn!13!15-10-07!0.001!0.6480414867401123!70!AbsBNBNCNN!True!!absbnbncnn/results.txt!0.001!!8.0!0.0001!True!0.579692150642168!0.6858253689551796!AbsBNBNCNN(#  (sequential): Sequential(#    (0): Conv2d(40, 8, kernel_size=(15, 15), stride=(1, 1))#    (1): Flatten()#    (2): AbsBatchNorm1d(bias=True, abs_bias=False, momentum=0.99, eps=0.001)#    (3): GaussianNoise(std=0.1, trainable=False, adapt=True, momentum=0.95)#    (4): ReLU()#    (5): Reshape()#    (6): Conv2d(8, 8, kernel_size=(11, 11), stride=(1, 1))#    (7): Flatten()#    (8): AbsBatchNorm1d(bias=True, abs_bias=False, momentum=0.99, eps=0.001)#    (9): GaussianNoise(std=0.1, trainable=False, adapt=True, momentum=0.95)#    (10): ReLU()#    (11): Linear(in_features=5408, out_features=5, bias=True)#    (12): AbsBatchNorm1d(bias=True, abs_bias=False, momentum=0.1, eps=1e-05)#    (13): Softplus(beta=1, threshold=20)#  )#)#!0.3698266131704356!all!!0.1!0.11911440580034882!naturalscene!!!0.6377029299284368!-3.774307971086977!512!-3.5173726840039308!absbnbncnn/absbnbncnn_13_lr0.001_l20.001!0.6588887844460584!0.4339884193808709!0.4626329893619125!0.6834595501460465!0.6594910098759512!!!!!!!!!!!!!!!!!!!!!!!!!!!!!0.3099860780996549!0.4211959486090144!0.26226124524308403!0.8361465334892273!0.16152817010879514
absbnbncnn!14!15-10-07!0.01!0.6670743823051453!70!AbsBNBNCNN!True!!absbnbncnn/results.txt!0.0001!!8.0!0.0001!True!0.4621025875719879!0.6006706299331995!AbsBNBNCNN(#  (sequential): Sequential(#    (0): Conv2d(40, 8, kernel_size=(15, 15), stride=(1, 1))#    (1): Flatten()#    (2): AbsBatchNorm1d(bias=True, abs_bias=False, momentum=0.99, eps=0.001)#    (3): GaussianNoise(std=0.1, trainable=False, adapt=True, momentum=0.95)#    (4): ReLU()#    (5): Reshape()#    (6): Conv2d(8, 8, kernel_size=(11, 11), stride=(1, 1))#    (7): Flatten()#    (8): AbsBatchNorm1d(bias=True, abs_bias=False, momentum=0.99, eps=0.001)#    (9): GaussianNoise(std=0.1, trainable=False, adapt=True, momentum=0.95)#    (10): ReLU()#    (11): Linear(in_features=5408, out_features=5, bias=True)#    (12): AbsBatchNorm1d(bias=True, abs_bias=False, momentum=0.1, eps=1e-05)#    (13): Softplus(beta=1, threshold=20)#  )#)#!0.3300911144634246!all!!0.1!0.09286876865871488!naturalscene!!!0.5829623864115981!-3.851634543765544!512!-3.5391908636520384!absbnbncnn/absbnbncnn_14_lr0.0001_l20.01!0.4881233366776992!0.3022906559287083!0.42537032850236267!0.6475170463338106!0.44721157041735854!!!!!!!!!!!!!!!!!!!!!!!!!!!!!0.27335248111893273!0.3926822598298872!0.18644772652086367!2.3105196952819824!1.244104027748108
absbnbncnn!15!15-10-07!0.001!0.6788220405578613!70!AbsBNBNCNN!True!!absbnbncnn/results.txt!0.0001!!8.0!0.0001!True!0.4268960720098267!0.6074030830140267!AbsBNBNCNN(#  (sequential): Sequential(#    (0): Conv2d(40, 8, kernel_size=(15, 15), stride=(1, 1))#    (1): Flatten()#    (2): AbsBatchNorm1d(bias=True, abs_bias=False, momentum=0.99, eps=0.001)#    (3): GaussianNoise(std=0.1, trainable=False, adapt=True, momentum=0.95)#    (4): ReLU()#    (5): Reshape()#    (6): Conv2d(8, 8, kernel_size=(11, 11), stride=(1, 1))#    (7): Flatten()#    (8): AbsBatchNorm1d(bias=True, abs_bias=False, momentum=0.99, eps=0.001)#    (9): GaussianNoise(std=0.1, trainable=False, adapt=True, momentum=0.95)#    (10): ReLU()#    (11): Linear(in_features=5408, out_features=5, bias=True)#    (12): AbsBatchNorm1d(bias=True, abs_bias=False, momentum=0.1, eps=1e-05)#    (13): Softplus(beta=1, threshold=20)#  )#)#!!all!!0.1!!naturalscene!!!!-3.840839554281797!512!-3.638011361157624!absbnbncnn/absbnbncnn_15_lr0.0001_l20.001!0.4773847180501741!0.2463330805708128!0.22272638464852126!0.5620676868401959!0.6259684899394294!!!!!!!!!!!!!!!!!!!!!!!!!!!!!!!!!
absbnbncnn!16!15-10-07!0.01!0.4721647202968597!100!AbsBNBNCNN!True![8, 16]!absbnbncnn/results.txt!0.006999999999999999!!16.0!0.0001!False!0.5502616787282584!0.5947220181348353!AbsBNBNCNN(#  (sequential): Sequential(#    (0): Conv2d(40, 8, kernel_size=(15, 15), stride=(1, 1))#    (1): Flatten()#    (2): AbsBatchNorm1d(bias=True, abs_bias=False, momentum=0.99, eps=0.001)#    (3): GaussianNoise(std=0.1, trainable=False, adapt=False, momentum=0.95)#    (4): ReLU()#    (5): Reshape()#    (6): Conv2d(8, 16, kernel_size=(11, 11), stride=(1, 1))#    (7): Flatten()#    (8): AbsBatchNorm1d(bias=True, abs_bias=False, momentum=0.99, eps=0.001)#    (9): GaussianNoise(std=0.1, trainable=False, adapt=False, momentum=0.95)#    (10): ReLU()#    (11): Linear(in_features=10816, out_features=5, bias=True)#    (12): AbsBatchNorm1d(bias=True, abs_bias=False, momentum=0.1, eps=1e-05)#    (13): Softplus(beta=1, threshold=20)#  )#)#!0.4470157430949858!all!!0.1!0.09627739465384216!naturalscene!!!0.7288033970687221!-2.33880438456708!512!-1.4967070282946224!absbnbncnn/absbnbncnn_16_chans[8, 16]_lr0.007_l20.01!0.6209871502435449!0.3380840157086188!0.4492207442905098!0.643794734208246!0.6992217491903723!!!!!!!!!!!!!!!!!!!!!!!!!!!!!0.3985422561300637!0.4836738436423569!0.37474304242558976!0.7740728855133057!0.16873253881931305
absbnbncnn!17!15-10-07!0.001!0.5604448318481445!100!AbsBNBNCNN!True![8, 16]!absbnbncnn/results.txt!0.006999999999999999!!16.0!0.0001!False!0.6911604562513224!0.6997736264294947!AbsBNBNCNN(#  (sequential): Sequential(#    (0): Conv2d(40, 8, kernel_size=(15, 15), stride=(1, 1))#    (1): Flatten()#    (2): AbsBatchNorm1d(bias=True, abs_bias=False, momentum=0.99, eps=0.001)#    (3): GaussianNoise(std=0.1, trainable=False, adapt=False, momentum=0.95)#    (4): ReLU()#    (5): Reshape()#    (6): Conv2d(8, 16, kernel_size=(11, 11), stride=(1, 1))#    (7): Flatten()#    (8): AbsBatchNorm1d(bias=True, abs_bias=False, momentum=0.99, eps=0.001)#    (9): GaussianNoise(std=0.1, trainable=False, adapt=False, momentum=0.95)#    (10): ReLU()#    (11): Linear(in_features=10816, out_features=5, bias=True)#    (12): AbsBatchNorm1d(bias=True, abs_bias=False, momentum=0.1, eps=1e-05)#    (13): Softplus(beta=1, threshold=20)#  )#)#!0.4109318060176959!all!!0.1!0.1674413756558212!naturalscene!!!0.6380496709532326!-3.0462294151700284!512!-3.0025127615062965!absbnbncnn/absbnbncnn_17_chans[8, 16]_lr0.007_l20.001!0.7554322262388036!0.5720234896412734!0.6102512404647357!0.7261288150767005!0.7919665098350992!!!!!!!!!!!!!!!!!!!!!!!!!!!!!0.3496049074571439!0.479412605663573!0.25318810596049385!0.7853873372077942!0.1889253705739975
absbnbncnn!18!15-10-07!0.01!0.5018137693405151!100!AbsBNBNCNN!True![8, 16]!absbnbncnn/results.txt!0.005!!16.0!0.0001!False!0.6373270426034743!0.6385313139320044!AbsBNBNCNN(#  (sequential): Sequential(#    (0): Conv2d(40, 8, kernel_size=(15, 15), stride=(1, 1))#    (1): Flatten()#    (2): AbsBatchNorm1d(bias=True, abs_bias=False, momentum=0.99, eps=0.001)#    (3): GaussianNoise(std=0.1, trainable=False, adapt=False, momentum=0.95)#    (4): ReLU()#    (5): Reshape()#    (6): Conv2d(8, 16, kernel_size=(11, 11), stride=(1, 1))#    (7): Flatten()#    (8): AbsBatchNorm1d(bias=True, abs_bias=False, momentum=0.99, eps=0.001)#    (9): GaussianNoise(std=0.1, trainable=False, adapt=False, momentum=0.95)#    (10): ReLU()#    (11): Linear(in_features=10816, out_features=5, bias=True)#    (12): AbsBatchNorm1d(bias=True, abs_bias=False, momentum=0.1, eps=1e-05)#    (13): Softplus(beta=1, threshold=20)#  )#)#!0.454420514915118!all!!0.1!0.1393143152537952!naturalscene!!!0.6982942078866412!-2.528498410369476!512!-2.4198184726192267!absbnbncnn/absbnbncnn_18_chans[8, 16]_lr0.005_l20.01!0.7049430481081049!0.5190202173249493!0.5138604304737118!0.706220388577023!0.7425911285335819!!!!!!!!!!!!!!!!!!!!!!!!!!!!!0.4162276802708092!0.5250172498246634!0.2723358482431665!0.8646202087402344!0.06753023713827133
absbnbncnn!19!15-10-07!0.001!0.5610637068748474!100!AbsBNBNCNN!True![8, 16]!absbnbncnn/results.txt!0.005!!16.0!0.0001!False!0.6827198832637001!0.6918903574675526!AbsBNBNCNN(#  (sequential): Sequential(#    (0): Conv2d(40, 8, kernel_size=(15, 15), stride=(1, 1))#    (1): Flatten()#    (2): AbsBatchNorm1d(bias=True, abs_bias=False, momentum=0.99, eps=0.001)#    (3): GaussianNoise(std=0.1, trainable=False, adapt=False, momentum=0.95)#    (4): ReLU()#    (5): Reshape()#    (6): Conv2d(8, 16, kernel_size=(11, 11), stride=(1, 1))#    (7): Flatten()#    (8): AbsBatchNorm1d(bias=True, abs_bias=False, momentum=0.99, eps=0.001)#    (9): GaussianNoise(std=0.1, trainable=False, adapt=False, momentum=0.95)#    (10): ReLU()#    (11): Linear(in_features=10816, out_features=5, bias=True)#    (12): AbsBatchNorm1d(bias=True, abs_bias=False, momentum=0.1, eps=1e-05)#    (13): Softplus(beta=1, threshold=20)#  )#)#!0.4151891419086796!all!!0.1!0.15590793477083054!naturalscene!!!0.6722874827708822!-3.0690041472109915!512!-3.0193940486333304!absbnbncnn/absbnbncnn_19_chans[8, 16]_lr0.005_l20.001!0.7470784672935864!0.5518375418661016!0.6008229504091173!0.7331451903613604!0.7807152663883351!!!!!!!!!!!!!!!!!!!!!!!!!!!!!0.35228653819767075!0.4852498259231954!0.2539313371959165!0.7261514663696289!0.18601921200752256
absbnbncnn!20!15-10-07!0.01!0.5490962862968445!100!AbsBNBNCNN!True![8, 16]!absbnbncnn/results.txt!0.001!!16.0!0.0001!False!0.6777420103037022!0.6912913443461468!AbsBNBNCNN(#  (sequential): Sequential(#    (0): Conv2d(40, 8, kernel_size=(15, 15), stride=(1, 1))#    (1): Flatten()#    (2): AbsBatchNorm1d(bias=True, abs_bias=False, momentum=0.99, eps=0.001)#    (3): GaussianNoise(std=0.1, trainable=False, adapt=False, momentum=0.95)#    (4): ReLU()#    (5): Reshape()#    (6): Conv2d(8, 16, kernel_size=(11, 11), stride=(1, 1))#    (7): Flatten()#    (8): AbsBatchNorm1d(bias=True, abs_bias=False, momentum=0.99, eps=0.001)#    (9): GaussianNoise(std=0.1, trainable=False, adapt=False, momentum=0.95)#    (10): ReLU()#    (11): Linear(in_features=10816, out_features=5, bias=True)#    (12): AbsBatchNorm1d(bias=True, abs_bias=False, momentum=0.1, eps=1e-05)#    (13): Softplus(beta=1, threshold=20)#  )#)#!0.4313996143386747!all!!0.1!0.13788654755935836!naturalscene!!!0.6685183808019832!-2.7801065336165567!512!-3.1354994615685428!absbnbncnn/absbnbncnn_20_chans[8, 16]_lr0.001_l20.01!0.7554109113822732!0.6036991529648261!0.5829359960972786!0.7577762994042243!0.688887691669908!!!!!!!!!!!!!!!!!!!!!!!!!!!!!0.3534058270861564!0.4729685340570943!0.3673546897131525!0.9216358065605164!0.08062191307544707
absbnbncnn!21!15-10-07!0.001!0.6108153462409973!100!AbsBNBNCNN!True![8, 16]!absbnbncnn/results.txt!0.001!!16.0!0.0001!False!0.6847909524868399!0.7287405824225394!AbsBNBNCNN(#  (sequential): Sequential(#    (0): Conv2d(40, 8, kernel_size=(15, 15), stride=(1, 1))#    (1): Flatten()#    (2): AbsBatchNorm1d(bias=True, abs_bias=False, momentum=0.99, eps=0.001)#    (3): GaussianNoise(std=0.1, trainable=False, adapt=False, momentum=0.95)#    (4): ReLU()#    (5): Reshape()#    (6): Conv2d(8, 16, kernel_size=(11, 11), stride=(1, 1))#    (7): Flatten()#    (8): AbsBatchNorm1d(bias=True, abs_bias=False, momentum=0.99, eps=0.001)#    (9): GaussianNoise(std=0.1, trainable=False, adapt=False, momentum=0.95)#    (10): ReLU()#    (11): Linear(in_features=10816, out_features=5, bias=True)#    (12): AbsBatchNorm1d(bias=True, abs_bias=False, momentum=0.1, eps=1e-05)#    (13): Softplus(beta=1, threshold=20)#  )#)#!0.3414662151867485!all!!0.1!0.11566986425978998!naturalscene!!!0.561307407587631!-3.408283958967275!512!-3.207250264105824!absbnbncnn/absbnbncnn_21_chans[8, 16]_lr0.001_l20.001!0.7682909142804063!0.5325582515858287!0.587818689025668!0.7372345212065332!0.7980523863357633!!!!!!!!!!!!!!!!!!!!!!!!!!!!!0.28847842114196365!0.3944662311541289!0.2236788959861064!1.2345807552337646!0.3229965567588806
absbnbncnn!22!15-10-07!0.01!0.5354322791099548!100!AbsBNBNCNN!True![8, 16]!absbnbncnn/results.txt!0.0001!!16.0!0.0001!False!0.6292519622319666!0.6718170290896917!AbsBNBNCNN(#  (sequential): Sequential(#    (0): Conv2d(40, 8, kernel_size=(15, 15), stride=(1, 1))#    (1): Flatten()#    (2): AbsBatchNorm1d(bias=True, abs_bias=False, momentum=0.99, eps=0.001)#    (3): GaussianNoise(std=0.1, trainable=False, adapt=False, momentum=0.95)#    (4): ReLU()#    (5): Reshape()#    (6): Conv2d(8, 16, kernel_size=(11, 11), stride=(1, 1))#    (7): Flatten()#    (8): AbsBatchNorm1d(bias=True, abs_bias=False, momentum=0.99, eps=0.001)#    (9): GaussianNoise(std=0.1, trainable=False, adapt=False, momentum=0.95)#    (10): ReLU()#    (11): Linear(in_features=10816, out_features=5, bias=True)#    (12): AbsBatchNorm1d(bias=True, abs_bias=False, momentum=0.1, eps=1e-05)#    (13): Softplus(beta=1, threshold=20)#  )#)#!0.3593050426674124!all!!0.1!0.0929905494029056!naturalscene!!!0.6119044560637839!-2.8018515739325838!512!-2.5230518613680037!absbnbncnn/absbnbncnn_22_chans[8, 16]_lr0.0001_l20.01!0.7701837985345454!0.5362188132573708!0.5507737473673553!0.7825742604037373!0.5065091915968241!!!!!!!!!!!!!!!!!!!!!!!!!!!!!0.2990947395067254!0.4261513225444553!0.20559643882792944!0.9037919044494628!0.17235390841960907
absbnbncnn!23!15-10-07!0.001!0.6520722508430481!100!AbsBNBNCNN!True![8, 16]!absbnbncnn/results.txt!0.0001!!16.0!0.0001!False!0.5977640902721394!0.6795179431691593!AbsBNBNCNN(#  (sequential): Sequential(#    (0): Conv2d(40, 8, kernel_size=(15, 15), stride=(1, 1))#    (1): Flatten()#    (2): AbsBatchNorm1d(bias=True, abs_bias=False, momentum=0.99, eps=0.001)#    (3): GaussianNoise(std=0.1, trainable=False, adapt=False, momentum=0.95)#    (4): ReLU()#    (5): Reshape()#    (6): Conv2d(8, 16, kernel_size=(11, 11), stride=(1, 1))#    (7): Flatten()#    (8): AbsBatchNorm1d(bias=True, abs_bias=False, momentum=0.99, eps=0.001)#    (9): GaussianNoise(std=0.1, trainable=False, adapt=False, momentum=0.95)#    (10): ReLU()#    (11): Linear(in_features=10816, out_features=5, bias=True)#    (12): AbsBatchNorm1d(bias=True, abs_bias=False, momentum=0.1, eps=1e-05)#    (13): Softplus(beta=1, threshold=20)#  )#)#!0.3163797471931568!all!!0.1!0.0823178586004595!naturalscene!!!0.5414962281086764!-3.5599987661496906!512!-3.5281076672563363!absbnbncnn/absbnbncnn_23_chans[8, 16]_lr0.0001_l20.001!0.7019532615939603!0.4373024524175442!0.4009085055646711!0.7444428624027549!0.7042133693817662!!!!!!!!!!!!!!!!!!!!!!!!!!!!!0.2665469971970708!0.37551683761485705!0.17772728148056766!1.1457059383392334!0.40705955028533936
absbnbncnn!24!15-10-07!0.01!0.5244188904762268!100!AbsBNBNCNN!True![8, 24]!absbnbncnn/results.txt!0.006999999999999999!!16.0!0.0001!False!0.6076201236192433!0.6399907638938803!AbsBNBNCNN(#  (sequential): Sequential(#    (0): Conv2d(40, 8, kernel_size=(15, 15), stride=(1, 1))#    (1): Flatten()#    (2): AbsBatchNorm1d(bias=True, abs_bias=False, momentum=0.99, eps=0.001)#    (3): GaussianNoise(std=0.1, trainable=False, adapt=False, momentum=0.95)#    (4): ReLU()#    (5): Reshape()#    (6): Conv2d(8, 24, kernel_size=(11, 11), stride=(1, 1))#    (7): Flatten()#    (8): AbsBatchNorm1d(bias=True, abs_bias=False, momentum=0.99, eps=0.001)#    (9): GaussianNoise(std=0.1, trainable=False, adapt=False, momentum=0.95)#    (10): ReLU()#    (11): Linear(in_features=16224, out_features=5, bias=True)#    (12): AbsBatchNorm1d(bias=True, abs_bias=False, momentum=0.1, eps=1e-05)#    (13): Softplus(beta=1, threshold=20)#  )#)#!0.4602431722033284!all!!0.1!0.1409554149165669!naturalscene!!!0.7310277884187476!-2.706668604553016!512!-2.5743959650353645!absbnbncnn/absbnbncnn_24_chans[8, 24]_lr0.007_l20.01!0.7080603083262857!0.4463949540333408!0.5360197558582197!0.6988392453740787!0.6487863545042918!!!!!!!!!!!!!!!!!!!!!!!!!!!!!0.4185337602862856!0.5339166207049854!0.2716634804116129!0.7391959428787231!0.23694577813148496
absbnbncnn!25!15-10-07!0.001!0.5674821138381958!100!AbsBNBNCNN!True![8, 24]!absbnbncnn/results.txt!0.006999999999999999!!16.0!0.0001!False!0.7073447072430433!0.7022749271023881!AbsBNBNCNN(#  (sequential): Sequential(#    (0): Conv2d(40, 8, kernel_size=(15, 15), stride=(1, 1))#    (1): Flatten()#    (2): AbsBatchNorm1d(bias=True, abs_bias=False, momentum=0.99, eps=0.001)#    (3): GaussianNoise(std=0.1, trainable=False, adapt=False, momentum=0.95)#    (4): ReLU()#    (5): Reshape()#    (6): Conv2d(8, 24, kernel_size=(11, 11), stride=(1, 1))#    (7): Flatten()#    (8): AbsBatchNorm1d(bias=True, abs_bias=False, momentum=0.99, eps=0.001)#    (9): GaussianNoise(std=0.1, trainable=False, adapt=False, momentum=0.95)#    (10): ReLU()#    (11): Linear(in_features=16224, out_features=5, bias=True)#    (12): AbsBatchNorm1d(bias=True, abs_bias=False, momentum=0.1, eps=1e-05)#    (13): Softplus(beta=1, threshold=20)#  )#)#!0.4271816119071762!all!!0.1!0.1414131169503811!naturalscene!!!0.6674598071492003!-3.0849178982715983!512!-3.108982929294143!absbnbncnn/absbnbncnn_25_chans[8, 24]_lr0.007_l20.001!0.777904351097243!0.6146192319809173!0.6282108662952508!0.7257788545086094!0.7902102323331963!!!!!!!!!!!!!!!!!!!!!!!!!!!!!0.3762722246551894!0.4918800317256423!0.2726825425366561!0.7228178977966309!0.1970546543598175
absbnbncnn!26!15-10-07!0.01!0.4805602431297302!100!AbsBNBNCNN!True![8, 24]!absbnbncnn/results.txt!0.005!!16.0!0.0001!False!0.589611400364989!0.6137642029389824!AbsBNBNCNN(#  (sequential): Sequential(#    (0): Conv2d(40, 8, kernel_size=(15, 15), stride=(1, 1))#    (1): Flatten()#    (2): AbsBatchNorm1d(bias=True, abs_bias=False, momentum=0.99, eps=0.001)#    (3): GaussianNoise(std=0.1, trainable=False, adapt=False, momentum=0.95)#    (4): ReLU()#    (5): Reshape()#    (6): Conv2d(8, 24, kernel_size=(11, 11), stride=(1, 1))#    (7): Flatten()#    (8): AbsBatchNorm1d(bias=True, abs_bias=False, momentum=0.99, eps=0.001)#    (9): GaussianNoise(std=0.1, trainable=False, adapt=False, momentum=0.95)#    (10): ReLU()#    (11): Linear(in_features=16224, out_features=5, bias=True)#    (12): AbsBatchNorm1d(bias=True, abs_bias=False, momentum=0.1, eps=1e-05)#    (13): Softplus(beta=1, threshold=20)#  )#)#!0.4947498248132977!all!!0.1!0.2011582400148205!naturalscene!!!0.7132036351373338!-2.431782386871125!512!-2.1717680930451024!absbnbncnn/absbnbncnn_26_chans[8, 24]_lr0.005_l20.01!0.6696188843787854!0.5170814472102436!0.4934919406798555!0.7010435094198715!0.5668212201361897!!!!!!!!!!!!!!!!!!!!!!!!!!!!!0.4447894879343767!0.5561417472858428!0.34943209719037915!1.1370000839233398!0.2822105884552002
absbnbncnn!27!15-10-07!0.001!0.5489233732223511!100!AbsBNBNCNN!True![8, 24]!absbnbncnn/results.txt!0.005!!16.0!0.0001!False!0.6930513224212679!0.6857105057356175!AbsBNBNCNN(#  (sequential): Sequential(#    (0): Conv2d(40, 8, kernel_size=(15, 15), stride=(1, 1))#    (1): Flatten()#    (2): AbsBatchNorm1d(bias=True, abs_bias=False, momentum=0.99, eps=0.001)#    (3): GaussianNoise(std=0.1, trainable=False, adapt=False, momentum=0.95)#    (4): ReLU()#    (5): Reshape()#    (6): Conv2d(8, 24, kernel_size=(11, 11), stride=(1, 1))#    (7): Flatten()#    (8): AbsBatchNorm1d(bias=True, abs_bias=False, momentum=0.99, eps=0.001)#    (9): GaussianNoise(std=0.1, trainable=False, adapt=False, momentum=0.95)#    (10): ReLU()#    (11): Linear(in_features=16224, out_features=5, bias=True)#    (12): AbsBatchNorm1d(bias=True, abs_bias=False, momentum=0.1, eps=1e-05)#    (13): Softplus(beta=1, threshold=20)#  )#)#!0.4285649809289115!all!!0.1!0.16211732630164807!naturalscene!!!0.6291479359180889!-2.9915331617379803!512!-3.125374378772904!absbnbncnn/absbnbncnn_27_chans[8, 24]_lr0.005_l20.001!0.7459132903444592!0.5658415461492754!0.6079465587506072!0.7475723268638661!0.7979828899981317!!!!!!!!!!!!!!!!!!!!!!!!!!!!!0.3559093147847448!0.4818916308982326!0.3250949935775229!0.7884458303451538!0.1804213523864746
absbnbncnn!28!15-10-07!0.01!0.5517508387565613!100!AbsBNBNCNN!True![8, 24]!absbnbncnn/results.txt!0.001!!16.0!0.0001!False!0.6942532041971246!0.6903844691407892!AbsBNBNCNN(#  (sequential): Sequential(#    (0): Conv2d(40, 8, kernel_size=(15, 15), stride=(1, 1))#    (1): Flatten()#    (2): AbsBatchNorm1d(bias=True, abs_bias=False, momentum=0.99, eps=0.001)#    (3): GaussianNoise(std=0.1, trainable=False, adapt=False, momentum=0.95)#    (4): ReLU()#    (5): Reshape()#    (6): Conv2d(8, 24, kernel_size=(11, 11), stride=(1, 1))#    (7): Flatten()#    (8): AbsBatchNorm1d(bias=True, abs_bias=False, momentum=0.99, eps=0.001)#    (9): GaussianNoise(std=0.1, trainable=False, adapt=False, momentum=0.95)#    (10): ReLU()#    (11): Linear(in_features=16224, out_features=5, bias=True)#    (12): AbsBatchNorm1d(bias=True, abs_bias=False, momentum=0.1, eps=1e-05)#    (13): Softplus(beta=1, threshold=20)#  )#)#!0.4034080174806956!all!!0.1!0.13421204807656836!naturalscene!!!0.6515617842100608!-2.8264925172426043!512!-2.9139206254876626!absbnbncnn/absbnbncnn_28_chans[8, 24]_lr0.001_l20.01!0.7500552402152691!0.5753759153505749!0.5890720738988903!0.7835329548264242!0.7732298366944643!!!!!!!!!!!!!!!!!!!!!!!!!!!!!0.35140129566167216!0.4715770617344956!0.2393505572452025!0.8017789125442505!0.17162548005580902
absbnbncnn!29!15-10-07!0.001!0.6051783561706543!100!AbsBNBNCNN!True![8, 24]!absbnbncnn/results.txt!0.001!!16.0!0.0001!False!0.6674982706354351!0.7222034987467674!AbsBNBNCNN(#  (sequential): Sequential(#    (0): Conv2d(40, 8, kernel_size=(15, 15), stride=(1, 1))#    (1): Flatten()#    (2): AbsBatchNorm1d(bias=True, abs_bias=False, momentum=0.99, eps=0.001)#    (3): GaussianNoise(std=0.1, trainable=False, adapt=False, momentum=0.95)#    (4): ReLU()#    (5): Reshape()#    (6): Conv2d(8, 24, kernel_size=(11, 11), stride=(1, 1))#    (7): Flatten()#    (8): AbsBatchNorm1d(bias=True, abs_bias=False, momentum=0.99, eps=0.001)#    (9): GaussianNoise(std=0.1, trainable=False, adapt=False, momentum=0.95)#    (10): ReLU()#    (11): Linear(in_features=16224, out_features=5, bias=True)#    (12): AbsBatchNorm1d(bias=True, abs_bias=False, momentum=0.1, eps=1e-05)#    (13): Softplus(beta=1, threshold=20)#  )#)#!0.3597900857675016!all!!0.1!0.09253377760406688!naturalscene!!!0.6064990464160921!-3.366134278015493!512!-3.2745231955796044!absbnbncnn/absbnbncnn_29_chans[8, 24]_lr0.001_l20.001!0.7779561721899753!0.5751383060905947!0.5351194437307715!0.6682776774365251!0.7809997537293092!!!!!!!!!!!!!!!!!!!!!!!!!!!!!0.29496512746719666!0.4134190494247851!0.2493226068069992!1.1829917430877686!0.2571795284748077
absbnbncnn!30!15-10-07!0.01!0.5444165468215942!100!AbsBNBNCNN!True![8, 24]!absbnbncnn/results.txt!0.0001!!16.0!0.0001!False!0.6984375243706217!0.6882500696281797!AbsBNBNCNN(#  (sequential): Sequential(#    (0): Conv2d(40, 8, kernel_size=(15, 15), stride=(1, 1))#    (1): Flatten()#    (2): AbsBatchNorm1d(bias=True, abs_bias=False, momentum=0.99, eps=0.001)#    (3): GaussianNoise(std=0.1, trainable=False, adapt=False, momentum=0.95)#    (4): ReLU()#    (5): Reshape()#    (6): Conv2d(8, 24, kernel_size=(11, 11), stride=(1, 1))#    (7): Flatten()#    (8): AbsBatchNorm1d(bias=True, abs_bias=False, momentum=0.99, eps=0.001)#    (9): GaussianNoise(std=0.1, trainable=False, adapt=False, momentum=0.95)#    (10): ReLU()#    (11): Linear(in_features=16224, out_features=5, bias=True)#    (12): AbsBatchNorm1d(bias=True, abs_bias=False, momentum=0.1, eps=1e-05)#    (13): Softplus(beta=1, threshold=20)#  )#)#!0.3550245419651681!all!!0.1!0.11250259238070888!naturalscene!!!0.5822432593684904!-2.811526903919145!512!-2.73569111458346!absbnbncnn/absbnbncnn_30_chans[8, 24]_lr0.0001_l20.01!0.7706913553553746!0.6437984280698777!0.6179144579914418!0.7204877950202345!0.7392955854161799!!!!!!!!!!!!!!!!!!!!!!!!!!!!!0.3002650587463158!0.4180485267460025!0.20854329679288391!0.9503812789916992!0.27011197805404663
absbnbncnn!31!15-10-07!0.001!0.6562126278877258!100!AbsBNBNCNN!True![8, 24]!absbnbncnn/results.txt!0.0001!!16.0!0.0001!False!0.5636561696139297!0.6744951550743992!AbsBNBNCNN(#  (sequential): Sequential(#    (0): Conv2d(40, 8, kernel_size=(15, 15), stride=(1, 1))#    (1): Flatten()#    (2): AbsBatchNorm1d(bias=True, abs_bias=False, momentum=0.99, eps=0.001)#    (3): GaussianNoise(std=0.1, trainable=False, adapt=False, momentum=0.95)#    (4): ReLU()#    (5): Reshape()#    (6): Conv2d(8, 24, kernel_size=(11, 11), stride=(1, 1))#    (7): Flatten()#    (8): AbsBatchNorm1d(bias=True, abs_bias=False, momentum=0.99, eps=0.001)#    (9): GaussianNoise(std=0.1, trainable=False, adapt=False, momentum=0.95)#    (10): ReLU()#    (11): Linear(in_features=16224, out_features=5, bias=True)#    (12): AbsBatchNorm1d(bias=True, abs_bias=False, momentum=0.1, eps=1e-05)#    (13): Softplus(beta=1, threshold=20)#  )#)#!0.3190946828117611!all!!0.1!0.08215491972037035!naturalscene!!!0.5738358733462751!-3.58545950473164!512!-3.4388065123166602!absbnbncnn/absbnbncnn_31_chans[8, 24]_lr0.0001_l20.001!0.7177987244033612!0.4046566483109939!0.3802602956028343!0.6789787623179621!0.6365864174344976!!!!!!!!!!!!!!!!!!!!!!!!!!!!!0.2623301290462224!0.3810383760748728!0.17741381150673374!0.858775794506073!0.2096219062805176
absbnbncnn!32!15-10-07!0.01!0.4598429203033447!100!AbsBNBNCNN!True![8, 64]!absbnbncnn/results.txt!0.006999999999999999!!16.0!0.0001!False!0.5494996358007773!0.5667939119183951!AbsBNBNCNN(#  (sequential): Sequential(#    (0): Conv2d(40, 8, kernel_size=(15, 15), stride=(1, 1))#    (1): Flatten()#    (2): AbsBatchNorm1d(bias=True, abs_bias=False, momentum=0.99, eps=0.001)#    (3): GaussianNoise(std=0.1, trainable=False, adapt=False, momentum=0.95)#    (4): ReLU()#    (5): Reshape()#    (6): Conv2d(8, 64, kernel_size=(11, 11), stride=(1, 1))#    (7): Flatten()#    (8): AbsBatchNorm1d(bias=True, abs_bias=False, momentum=0.99, eps=0.001)#    (9): GaussianNoise(std=0.1, trainable=False, adapt=False, momentum=0.95)#    (10): ReLU()#    (11): Linear(in_features=43264, out_features=5, bias=True)#    (12): AbsBatchNorm1d(bias=True, abs_bias=False, momentum=0.1, eps=1e-05)#    (13): Softplus(beta=1, threshold=20)#  )#)#!0.4814389451940825!all!!0.1!0.14731757839726864!naturalscene!!!0.7333531436007369!-2.21467561671457!512!-2.1257048565894365!absbnbncnn/absbnbncnn_32_chans[8, 64]_lr0.007_l20.01!0.6786025312646412!0.3342941891567549!0.4801417620332107!0.6904243922620975!0.5640353042871824!!!!!!!!!!!!!!!!!!!!!!!!!!!!!0.4472090948880473!0.5513167436172313!0.2984287668293302!0.4447610974311829!0.1768188178539276
absbnbncnn!33!15-10-07!0.001!0.5421313047409058!100!AbsBNBNCNN!True![8, 64]!absbnbncnn/results.txt!0.006999999999999999!!16.0!0.0001!False!0.6884034281420143!0.6758960578747073!AbsBNBNCNN(#  (sequential): Sequential(#    (0): Conv2d(40, 8, kernel_size=(15, 15), stride=(1, 1))#    (1): Flatten()#    (2): AbsBatchNorm1d(bias=True, abs_bias=False, momentum=0.99, eps=0.001)#    (3): GaussianNoise(std=0.1, trainable=False, adapt=False, momentum=0.95)#    (4): ReLU()#    (5): Reshape()#    (6): Conv2d(8, 64, kernel_size=(11, 11), stride=(1, 1))#    (7): Flatten()#    (8): AbsBatchNorm1d(bias=True, abs_bias=False, momentum=0.99, eps=0.001)#    (9): GaussianNoise(std=0.1, trainable=False, adapt=False, momentum=0.95)#    (10): ReLU()#    (11): Linear(in_features=43264, out_features=5, bias=True)#    (12): AbsBatchNorm1d(bias=True, abs_bias=False, momentum=0.1, eps=1e-05)#    (13): Softplus(beta=1, threshold=20)#  )#)#!0.3965349905454058!all!!0.1!0.14978634444742078!naturalscene!!!0.6193080951426031!-3.0150167501530136!512!-3.0535031964082013!absbnbncnn/absbnbncnn_33_chans[8, 64]_lr0.007_l20.001!0.7661556777887031!0.5840870658011369!0.5631228448526889!0.7512844329882121!0.7773671192793302!!!!!!!!!!!!!!!!!!!!!!!!!!!!!0.3516584893565338!0.4587732220721174!0.244724241334394!1.3718860149383545!0.2265516072511673
absbnbncnn!34!15-10-07!0.01!0.4850493371486664!100!AbsBNBNCNN!True![8, 64]!absbnbncnn/results.txt!0.005!!16.0!0.0001!False!0.5943875431193386!0.6158471922681923!AbsBNBNCNN(#  (sequential): Sequential(#    (0): Conv2d(40, 8, kernel_size=(15, 15), stride=(1, 1))#    (1): Flatten()#    (2): AbsBatchNorm1d(bias=True, abs_bias=False, momentum=0.99, eps=0.001)#    (3): GaussianNoise(std=0.1, trainable=False, adapt=False, momentum=0.95)#    (4): ReLU()#    (5): Reshape()#    (6): Conv2d(8, 64, kernel_size=(11, 11), stride=(1, 1))#    (7): Flatten()#    (8): AbsBatchNorm1d(bias=True, abs_bias=False, momentum=0.99, eps=0.001)#    (9): GaussianNoise(std=0.1, trainable=False, adapt=False, momentum=0.95)#    (10): ReLU()#    (11): Linear(in_features=43264, out_features=5, bias=True)#    (12): AbsBatchNorm1d(bias=True, abs_bias=False, momentum=0.1, eps=1e-05)#    (13): Softplus(beta=1, threshold=20)#  )#)#!0.5069203340724849!all!!0.1!0.19867327595095355!naturalscene!!!0.7269255724728796!-2.4131191839010286!512!-1.9413720925949756!absbnbncnn/absbnbncnn_34_chans[8, 64]_lr0.005_l20.01!0.6767822378944974!0.4808844277262282!0.4712530245360655!0.6986276616986514!0.6443903637412506!!!!!!!!!!!!!!!!!!!!!!!!!!!!!0.4659775144570445!0.566289477432509!0.3606573192488669!0.9383389353752136!0.11817520856857301
absbnbncnn!35!15-10-07!0.001!0.5490682721137999!100!AbsBNBNCNN!True![8, 64]!absbnbncnn/results.txt!0.005!!16.0!0.0001!False!0.6848719816738786!0.6949244082167213!AbsBNBNCNN(#  (sequential): Sequential(#    (0): Conv2d(40, 8, kernel_size=(15, 15), stride=(1, 1))#    (1): Flatten()#    (2): AbsBatchNorm1d(bias=True, abs_bias=False, momentum=0.99, eps=0.001)#    (3): GaussianNoise(std=0.1, trainable=False, adapt=False, momentum=0.95)#    (4): ReLU()#    (5): Reshape()#    (6): Conv2d(8, 64, kernel_size=(11, 11), stride=(1, 1))#    (7): Flatten()#    (8): AbsBatchNorm1d(bias=True, abs_bias=False, momentum=0.99, eps=0.001)#    (9): GaussianNoise(std=0.1, trainable=False, adapt=False, momentum=0.95)#    (10): ReLU()#    (11): Linear(in_features=43264, out_features=5, bias=True)#    (12): AbsBatchNorm1d(bias=True, abs_bias=False, momentum=0.1, eps=1e-05)#    (13): Softplus(beta=1, threshold=20)#  )#)#!0.4201401872621664!all!!0.1!0.17022513109164336!naturalscene!!!0.6675400725752241!-3.0371945915718426!512!-3.0480859501876694!absbnbncnn/absbnbncnn_35_chans[8, 64]_lr0.005_l20.001!0.7740327571447051!0.5814021178469493!0.5953606117031758!0.7354775276640458!0.7380868940105173!!!!!!!!!!!!!!!!!!!!!!!!!!!!!0.3757685338392194!0.476085844149453!0.2868145025959317!0.8570945858955383!0.35234060883522034
absbnbncnn!36!15-10-07!0.01!0.5308744907379149!100!AbsBNBNCNN!True![8, 64]!absbnbncnn/results.txt!0.001!!16.0!0.0001!False!0.6939568926138904!0.6720362492811149!AbsBNBNCNN(#  (sequential): Sequential(#    (0): Conv2d(40, 8, kernel_size=(15, 15), stride=(1, 1))#    (1): Flatten()#    (2): AbsBatchNorm1d(bias=True, abs_bias=False, momentum=0.99, eps=0.001)#    (3): GaussianNoise(std=0.1, trainable=False, adapt=False, momentum=0.95)#    (4): ReLU()#    (5): Reshape()#    (6): Conv2d(8, 64, kernel_size=(11, 11), stride=(1, 1))#    (7): Flatten()#    (8): AbsBatchNorm1d(bias=True, abs_bias=False, momentum=0.99, eps=0.001)#    (9): GaussianNoise(std=0.1, trainable=False, adapt=False, momentum=0.95)#    (10): ReLU()#    (11): Linear(in_features=43264, out_features=5, bias=True)#    (12): AbsBatchNorm1d(bias=True, abs_bias=False, momentum=0.1, eps=1e-05)#    (13): Softplus(beta=1, threshold=20)#  )#)#!0.4347628734292009!all!!0.1!0.1433379901452023!naturalscene!!!0.6624658461775736!-2.7634814276414756!512!-2.768342344881603!absbnbncnn/absbnbncnn_36_chans[8, 64]_lr0.001_l20.01!0.7404649595449615!0.601835528938268!0.5741422700480223!0.789514701325189!0.7638270032130112!!!!!!!!!!!!!!!!!!!!!!!!!!!!!0.3634703601250015!0.5052847320087727!0.2786470302604184!0.5893932580947876!0.08901795744895935
absbnbncnn!37!15-10-07!0.001!0.6262251138687134!100!AbsBNBNCNN!True![8, 64]!absbnbncnn/results.txt!0.001!!16.0!0.0001!False!0.667900454542045!0.7146539635089991!AbsBNBNCNN(#  (sequential): Sequential(#    (0): Conv2d(40, 8, kernel_size=(15, 15), stride=(1, 1))#    (1): Flatten()#    (2): AbsBatchNorm1d(bias=True, abs_bias=False, momentum=0.99, eps=0.001)#    (3): GaussianNoise(std=0.1, trainable=False, adapt=False, momentum=0.95)#    (4): ReLU()#    (5): Reshape()#    (6): Conv2d(8, 64, kernel_size=(11, 11), stride=(1, 1))#    (7): Flatten()#    (8): AbsBatchNorm1d(bias=True, abs_bias=False, momentum=0.99, eps=0.001)#    (9): GaussianNoise(std=0.1, trainable=False, adapt=False, momentum=0.95)#    (10): ReLU()#    (11): Linear(in_features=43264, out_features=5, bias=True)#    (12): AbsBatchNorm1d(bias=True, abs_bias=False, momentum=0.1, eps=1e-05)#    (13): Softplus(beta=1, threshold=20)#  )#)#!0.3633063004012987!all!!0.1!0.12179207312540685!naturalscene!!!0.6048018956649969!-3.3513810359514675!512!-3.3703094753946066!absbnbncnn/absbnbncnn_37_chans[8, 64]_lr0.001_l20.001!0.7101501030401426!0.5422319226334603!0.5405906418901533!0.7369869967319106!0.8095426084145587!!!!!!!!!!!!!!!!!!!!!!!!!!!!!0.28863850194951196!0.4161378064937992!0.26288673647518723!0.6222046613693237!0.146805077791214
absbnbncnn!40!15-10-07!0.01!0.4973137378692627!100!AbsBNBNCNN!True![16, 16]!absbnbncnn/results.txt!0.006999999999999999!!40.0!0.0001!False!0.6231606960560327!0.6319899667135196!AbsBNBNCNN(#  (sequential): Sequential(#    (0): Conv2d(40, 16, kernel_size=(15, 15), stride=(1, 1))#    (1): Flatten()#    (2): AbsBatchNorm1d(bias=True, abs_bias=False, momentum=0.99, eps=0.001)#    (3): GaussianNoise(std=0.1, trainable=False, adapt=False, momentum=0.95)#    (4): ReLU()#    (5): Reshape()#    (6): Conv2d(16, 16, kernel_size=(11, 11), stride=(1, 1))#    (7): Flatten()#    (8): AbsBatchNorm1d(bias=True, abs_bias=False, momentum=0.99, eps=0.001)#    (9): GaussianNoise(std=0.1, trainable=False, adapt=False, momentum=0.95)#    (10): ReLU()#    (11): Linear(in_features=10816, out_features=5, bias=True)#    (12): AbsBatchNorm1d(bias=True, abs_bias=False, momentum=0.1, eps=1e-05)#    (13): Softplus(beta=1, threshold=20)#  )#)#!0.4825915865989529!all!!0.1!0.1742756799780275!naturalscene!!!0.7254414402056738!-2.5655972720271323!512!-2.128015451820829!absbnbncnn/absbnbncnn_40_chans[16, 16]_lr0.007_l20.01!0.7115165645644995!0.5209474911593651!0.4869698086655857!0.7086573398549968!0.6877122760357168!!!!!!!!!!!!!!!!!!!!!!!!!!!!!0.44930503641208575!0.5524273306347255!0.2989738935258657!0.9171751141548156!0.1719435751438141
absbnbncnn!41!15-10-07!0.001!0.564356803894043!100!AbsBNBNCNN!True![16, 16]!absbnbncnn/results.txt!0.006999999999999999!!40.0!0.0001!False!0.6995699599607077!0.6969823635743856!AbsBNBNCNN(#  (sequential): Sequential(#    (0): Conv2d(40, 16, kernel_size=(15, 15), stride=(1, 1))#    (1): Flatten()#    (2): AbsBatchNorm1d(bias=True, abs_bias=False, momentum=0.99, eps=0.001)#    (3): GaussianNoise(std=0.1, trainable=False, adapt=False, momentum=0.95)#    (4): ReLU()#    (5): Reshape()#    (6): Conv2d(16, 16, kernel_size=(11, 11), stride=(1, 1))#    (7): Flatten()#    (8): AbsBatchNorm1d(bias=True, abs_bias=False, momentum=0.99, eps=0.001)#    (9): GaussianNoise(std=0.1, trainable=False, adapt=False, momentum=0.95)#    (10): ReLU()#    (11): Linear(in_features=10816, out_features=5, bias=True)#    (12): AbsBatchNorm1d(bias=True, abs_bias=False, momentum=0.1, eps=1e-05)#    (13): Softplus(beta=1, threshold=20)#  )#)#!0.41037865877212737!all!!0.1!0.14638435397234986!naturalscene!!!0.666243590838078!-3.1162910788666967!512!-3.09506142612554!absbnbncnn/absbnbncnn_41_chans[16, 16]_lr0.007_l20.001!0.7842732242199855!0.5719526847551519!0.6057347244495525!0.7286532433109272!0.8072359230679209!!!!!!!!!!!!!!!!!!!!!!!!!!!!!0.3540277886706601!0.4802129966547711!0.24470409964755946!1.0609195232391355!0.4317863881587982
absbnbncnn!42!15-10-07!0.01!0.5005820989608765!100!AbsBNBNCNN!True![16, 16]!absbnbncnn/results.txt!0.005!!40.0!0.0001!False!0.635892916388061!0.6338086246412451!AbsBNBNCNN(#  (sequential): Sequential(#    (0): Conv2d(40, 16, kernel_size=(15, 15), stride=(1, 1))#    (1): Flatten()#    (2): AbsBatchNorm1d(bias=True, abs_bias=False, momentum=0.99, eps=0.001)#    (3): GaussianNoise(std=0.1, trainable=False, adapt=False, momentum=0.95)#    (4): ReLU()#    (5): Reshape()#    (6): Conv2d(16, 16, kernel_size=(11, 11), stride=(1, 1))#    (7): Flatten()#    (8): AbsBatchNorm1d(bias=True, abs_bias=False, momentum=0.99, eps=0.001)#    (9): GaussianNoise(std=0.1, trainable=False, adapt=False, momentum=0.95)#    (10): ReLU()#    (11): Linear(in_features=10816, out_features=5, bias=True)#    (12): AbsBatchNorm1d(bias=True, abs_bias=False, momentum=0.1, eps=1e-05)#    (13): Softplus(beta=1, threshold=20)#  )#)#!0.469984403877823!all!!0.1!0.1399632320952077!naturalscene!!!0.7361424080814042!-2.5462475892825003!512!-2.284572524746181!absbnbncnn/absbnbncnn_42_chans[16, 16]_lr0.005_l20.01!0.7169716782397202!0.5049984555664842!0.5382235048362717!0.7121685893990165!0.7071023538988127!!!!!!!!!!!!!!!!!!!!!!!!!!!!!0.4405989755259844!0.5400136412044648!0.28275202506043856!0.6864694356918335!0.3221504092216492
absbnbncnn!43!15-10-07!0.001!0.558976948261261!100!AbsBNBNCNN!True![16, 16]!absbnbncnn/results.txt!0.005!!40.0!0.0001!False!0.6804488486233066!0.6963334616795802!AbsBNBNCNN(#  (sequential): Sequential(#    (0): Conv2d(40, 16, kernel_size=(15, 15), stride=(1, 1))#    (1): Flatten()#    (2): AbsBatchNorm1d(bias=True, abs_bias=False, momentum=0.99, eps=0.001)#    (3): GaussianNoise(std=0.1, trainable=False, adapt=False, momentum=0.95)#    (4): ReLU()#    (5): Reshape()#    (6): Conv2d(16, 16, kernel_size=(11, 11), stride=(1, 1))#    (7): Flatten()#    (8): AbsBatchNorm1d(bias=True, abs_bias=False, momentum=0.99, eps=0.001)#    (9): GaussianNoise(std=0.1, trainable=False, adapt=False, momentum=0.95)#    (10): ReLU()#    (11): Linear(in_features=10816, out_features=5, bias=True)#    (12): AbsBatchNorm1d(bias=True, abs_bias=False, momentum=0.1, eps=1e-05)#    (13): Softplus(beta=1, threshold=20)#  )#)#!0.4183425707373328!all!!0.1!0.1618863952534786!naturalscene!!!0.6153939545728464!-3.0799530514404965!512!-3.0293820513034007!absbnbncnn/absbnbncnn_43_chans[16, 16]_lr0.005_l20.001!0.7422909798647452!0.5821818323888066!0.5635856062018986!0.7629766069644659!0.7512092176966166!!!!!!!!!!!!!!!!!!!!!!!!!!!!!0.3707902417554613!0.4729166005181526!0.2916056261585511!0.8251087069511414!0.17318744957447052
absbnbncnn!44!15-10-07!0.01!0.5280449986457825!100!AbsBNBNCNN!True![16, 16]!absbnbncnn/results.txt!0.001!!40.0!0.0001!False!0.7214703608730418!0.6815858330792535!AbsBNBNCNN(#  (sequential): Sequential(#    (0): Conv2d(40, 16, kernel_size=(15, 15), stride=(1, 1))#    (1): Flatten()#    (2): AbsBatchNorm1d(bias=True, abs_bias=False, momentum=0.99, eps=0.001)#    (3): GaussianNoise(std=0.1, trainable=False, adapt=False, momentum=0.95)#    (4): ReLU()#    (5): Reshape()#    (6): Conv2d(16, 16, kernel_size=(11, 11), stride=(1, 1))#    (7): Flatten()#    (8): AbsBatchNorm1d(bias=True, abs_bias=False, momentum=0.99, eps=0.001)#    (9): GaussianNoise(std=0.1, trainable=False, adapt=False, momentum=0.95)#    (10): ReLU()#    (11): Linear(in_features=10816, out_features=5, bias=True)#    (12): AbsBatchNorm1d(bias=True, abs_bias=False, momentum=0.1, eps=1e-05)#    (13): Softplus(beta=1, threshold=20)#  )#)#!0.4177636738795157!all!!0.1!0.13779520871843595!naturalscene!!!0.6528804541809822!-2.842541654365275!512!-3.0435895574555616!absbnbncnn/absbnbncnn_44_chans[16, 16]_lr0.001_l20.01!0.7541553851275518!0.6277821059989177!0.6063934338438829!0.8080520195022834!0.8109688598925734!!!!!!!!!!!!!!!!!!!!!!!!!!!!!0.3409611939679434!0.4648281389193308!0.3363055409135158!0.9690327644348145!0.20775137841701508
absbnbncnn!45!15-10-07!0.001!0.6134458780288696!100!AbsBNBNCNN!True![16, 16]!absbnbncnn/results.txt!0.001!!40.0!0.0001!False!0.6672309270239607!0.7390946989798752!AbsBNBNCNN(#  (sequential): Sequential(#    (0): Conv2d(40, 16, kernel_size=(15, 15), stride=(1, 1))#    (1): Flatten()#    (2): AbsBatchNorm1d(bias=True, abs_bias=False, momentum=0.99, eps=0.001)#    (3): GaussianNoise(std=0.1, trainable=False, adapt=False, momentum=0.95)#    (4): ReLU()#    (5): Reshape()#    (6): Conv2d(16, 16, kernel_size=(11, 11), stride=(1, 1))#    (7): Flatten()#    (8): AbsBatchNorm1d(bias=True, abs_bias=False, momentum=0.99, eps=0.001)#    (9): GaussianNoise(std=0.1, trainable=False, adapt=False, momentum=0.95)#    (10): ReLU()#    (11): Linear(in_features=10816, out_features=5, bias=True)#    (12): AbsBatchNorm1d(bias=True, abs_bias=False, momentum=0.1, eps=1e-05)#    (13): Softplus(beta=1, threshold=20)#  )#)#!0.3709128833243508!all!!0.1!0.09951886992386877!naturalscene!!!0.5660032677444089!-3.408791085533786!512!-3.179780692113128!absbnbncnn/absbnbncnn_45_chans[16, 16]_lr0.001_l20.001!0.7138861812285262!0.5663998533051522!0.5576798019762966!0.7181197840587591!0.7800690145510691!!!!!!!!!!!!!!!!!!!!!!!!!!!!!0.2948940614307789!0.4077542941875985!0.3195144010962749!0.9589155912399292!0.1439797580242157
absbnbncnn!46!15-10-07!0.01!0.5429168939590454!100!AbsBNBNCNN!True![16, 16]!absbnbncnn/results.txt!0.0001!!40.0!0.0001!False!0.6725073659543678!0.7010186021712652!AbsBNBNCNN(#  (sequential): Sequential(#    (0): Conv2d(40, 16, kernel_size=(15, 15), stride=(1, 1))#    (1): Flatten()#    (2): AbsBatchNorm1d(bias=True, abs_bias=False, momentum=0.99, eps=0.001)#    (3): GaussianNoise(std=0.1, trainable=False, adapt=False, momentum=0.95)#    (4): ReLU()#    (5): Reshape()#    (6): Conv2d(16, 16, kernel_size=(11, 11), stride=(1, 1))#    (7): Flatten()#    (8): AbsBatchNorm1d(bias=True, abs_bias=False, momentum=0.99, eps=0.001)#    (9): GaussianNoise(std=0.1, trainable=False, adapt=False, momentum=0.95)#    (10): ReLU()#    (11): Linear(in_features=10816, out_features=5, bias=True)#    (12): AbsBatchNorm1d(bias=True, abs_bias=False, momentum=0.1, eps=1e-05)#    (13): Softplus(beta=1, threshold=20)#  )#)#!0.35971569239880785!all!!0.1!0.1260365337664845!naturalscene!!!0.6185912528928456!-2.845507737737975!512!-2.4858307053982567!absbnbncnn/absbnbncnn_46_chans[16, 16]_lr0.0001_l20.01!0.7592930849360783!0.626972696303259!0.5647188441392502!0.6903947420099681!0.7211574623832829!!!!!!!!!!!!!!!!!!!!!!!!!!!!!0.2998303669807269!0.4246185010617395!0.21158474173518704!0.8895777463912964!0.15063145756721494
absbnbncnn!47!15-10-07!0.001!0.6761770844459534!100!AbsBNBNCNN!True![16, 16]!absbnbncnn/results.txt!0.0001!!40.0!0.0001!False!0.5725300278088243!0.6823855211947061!AbsBNBNCNN(#  (sequential): Sequential(#    (0): Conv2d(40, 16, kernel_size=(15, 15), stride=(1, 1))#    (1): Flatten()#    (2): AbsBatchNorm1d(bias=True, abs_bias=False, momentum=0.99, eps=0.001)#    (3): GaussianNoise(std=0.1, trainable=False, adapt=False, momentum=0.95)#    (4): ReLU()#    (5): Reshape()#    (6): Conv2d(16, 16, kernel_size=(11, 11), stride=(1, 1))#    (7): Flatten()#    (8): AbsBatchNorm1d(bias=True, abs_bias=False, momentum=0.99, eps=0.001)#    (9): GaussianNoise(std=0.1, trainable=False, adapt=False, momentum=0.95)#    (10): ReLU()#    (11): Linear(in_features=10816, out_features=5, bias=True)#    (12): AbsBatchNorm1d(bias=True, abs_bias=False, momentum=0.1, eps=1e-05)#    (13): Softplus(beta=1, threshold=20)#  )#)#!0.3284515716545699!all!!0.1!0.1104402944414128!naturalscene!!!0.5954748947722359!-3.659890102225371!512!-3.626555843729875!absbnbncnn/absbnbncnn_47_chans[16, 16]_lr0.0001_l20.001!0.7253602948788384!0.44883447372479707!0.4304022856112974!0.6148408978206948!0.6432121870084936!!!!!!!!!!!!!!!!!!!!!!!!!!!!!0.2716383665793277!0.3905438269623612!0.18636285412305054!0.7394855618476868!0.3245259523391724
absbnbncnn!48!15-10-07!0.01!0.4796430468559265!100!AbsBNBNCNN!True![16, 24]!absbnbncnn/results.txt!0.006999999999999999!!40.0!0.0001!False!0.6099955999126571!0.6077340556212041!AbsBNBNCNN(#  (sequential): Sequential(#    (0): Conv2d(40, 16, kernel_size=(15, 15), stride=(1, 1))#    (1): Flatten()#    (2): AbsBatchNorm1d(bias=True, abs_bias=False, momentum=0.99, eps=0.001)#    (3): GaussianNoise(std=0.1, trainable=False, adapt=False, momentum=0.95)#    (4): ReLU()#    (5): Reshape()#    (6): Conv2d(16, 24, kernel_size=(11, 11), stride=(1, 1))#    (7): Flatten()#    (8): AbsBatchNorm1d(bias=True, abs_bias=False, momentum=0.99, eps=0.001)#    (9): GaussianNoise(std=0.1, trainable=False, adapt=False, momentum=0.95)#    (10): ReLU()#    (11): Linear(in_features=16224, out_features=5, bias=True)#    (12): AbsBatchNorm1d(bias=True, abs_bias=False, momentum=0.1, eps=1e-05)#    (13): Softplus(beta=1, threshold=20)#  )#)#!0.3645862530345888!all!!0.1!0.10721308697086084!naturalscene!!!0.6016838250140751!-2.5527623853172834!512!-2.095289633241918!absbnbncnn/absbnbncnn_48_chans[16, 24]_lr0.007_l20.01!0.7306765902993202!0.3868790920055655!0.5350316576024706!0.7269205413082808!0.6704701183476481!!!!!!!!!!!!!!!!!!!!!!!!!!!!!0.3331244458263138!0.3782874890951088!0.3479528393483535!0.6914861798286438!0.20408721268177032
absbnbncnn!49!15-10-07!0.001!0.5474950075149536!100!AbsBNBNCNN!True![16, 24]!absbnbncnn/results.txt!0.006999999999999999!!40.0!0.0001!False!0.7111425123995876!0.6893538801156098!AbsBNBNCNN(#  (sequential): Sequential(#    (0): Conv2d(40, 16, kernel_size=(15, 15), stride=(1, 1))#    (1): Flatten()#    (2): AbsBatchNorm1d(bias=True, abs_bias=False, momentum=0.99, eps=0.001)#    (3): GaussianNoise(std=0.1, trainable=False, adapt=False, momentum=0.95)#    (4): ReLU()#    (5): Reshape()#    (6): Conv2d(16, 24, kernel_size=(11, 11), stride=(1, 1))#    (7): Flatten()#    (8): AbsBatchNorm1d(bias=True, abs_bias=False, momentum=0.99, eps=0.001)#    (9): GaussianNoise(std=0.1, trainable=False, adapt=False, momentum=0.95)#    (10): ReLU()#    (11): Linear(in_features=16224, out_features=5, bias=True)#    (12): AbsBatchNorm1d(bias=True, abs_bias=False, momentum=0.1, eps=1e-05)#    (13): Softplus(beta=1, threshold=20)#  )#)#!0.42228744056243!all!!0.1!0.15969019696114234!naturalscene!!!0.6568721262607479!-3.0609342097157266!512!-3.0983971120931537!absbnbncnn/absbnbncnn_49_chans[16, 24]_lr0.007_l20.001!0.7743595243728315!0.602810617044995!0.6345506077318729!0.7894005230245429!0.7545912898236959!!!!!!!!!!!!!!!!!!!!!!!!!!!!!0.3600588272203505!0.4906104100576034!0.2657185646763047!0.7827666997909546!0.14578650891780853
absbnbncnn!50!15-10-07!0.01!0.4773261547088623!100!AbsBNBNCNN!True![16, 24]!absbnbncnn/results.txt!0.005!!40.0!0.0001!False!0.6344336980745096!0.6236437736724867!AbsBNBNCNN(#  (sequential): Sequential(#    (0): Conv2d(40, 16, kernel_size=(15, 15), stride=(1, 1))#    (1): Flatten()#    (2): AbsBatchNorm1d(bias=True, abs_bias=False, momentum=0.99, eps=0.001)#    (3): GaussianNoise(std=0.1, trainable=False, adapt=False, momentum=0.95)#    (4): ReLU()#    (5): Reshape()#    (6): Conv2d(16, 24, kernel_size=(11, 11), stride=(1, 1))#    (7): Flatten()#    (8): AbsBatchNorm1d(bias=True, abs_bias=False, momentum=0.99, eps=0.001)#    (9): GaussianNoise(std=0.1, trainable=False, adapt=False, momentum=0.95)#    (10): ReLU()#    (11): Linear(in_features=16224, out_features=5, bias=True)#    (12): AbsBatchNorm1d(bias=True, abs_bias=False, momentum=0.1, eps=1e-05)#    (13): Softplus(beta=1, threshold=20)#  )#)#!0.47824140358502!all!!0.1!0.2100061116764516!naturalscene!!!0.7288523015918702!-2.5109589509834533!512!-2.002939805654023!absbnbncnn/absbnbncnn_50_chans[16, 24]_lr0.005_l20.01!0.7002941250822455!0.5373839211610846!0.4941718004992046!0.7259147185311322!0.7144039250988811!!!!!!!!!!!!!!!!!!!!!!!!!!!!!0.4323681885940994!0.5354691291206837!0.34223739419318905!0.8520263433456421!0.121321901679039
absbnbncnn!51!15-10-07!0.001!0.5489718914031982!100!AbsBNBNCNN!True![16, 24]!absbnbncnn/results.txt!0.005!!40.0!0.0001!False!0.6869875414151954!0.6884026412209256!AbsBNBNCNN(#  (sequential): Sequential(#    (0): Conv2d(40, 16, kernel_size=(15, 15), stride=(1, 1))#    (1): Flatten()#    (2): AbsBatchNorm1d(bias=True, abs_bias=False, momentum=0.99, eps=0.001)#    (3): GaussianNoise(std=0.1, trainable=False, adapt=False, momentum=0.95)#    (4): ReLU()#    (5): Reshape()#    (6): Conv2d(16, 24, kernel_size=(11, 11), stride=(1, 1))#    (7): Flatten()#    (8): AbsBatchNorm1d(bias=True, abs_bias=False, momentum=0.99, eps=0.001)#    (9): GaussianNoise(std=0.1, trainable=False, adapt=False, momentum=0.95)#    (10): ReLU()#    (11): Linear(in_features=16224, out_features=5, bias=True)#    (12): AbsBatchNorm1d(bias=True, abs_bias=False, momentum=0.1, eps=1e-05)#    (13): Softplus(beta=1, threshold=20)#  )#)#!0.4257517839763905!all!!0.1!0.09952743889680107!naturalscene!!!0.6807106989657993!-3.0941961728609524!512!-3.1126901557199744!absbnbncnn/absbnbncnn_51_chans[16, 24]_lr0.005_l20.001!0.7615707979816703!0.5861434884802971!0.6134965118320014!0.7549782331719802!0.7187486756100279!!!!!!!!!!!!!!!!!!!!!!!!!!!!!0.3514086348963744!0.48530957891800897!0.3049008484359923!1.150623440742493!0.28992998600006104
absbnbncnn!52!15-10-07!0.001!0.5399245023727417!85!AbsBNBNCNN!True![10, 10]!absbnbncnn/results.txt!0.006999999999999999!!52.0!0.0001!False!0.6819251725071586!0.6784158445154137!AbsBNBNCNN(#  (sequential): Sequential(#    (0): Conv2d(40, 10, kernel_size=(15, 15), stride=(1, 1))#    (1): Flatten()#    (2): AbsBatchNorm1d(bias=True, abs_bias=False, momentum=0.99, eps=0.001)#    (3): GaussianNoise(std=0.1, trainable=False, adapt=False, momentum=0.95)#    (4): ReLU()#    (5): Reshape()#    (6): Conv2d(10, 10, kernel_size=(11, 11), stride=(1, 1))#    (7): Flatten()#    (8): AbsBatchNorm1d(bias=True, abs_bias=False, momentum=0.99, eps=0.001)#    (9): GaussianNoise(std=0.1, trainable=False, adapt=False, momentum=0.95)#    (10): ReLU()#    (11): Linear(in_features=6760, out_features=5, bias=True)#    (12): AbsBatchNorm1d(bias=True, abs_bias=False, momentum=0.1, eps=1e-05)#    (13): Softplus(beta=1, threshold=20)#  )#)#!0.4405858105292567!all!!0.1!0.14383089258891754!naturalscene!!!0.6468977531174582!-3.0038218633082123!512!-2.9357738233549755!absbnbncnn/absbnbncnn_52_lr0.007_chans[10, 10]!0.7465121100197413!0.5833333687196767!0.5507956177115461!0.7670992951977429!0.7618854708870857!!!!!!!!!!!!!!!!!!!!!!!!!!!!!0.3756963853522479!0.5025066946878316!0.30529271096898325!0.5269652605056763!0.15697413682937622
absbnbncnn!53!15-10-07!0.001!0.5560445189476013!85!AbsBNBNCNN!True![12, 12]!absbnbncnn/results.txt!0.006999999999999999!!52.0!0.0001!False!0.6783781134896407!0.6837617258729489!AbsBNBNCNN(#  (sequential): Sequential(#    (0): Conv2d(40, 12, kernel_size=(15, 15), stride=(1, 1))#    (1): Flatten()#    (2): AbsBatchNorm1d(bias=True, abs_bias=False, momentum=0.99, eps=0.001)#    (3): GaussianNoise(std=0.1, trainable=False, adapt=False, momentum=0.95)#    (4): ReLU()#    (5): Reshape()#    (6): Conv2d(12, 12, kernel_size=(11, 11), stride=(1, 1))#    (7): Flatten()#    (8): AbsBatchNorm1d(bias=True, abs_bias=False, momentum=0.99, eps=0.001)#    (9): GaussianNoise(std=0.1, trainable=False, adapt=False, momentum=0.95)#    (10): ReLU()#    (11): Linear(in_features=8112, out_features=5, bias=True)#    (12): AbsBatchNorm1d(bias=True, abs_bias=False, momentum=0.1, eps=1e-05)#    (13): Softplus(beta=1, threshold=20)#  )#)#!0.4090953810771106!all!!0.1!0.1500873220548099!naturalscene!!!0.6824536830348975!-3.0572602752466898!512!-3.068256038245454!absbnbncnn/absbnbncnn_53_lr0.007_chans[12, 12]!0.7570220726940715!0.5531805045857183!0.5868708767314577!0.7256422173638549!0.7691748960731011!!!!!!!!!!!!!!!!!!!!!!!!!!!!!0.3661466956793436!0.4773779363213655!0.23765224843149824!1.1827423572540283!0.2573962211608887
absbnbncnn!54!15-10-07!0.001!0.5537539720535278!85!AbsBNBNCNN!True![14, 14]!absbnbncnn/results.txt!0.006999999999999999!!52.0!0.0001!False!0.6961429585426594!0.6937052264340805!AbsBNBNCNN(#  (sequential): Sequential(#    (0): Conv2d(40, 14, kernel_size=(15, 15), stride=(1, 1))#    (1): Flatten()#    (2): AbsBatchNorm1d(bias=True, abs_bias=False, momentum=0.99, eps=0.001)#    (3): GaussianNoise(std=0.1, trainable=False, adapt=False, momentum=0.95)#    (4): ReLU()#    (5): Reshape()#    (6): Conv2d(14, 14, kernel_size=(11, 11), stride=(1, 1))#    (7): Flatten()#    (8): AbsBatchNorm1d(bias=True, abs_bias=False, momentum=0.99, eps=0.001)#    (9): GaussianNoise(std=0.1, trainable=False, adapt=False, momentum=0.95)#    (10): ReLU()#    (11): Linear(in_features=9464, out_features=5, bias=True)#    (12): AbsBatchNorm1d(bias=True, abs_bias=False, momentum=0.1, eps=1e-05)#    (13): Softplus(beta=1, threshold=20)#  )#)#!0.4164280730565201!all!!0.1!0.1557824769626229!naturalscene!!!0.6526862151795565!-3.067173482066366!512!-3.1491870978752567!absbnbncnn/absbnbncnn_54_lr0.007_chans[14, 14]!0.7577854044109905!0.6199222844915765!0.5889404172426178!0.7563164599798676!0.7577502265882446!!!!!!!!!!!!!!!!!!!!!!!!!!!!!0.3697310997095814!0.4838546279432026!0.2504682765552024!0.9650074243545532!0.21644482016563416
absbnbncnn!55!15-10-07!0.001!0.5647026300430298!85!AbsBNBNCNN!True![18, 18]!absbnbncnn/results.txt!0.006999999999999999!!52.0!0.0001!False!0.6800226857132314!0.7024403182250942!AbsBNBNCNN(#  (sequential): Sequential(#    (0): Conv2d(40, 18, kernel_size=(15, 15), stride=(1, 1))#    (1): Flatten()#    (2): AbsBatchNorm1d(bias=True, abs_bias=False, momentum=0.99, eps=0.001)#    (3): GaussianNoise(std=0.1, trainable=False, adapt=False, momentum=0.95)#    (4): ReLU()#    (5): Reshape()#    (6): Conv2d(18, 18, kernel_size=(11, 11), stride=(1, 1))#    (7): Flatten()#    (8): AbsBatchNorm1d(bias=True, abs_bias=False, momentum=0.99, eps=0.001)#    (9): GaussianNoise(std=0.1, trainable=False, adapt=False, momentum=0.95)#    (10): ReLU()#    (11): Linear(in_features=12168, out_features=5, bias=True)#    (12): AbsBatchNorm1d(bias=True, abs_bias=False, momentum=0.1, eps=1e-05)#    (13): Softplus(beta=1, threshold=20)#  )#)#!0.4446050788284945!all!!0.1!0.15869621244025006!naturalscene!!!0.6983851651322964!-3.0830936014742147!512!-3.020285425978364!absbnbncnn/absbnbncnn_55_lr0.007_chans[18, 18]!0.7456236901170861!0.5702494990955372!0.5635948088443228!0.7394914966328064!0.7811539338764047!!!!!!!!!!!!!!!!!!!!!!!!!!!!!0.39169233875930265!0.4998155859215999!0.3201279109363274!1.1829016208648682!0.31040892004966736
absbnbncnn!56!15-10-07!0.001!0.6166962385177612!85!AbsBNBNCNN!True![10, 10]!absbnbncnn/results.txt!0.001!!52.0!0.0001!False!0.6452565489445314!0.7181983001146246!AbsBNBNCNN(#  (sequential): Sequential(#    (0): Conv2d(40, 10, kernel_size=(15, 15), stride=(1, 1))#    (1): Flatten()#    (2): AbsBatchNorm1d(bias=True, abs_bias=False, momentum=0.99, eps=0.001)#    (3): GaussianNoise(std=0.1, trainable=False, adapt=False, momentum=0.95)#    (4): ReLU()#    (5): Reshape()#    (6): Conv2d(10, 10, kernel_size=(11, 11), stride=(1, 1))#    (7): Flatten()#    (8): AbsBatchNorm1d(bias=True, abs_bias=False, momentum=0.99, eps=0.001)#    (9): GaussianNoise(std=0.1, trainable=False, adapt=False, momentum=0.95)#    (10): ReLU()#    (11): Linear(in_features=6760, out_features=5, bias=True)#    (12): AbsBatchNorm1d(bias=True, abs_bias=False, momentum=0.1, eps=1e-05)#    (13): Softplus(beta=1, threshold=20)#  )#)#!0.3424688035926854!all!!0.1!0.13269434949994507!naturalscene!!!0.5827782348843654!-3.4401590669496747!512!-3.6254300316730217!absbnbncnn/absbnbncnn_56_lr0.001_chans[10, 10]!0.7641595211006292!0.5613414345698006!0.4953063612501264!0.6778013574338267!0.7276740703682745!!!!!!!!!!!!!!!!!!!!!!!!!!!!!0.29110456779987903!0.3974292306318923!0.21753748364724707!0.9154468774795532!0.05329592153429985
absbnbncnn!57!15-10-07!0.001!0.6221537590026855!85!AbsBNBNCNN!True![12, 12]!absbnbncnn/results.txt!0.001!!52.0!0.0001!False!0.6401166770320892!0.7296393486975459!AbsBNBNCNN(#  (sequential): Sequential(#    (0): Conv2d(40, 12, kernel_size=(15, 15), stride=(1, 1))#    (1): Flatten()#    (2): AbsBatchNorm1d(bias=True, abs_bias=False, momentum=0.99, eps=0.001)#    (3): GaussianNoise(std=0.1, trainable=False, adapt=False, momentum=0.95)#    (4): ReLU()#    (5): Reshape()#    (6): Conv2d(12, 12, kernel_size=(11, 11), stride=(1, 1))#    (7): Flatten()#    (8): AbsBatchNorm1d(bias=True, abs_bias=False, momentum=0.99, eps=0.001)#    (9): GaussianNoise(std=0.1, trainable=False, adapt=False, momentum=0.95)#    (10): ReLU()#    (11): Linear(in_features=8112, out_features=5, bias=True)#    (12): AbsBatchNorm1d(bias=True, abs_bias=False, momentum=0.1, eps=1e-05)#    (13): Softplus(beta=1, threshold=20)#  )#)#!0.3724136988494559!all!!0.1!0.13649261200376642!naturalscene!!!0.5819462300177961!-3.4086858463862724!512!-3.229655254057433!absbnbncnn/absbnbncnn_57_lr0.001_chans[12, 12]!0.7945496235188905!0.478477815190976!0.5530448413356209!0.7195061834238176!0.6550049216911412!!!!!!!!!!!!!!!!!!!!!!!!!!!!!0.3146076201155281!0.4186632287252874!0.27862539268168296!0.7274932265281677!0.1682644486427307
absbnbncnn!58!15-10-07!0.001!0.6154800057411194!85!AbsBNBNCNN!True![14, 14]!absbnbncnn/results.txt!0.001!!52.0!0.0001!False!0.6382487891618316!0.7333298432503259!AbsBNBNCNN(#  (sequential): Sequential(#    (0): Conv2d(40, 14, kernel_size=(15, 15), stride=(1, 1))#    (1): Flatten()#    (2): AbsBatchNorm1d(bias=True, abs_bias=False, momentum=0.99, eps=0.001)#    (3): GaussianNoise(std=0.1, trainable=False, adapt=False, momentum=0.95)#    (4): ReLU()#    (5): Reshape()#    (6): Conv2d(14, 14, kernel_size=(11, 11), stride=(1, 1))#    (7): Flatten()#    (8): AbsBatchNorm1d(bias=True, abs_bias=False, momentum=0.99, eps=0.001)#    (9): GaussianNoise(std=0.1, trainable=False, adapt=False, momentum=0.95)#    (10): ReLU()#    (11): Linear(in_features=9464, out_features=5, bias=True)#    (12): AbsBatchNorm1d(bias=True, abs_bias=False, momentum=0.1, eps=1e-05)#    (13): Softplus(beta=1, threshold=20)#  )#)#!0.3724265343266411!all!!0.1!0.12479392050948013!naturalscene!!!0.6059489086846028!-3.3740410743615565!512!-3.1371123686905777!absbnbncnn/absbnbncnn_58_lr0.001_chans[14, 14]!0.7255566557694098!0.5868033056178815!0.4873073526361288!0.6225492407242805!0.7690273910614569!!!!!!!!!!!!!!!!!!!!!!!!!!!!!0.32707196691747786!0.4236284291098405!0.2540966246286145!0.5293834805488586!0.2734772861003876
absbnbncnn!59!15-10-07!0.001!0.6196966171264648!85!AbsBNBNCNN!True![18, 18]!absbnbncnn/results.txt!0.001!!52.0!0.0001!False!0.6626799196591696!0.7203616999280097!AbsBNBNCNN(#  (sequential): Sequential(#    (0): Conv2d(40, 18, kernel_size=(15, 15), stride=(1, 1))#    (1): Flatten()#    (2): AbsBatchNorm1d(bias=True, abs_bias=False, momentum=0.99, eps=0.001)#    (3): GaussianNoise(std=0.1, trainable=False, adapt=False, momentum=0.95)#    (4): ReLU()#    (5): Reshape()#    (6): Conv2d(18, 18, kernel_size=(11, 11), stride=(1, 1))#    (7): Flatten()#    (8): AbsBatchNorm1d(bias=True, abs_bias=False, momentum=0.99, eps=0.001)#    (9): GaussianNoise(std=0.1, trainable=False, adapt=False, momentum=0.95)#    (10): ReLU()#    (11): Linear(in_features=12168, out_features=5, bias=True)#    (12): AbsBatchNorm1d(bias=True, abs_bias=False, momentum=0.1, eps=1e-05)#    (13): Softplus(beta=1, threshold=20)#  )#)#!0.38623436735794!all!!0.1!0.12301322206820466!naturalscene!!!0.6673926473237508!-3.329116469774492!512!-3.039629488497667!absbnbncnn/absbnbncnn_59_lr0.001_chans[18, 18]!0.7714912563142329!0.5153688774177464!0.5785790317184863!0.6441339087129291!0.8038265241324536!!!!!!!!!!!!!!!!!!!!!!!!!!!!!0.31448998719570664!0.4466385874303221!0.2608228917114201!0.8789113759994507!0.1581382006406784
absbnbncnn!60!15-10-07!0.001!0.6279265284538269!85!AbsBNBNCNN!True![10, 10]!absbnbncnn/results.txt!0.0005!!52.0!0.0001!False!0.6711778046419824!0.7352902060473074!AbsBNBNCNN(#  (sequential): Sequential(#    (0): Conv2d(40, 10, kernel_size=(15, 15), stride=(1, 1))#    (1): Flatten()#    (2): AbsBatchNorm1d(bias=True, abs_bias=False, momentum=0.99, eps=0.001)#    (3): GaussianNoise(std=0.1, trainable=False, adapt=False, momentum=0.95)#    (4): ReLU()#    (5): Reshape()#    (6): Conv2d(10, 10, kernel_size=(11, 11), stride=(1, 1))#    (7): Flatten()#    (8): AbsBatchNorm1d(bias=True, abs_bias=False, momentum=0.99, eps=0.001)#    (9): GaussianNoise(std=0.1, trainable=False, adapt=False, momentum=0.95)#    (10): ReLU()#    (11): Linear(in_features=6760, out_features=5, bias=True)#    (12): AbsBatchNorm1d(bias=True, abs_bias=False, momentum=0.1, eps=1e-05)#    (13): Softplus(beta=1, threshold=20)#  )#)#!0.35565674716013723!all!!0.1!0.09213907071428612!naturalscene!!!0.6257097108669829!-3.460608425543138!512!-3.2947783948380684!absbnbncnn/absbnbncnn_60_lr0.0005_chans[10, 10]!0.7459259242120255!0.5433081845943073!0.5486565633494764!0.7514241862439248!0.7665741648101779!!!!!!!!!!!!!!!!!!!!!!!!!!!!!0.2976204781885232!0.4081721673949897!0.2432498067668349!1.3471052646636963!0.4247846007347107
absbnbncnn!61!15-10-07!0.001!0.6382166147232056!85!AbsBNBNCNN!True![12, 12]!absbnbncnn/results.txt!0.0005!!52.0!0.0001!False!0.6108649303755622!0.7061256270139304!AbsBNBNCNN(#  (sequential): Sequential(#    (0): Conv2d(40, 12, kernel_size=(15, 15), stride=(1, 1))#    (1): Flatten()#    (2): AbsBatchNorm1d(bias=True, abs_bias=False, momentum=0.99, eps=0.001)#    (3): GaussianNoise(std=0.1, trainable=False, adapt=False, momentum=0.95)#    (4): ReLU()#    (5): Reshape()#    (6): Conv2d(12, 12, kernel_size=(11, 11), stride=(1, 1))#    (7): Flatten()#    (8): AbsBatchNorm1d(bias=True, abs_bias=False, momentum=0.99, eps=0.001)#    (9): GaussianNoise(std=0.1, trainable=False, adapt=False, momentum=0.95)#    (10): ReLU()#    (11): Linear(in_features=8112, out_features=5, bias=True)#    (12): AbsBatchNorm1d(bias=True, abs_bias=False, momentum=0.1, eps=1e-05)#    (13): Softplus(beta=1, threshold=20)#  )#)#!0.3484639705387972!all!!0.1!0.13241748430231987!naturalscene!!!0.5956108549431804!-3.546645037099427!512!-3.4338971350676735!absbnbncnn/absbnbncnn_61_lr0.0005_chans[12, 12]!0.7234599494643913!0.5235403998360111!0.30867355834672355!0.6928539053599109!0.8057968388707747!!!!!!!!!!!!!!!!!!!!!!!!!!!!!0.2874416377448997!0.4054513334830925!0.2249636961011648!0.6371505856513977!0.2172202914953232
absbnbncnn!62!15-10-07!0.001!0.6355225443840027!85!AbsBNBNCNN!True![14, 14]!absbnbncnn/results.txt!0.0005!!52.0!0.0001!False!0.6273232253595818!0.7109497971362094!AbsBNBNCNN(#  (sequential): Sequential(#    (0): Conv2d(40, 14, kernel_size=(15, 15), stride=(1, 1))#    (1): Flatten()#    (2): AbsBatchNorm1d(bias=True, abs_bias=False, momentum=0.99, eps=0.001)#    (3): GaussianNoise(std=0.1, trainable=False, adapt=False, momentum=0.95)#    (4): ReLU()#    (5): Reshape()#    (6): Conv2d(14, 14, kernel_size=(11, 11), stride=(1, 1))#    (7): Flatten()#    (8): AbsBatchNorm1d(bias=True, abs_bias=False, momentum=0.99, eps=0.001)#    (9): GaussianNoise(std=0.1, trainable=False, adapt=False, momentum=0.95)#    (10): ReLU()#    (11): Linear(in_features=9464, out_features=5, bias=True)#    (12): AbsBatchNorm1d(bias=True, abs_bias=False, momentum=0.1, eps=1e-05)#    (13): Softplus(beta=1, threshold=20)#  )#)#!0.3442065156579984!all!!0.1!0.12153855142725015!naturalscene!!!0.5639077187972745!-3.5585499636907563!512!-3.4073686743809963!absbnbncnn/absbnbncnn_62_lr0.0005_chans[14, 14]!0.7245315370998142!0.5261731655495957!0.41228088992896816!0.7219034265427522!0.7517271076767786!!!!!!!!!!!!!!!!!!!!!!!!!!!!!0.2814311026518163!0.3983104742143669!0.2307199612159236!1.0228688716888428!0.2987996637821197
absbnbncnn!63!15-10-07!0.001!0.6605109572410583!85!AbsBNBNCNN!True![18, 18]!absbnbncnn/results.txt!0.0005!!52.0!0.0001!False!0.6324702325889201!0.7314612931919375!AbsBNBNCNN(#  (sequential): Sequential(#    (0): Conv2d(40, 18, kernel_size=(15, 15), stride=(1, 1))#    (1): Flatten()#    (2): AbsBatchNorm1d(bias=True, abs_bias=False, momentum=0.99, eps=0.001)#    (3): GaussianNoise(std=0.1, trainable=False, adapt=False, momentum=0.95)#    (4): ReLU()#    (5): Reshape()#    (6): Conv2d(18, 18, kernel_size=(11, 11), stride=(1, 1))#    (7): Flatten()#    (8): AbsBatchNorm1d(bias=True, abs_bias=False, momentum=0.99, eps=0.001)#    (9): GaussianNoise(std=0.1, trainable=False, adapt=False, momentum=0.95)#    (10): ReLU()#    (11): Linear(in_features=12168, out_features=5, bias=True)#    (12): AbsBatchNorm1d(bias=True, abs_bias=False, momentum=0.1, eps=1e-05)#    (13): Softplus(beta=1, threshold=20)#  )#)#!0.3507510922217681!all!!0.1!0.10956363200108124!naturalscene!!!0.6134863059528398!-3.631352676165768!512!-3.5084322528906338!absbnbncnn/absbnbncnn_63_lr0.0005_chans[18, 18]!0.6791620570727509!0.4939239411833504!0.5284170370393441!0.7019050317877074!0.7589430958614481!!!!!!!!!!!!!!!!!!!!!!!!!!!!!0.286415633276034!0.4056872982890873!0.2359811643109372!0.9912883043289183!0.2689513564109802
absbnbncnn!64!15-10-07!0.001!0.6374444961547852!85!AbsBNBNCNN!True![10, 10]!absbnbncnn/results.txt!0.0001!!52.0!0.0001!False!0.5463605291934808!0.6757732625037155!AbsBNBNCNN(#  (sequential): Sequential(#    (0): Conv2d(40, 10, kernel_size=(15, 15), stride=(1, 1))#    (1): Flatten()#    (2): AbsBatchNorm1d(bias=True, abs_bias=False, momentum=0.99, eps=0.001)#    (3): GaussianNoise(std=0.1, trainable=False, adapt=False, momentum=0.95)#    (4): ReLU()#    (5): Reshape()#    (6): Conv2d(10, 10, kernel_size=(11, 11), stride=(1, 1))#    (7): Flatten()#    (8): AbsBatchNorm1d(bias=True, abs_bias=False, momentum=0.99, eps=0.001)#    (9): GaussianNoise(std=0.1, trainable=False, adapt=False, momentum=0.95)#    (10): ReLU()#    (11): Linear(in_features=6760, out_features=5, bias=True)#    (12): AbsBatchNorm1d(bias=True, abs_bias=False, momentum=0.1, eps=1e-05)#    (13): Softplus(beta=1, threshold=20)#  )#)#!0.33080297190214725!all!!0.1!0.08409848507395483!naturalscene!!!0.5928209572972906!-3.5175245928368777!512!-3.5308439926469872!absbnbncnn/absbnbncnn_64_lr0.0001_chans[10, 10]!0.4287303157857945!0.5093036025042306!0.4436579109266139!0.6956554891625746!0.6544553275881909!!!!!!!!!!!!!!!!!!!!!!!!!!!!!0.2750054886967773!0.39518383764110027!0.1810584171783537!1.2665923833847046!0.3929564654827118
absbnbncnn!65!15-10-07!0.001!0.647318959236145!85!AbsBNBNCNN!True![12, 12]!absbnbncnn/results.txt!0.0001!!52.0!0.0001!False!0.6119328027939971!0.688022571241657!AbsBNBNCNN(#  (sequential): Sequential(#    (0): Conv2d(40, 12, kernel_size=(15, 15), stride=(1, 1))#    (1): Flatten()#    (2): AbsBatchNorm1d(bias=True, abs_bias=False, momentum=0.99, eps=0.001)#    (3): GaussianNoise(std=0.1, trainable=False, adapt=False, momentum=0.95)#    (4): ReLU()#    (5): Reshape()#    (6): Conv2d(12, 12, kernel_size=(11, 11), stride=(1, 1))#    (7): Flatten()#    (8): AbsBatchNorm1d(bias=True, abs_bias=False, momentum=0.99, eps=0.001)#    (9): GaussianNoise(std=0.1, trainable=False, adapt=False, momentum=0.95)#    (10): ReLU()#    (11): Linear(in_features=8112, out_features=5, bias=True)#    (12): AbsBatchNorm1d(bias=True, abs_bias=False, momentum=0.1, eps=1e-05)#    (13): Softplus(beta=1, threshold=20)#  )#)#!0.3338577464399425!all!!0.1!0.08161055646773363!naturalscene!!!0.6106332369306133!-3.5625131633666487!512!-3.5486111834172336!absbnbncnn/absbnbncnn_65_lr0.0001_chans[12, 12]!0.6996087746407041!0.5061118886445564!0.4463104949904538!0.7602337797840706!0.6473990759102001!!!!!!!!!!!!!!!!!!!!!!!!!!!!!0.2663547586198736!0.4018880180577813!0.18226925544647976!0.959916889667511!0.2106923311948776
absbnbncnn!66!15-10-07!0.001!0.6555579304695129!85!AbsBNBNCNN!True![14, 14]!absbnbncnn/results.txt!0.0001!!52.0!0.0001!False!0.6101202218793071!0.6847654204635266!AbsBNBNCNN(#  (sequential): Sequential(#    (0): Conv2d(40, 14, kernel_size=(15, 15), stride=(1, 1))#    (1): Flatten()#    (2): AbsBatchNorm1d(bias=True, abs_bias=False, momentum=0.99, eps=0.001)#    (3): GaussianNoise(std=0.1, trainable=False, adapt=False, momentum=0.95)#    (4): ReLU()#    (5): Reshape()#    (6): Conv2d(14, 14, kernel_size=(11, 11), stride=(1, 1))#    (7): Flatten()#    (8): AbsBatchNorm1d(bias=True, abs_bias=False, momentum=0.99, eps=0.001)#    (9): GaussianNoise(std=0.1, trainable=False, adapt=False, momentum=0.95)#    (10): ReLU()#    (11): Linear(in_features=9464, out_features=5, bias=True)#    (12): AbsBatchNorm1d(bias=True, abs_bias=False, momentum=0.1, eps=1e-05)#    (13): Softplus(beta=1, threshold=20)#  )#)#!0.3343648377630897!all!!0.1!0.08662543929486502!naturalscene!!!0.6087994738836574!-3.605575490501312!512!-3.5088033971165715!absbnbncnn/absbnbncnn_66_lr0.0001_chans[14, 14]!0.7293446772295442!0.4406045631053075!0.4689104856641682!0.6689902912978701!0.7427510920996461!!!!!!!!!!!!!!!!!!!!!!!!!!!!!0.27227111351945804!0.3994510403120917!0.1874013489722416!0.9315954446792604!0.7772974967956543
absbnbncnn!67!15-10-07!0.001!0.6748298406600952!85!AbsBNBNCNN!True![18, 18]!absbnbncnn/results.txt!0.0001!!52.0!0.0001!False!0.5252157882564481!0.6882629492436007!AbsBNBNCNN(#  (sequential): Sequential(#    (0): Conv2d(40, 18, kernel_size=(15, 15), stride=(1, 1))#    (1): Flatten()#    (2): AbsBatchNorm1d(bias=True, abs_bias=False, momentum=0.99, eps=0.001)#    (3): GaussianNoise(std=0.1, trainable=False, adapt=False, momentum=0.95)#    (4): ReLU()#    (5): Reshape()#    (6): Conv2d(18, 18, kernel_size=(11, 11), stride=(1, 1))#    (7): Flatten()#    (8): AbsBatchNorm1d(bias=True, abs_bias=False, momentum=0.99, eps=0.001)#    (9): GaussianNoise(std=0.1, trainable=False, adapt=False, momentum=0.95)#    (10): ReLU()#    (11): Linear(in_features=12168, out_features=5, bias=True)#    (12): AbsBatchNorm1d(bias=True, abs_bias=False, momentum=0.1, eps=1e-05)#    (13): Softplus(beta=1, threshold=20)#  )#)#!0.3222539331632203!all!!0.1!0.09844769097497487!naturalscene!!!0.5585849597703665!-3.656154806617518!512!-3.6010000078196764!absbnbncnn/absbnbncnn_67_lr0.0001_chans[18, 18]!0.6781438243715101!0.5533744300640535!0.4108077433945733!0.28074824432388185!0.703004699128222!!!!!!!!!!!!!!!!!!!!!!!!!!!!!0.2572310128692941!0.3850314878851602!0.18449465144823227!0.8425930142402649!0.1773742288351059
absbnbncnn!68!15-10-07!0.001!0.6238882541656494!70!AbsBNBNCNN!True![10, 8]!absbnbncnn/results.txt!0.001!!68.0!0.0001!False!0.6696931296338747!0.7361639759196503!AbsBNBNCNN(#  (sequential): Sequential(#    (0): Conv2d(40, 10, kernel_size=(15, 15), stride=(1, 1))#    (1): Flatten()#    (2): AbsBatchNorm1d(bias=True, abs_bias=False, momentum=0.99, eps=0.001)#    (3): GaussianNoise(std=0.1, trainable=False, adapt=False, momentum=0.95)#    (4): ReLU()#    (5): Reshape()#    (6): Conv2d(10, 8, kernel_size=(11, 11), stride=(1, 1))#    (7): Flatten()#    (8): AbsBatchNorm1d(bias=True, abs_bias=False, momentum=0.99, eps=0.001)#    (9): GaussianNoise(std=0.1, trainable=False, adapt=False, momentum=0.95)#    (10): ReLU()#    (11): Linear(in_features=5408, out_features=5, bias=True)#    (12): AbsBatchNorm1d(bias=True, abs_bias=False, momentum=0.1, eps=1e-05)#    (13): Softplus(beta=1, threshold=20)#  )#)#!0.3498114949136261!all!!0.1!0.13193681655180145!naturalscene!!!0.6402449319360913!-3.4132570502984576!512!-3.1826914277284235!absbnbncnn/absbnbncnn_68_lr0.001_chans[10, 8]!0.7564672296586903!0.5489980723208298!0.523674281344014!0.7294802137963006!0.7898458510495395!!!!!!!!!!!!!!!!!!!!!!!!!!!!!0.3065898783282105!0.3995243580992812!0.2342897182564285!0.934782326221466!0.13935314118862152
absbnbncnn!69!15-10-07!0.001!0.6171442270278931!70!AbsBNBNCNN!True![12, 8]!absbnbncnn/results.txt!0.001!!68.0!0.0001!False!0.6590679889246465!0.7277536288012288!AbsBNBNCNN(#  (sequential): Sequential(#    (0): Conv2d(40, 12, kernel_size=(15, 15), stride=(1, 1))#    (1): Flatten()#    (2): AbsBatchNorm1d(bias=True, abs_bias=False, momentum=0.99, eps=0.001)#    (3): GaussianNoise(std=0.1, trainable=False, adapt=False, momentum=0.95)#    (4): ReLU()#    (5): Reshape()#    (6): Conv2d(12, 8, kernel_size=(11, 11), stride=(1, 1))#    (7): Flatten()#    (8): AbsBatchNorm1d(bias=True, abs_bias=False, momentum=0.99, eps=0.001)#    (9): GaussianNoise(std=0.1, trainable=False, adapt=False, momentum=0.95)#    (10): ReLU()#    (11): Linear(in_features=5408, out_features=5, bias=True)#    (12): AbsBatchNorm1d(bias=True, abs_bias=False, momentum=0.1, eps=1e-05)#    (13): Softplus(beta=1, threshold=20)#  )#)#!0.3675476125287744!all!!0.1!0.13795621636248115!naturalscene!!!0.5833112614647104!-3.3813323476555484!512!-3.340402796811395!absbnbncnn/absbnbncnn_69_lr0.001_chans[12, 8]!0.7576094469190644!0.44424929547427217!0.53643018743456!0.7395426726444211!0.8175083421509142!!!!!!!!!!!!!!!!!!!!!!!!!!!!!0.3179224857933756!0.4167081398310734!0.2586633514160768!0.7631767988204956!0.16155853867530826
absbnbncnn!70!15-10-07!0.001!0.5829132199287415!70!AbsBNBNCNN!True![12, 10]!absbnbncnn/results.txt!0.001!!68.0!0.0001!False!0.6391261702184093!0.6964920854485689!AbsBNBNCNN(#  (sequential): Sequential(#    (0): Conv2d(40, 12, kernel_size=(15, 15), stride=(1, 1))#    (1): Flatten()#    (2): AbsBatchNorm1d(bias=True, abs_bias=False, momentum=0.99, eps=0.001)#    (3): GaussianNoise(std=0.1, trainable=False, adapt=False, momentum=0.95)#    (4): ReLU()#    (5): Reshape()#    (6): Conv2d(12, 10, kernel_size=(11, 11), stride=(1, 1))#    (7): Flatten()#    (8): AbsBatchNorm1d(bias=True, abs_bias=False, momentum=0.99, eps=0.001)#    (9): GaussianNoise(std=0.1, trainable=False, adapt=False, momentum=0.95)#    (10): ReLU()#    (11): Linear(in_features=6760, out_features=5, bias=True)#    (12): AbsBatchNorm1d(bias=True, abs_bias=False, momentum=0.1, eps=1e-05)#    (13): Softplus(beta=1, threshold=20)#  )#)#!0.3796849266506439!all!!0.1!0.12941788080090708!naturalscene!!!0.6200055632252721!-3.3217058989077493!512!-3.213057222172938!absbnbncnn/absbnbncnn_70_lr0.001_chans[12, 10]!0.7219409345285099!0.5338922765287558!0.5634268514244931!0.6622603087044899!0.7141104799057975!!!!!!!!!!!!!!!!!!!!!!!!!!!!!0.30275111985228265!0.4267558852533258!0.2983094561302125!0.8187352418899536!0.227595329284668
absbnbncnn!71!15-10-07!0.001!0.616470217704773!70!AbsBNBNCNN!True![10, 8]!absbnbncnn/results.txt!0.0005!!68.0!0.0001!False!0.6773094199565955!0.7266500563637431!AbsBNBNCNN(#  (sequential): Sequential(#    (0): Conv2d(40, 10, kernel_size=(15, 15), stride=(1, 1))#    (1): Flatten()#    (2): AbsBatchNorm1d(bias=True, abs_bias=False, momentum=0.99, eps=0.001)#    (3): GaussianNoise(std=0.1, trainable=False, adapt=False, momentum=0.95)#    (4): ReLU()#    (5): Reshape()#    (6): Conv2d(10, 8, kernel_size=(11, 11), stride=(1, 1))#    (7): Flatten()#    (8): AbsBatchNorm1d(bias=True, abs_bias=False, momentum=0.99, eps=0.001)#    (9): GaussianNoise(std=0.1, trainable=False, adapt=False, momentum=0.95)#    (10): ReLU()#    (11): Linear(in_features=5408, out_features=5, bias=True)#    (12): AbsBatchNorm1d(bias=True, abs_bias=False, momentum=0.1, eps=1e-05)#    (13): Softplus(beta=1, threshold=20)#  )#)#!0.3807144716494748!all!!0.1!0.13571274650420725!naturalscene!!!0.5782329311814596!-3.4330753026864467!512!-3.295411198891816!absbnbncnn/absbnbncnn_71_lr0.0005_chans[10, 8]!0.7398339918009157!0.5334026808783773!0.6138091192038665!0.7408988345345769!0.7586024733652412!!!!!!!!!!!!!!!!!!!!!!!!!!!!!0.35142038285655314!0.42924453522218503!0.2579085722147283!1.1478383541107178!0.7544079422950745
absbnbncnn!72!15-10-07!0.001!0.635663628578186!70!AbsBNBNCNN!True![12, 8]!absbnbncnn/results.txt!0.0005!!68.0!0.0001!False!0.6161411752438566!0.7134813467140271!AbsBNBNCNN(#  (sequential): Sequential(#    (0): Conv2d(40, 12, kernel_size=(15, 15), stride=(1, 1))#    (1): Flatten()#    (2): AbsBatchNorm1d(bias=True, abs_bias=False, momentum=0.99, eps=0.001)#    (3): GaussianNoise(std=0.1, trainable=False, adapt=False, momentum=0.95)#    (4): ReLU()#    (5): Reshape()#    (6): Conv2d(12, 8, kernel_size=(11, 11), stride=(1, 1))#    (7): Flatten()#    (8): AbsBatchNorm1d(bias=True, abs_bias=False, momentum=0.99, eps=0.001)#    (9): GaussianNoise(std=0.1, trainable=False, adapt=False, momentum=0.95)#    (10): ReLU()#    (11): Linear(in_features=5408, out_features=5, bias=True)#    (12): AbsBatchNorm1d(bias=True, abs_bias=False, momentum=0.1, eps=1e-05)#    (13): Softplus(beta=1, threshold=20)#  )#)#!0.32462794030484304!all!!0.1!0.1300767414222801!naturalscene!!!0.5993431338041575!-3.416285938267255!512!-3.538566963413905!absbnbncnn/absbnbncnn_72_lr0.0005_chans[12, 8]!0.7383058470401985!0.5477389594769307!0.46196042634740897!0.5747511982519571!0.7579494451027877!!!!!!!!!!!!!!!!!!!!!!!!!!!!!0.28479267079467235!0.3736766577387616!0.2084647753998866!0.5278617143630981!0.26002565026283264
absbnbncnn!73!15-10-07!0.001!0.5990094542503357!70!AbsBNBNCNN!True![12, 10]!absbnbncnn/results.txt!0.0005!!68.0!0.0001!False!0.6209034004065117!0.6718134842392415!AbsBNBNCNN(#  (sequential): Sequential(#    (0): Conv2d(40, 12, kernel_size=(15, 15), stride=(1, 1))#    (1): Flatten()#    (2): AbsBatchNorm1d(bias=True, abs_bias=False, momentum=0.99, eps=0.001)#    (3): GaussianNoise(std=0.1, trainable=False, adapt=False, momentum=0.95)#    (4): ReLU()#    (5): Reshape()#    (6): Conv2d(12, 10, kernel_size=(11, 11), stride=(1, 1))#    (7): Flatten()#    (8): AbsBatchNorm1d(bias=True, abs_bias=False, momentum=0.99, eps=0.001)#    (9): GaussianNoise(std=0.1, trainable=False, adapt=False, momentum=0.95)#    (10): ReLU()#    (11): Linear(in_features=6760, out_features=5, bias=True)#    (12): AbsBatchNorm1d(bias=True, abs_bias=False, momentum=0.1, eps=1e-05)#    (13): Softplus(beta=1, threshold=20)#  )#)#!0.3814363410594934!all!!0.1!0.1361870642956336!naturalscene!!!0.6443322070215689!-3.4623796269185223!512!-3.0900440530240303!absbnbncnn/absbnbncnn_73_lr0.0005_chans[12, 10]!0.7206041480837442!0.4611686983452727!0.4705056114849895!0.6654349798904281!0.7868035642281243!!!!!!!!!!!!!!!!!!!!!!!!!!!!!0.3275688491792523!0.4363866504197647!0.2584823511077559!0.7970448732376099!0.25226616859436035
absbnbncnn!74!15-10-07!0.001!0.5539083480834961!85!AbsBNBNCNN!True![10, 12]!absbnbncnn/results.txt!0.005!!74.0!0.0001!False!0.6955200209169076!0.6958067617529606!AbsBNBNCNN(#  (sequential): Sequential(#    (0): Conv2d(40, 10, kernel_size=(15, 15), stride=(1, 1))#    (1): Flatten()#    (2): AbsBatchNorm1d(bias=True, abs_bias=False, momentum=0.99, eps=0.001)#    (3): GaussianNoise(std=0.1, trainable=False, adapt=False, momentum=0.95)#    (4): ReLU()#    (5): Reshape()#    (6): Conv2d(10, 12, kernel_size=(11, 11), stride=(1, 1))#    (7): Flatten()#    (8): AbsBatchNorm1d(bias=True, abs_bias=False, momentum=0.99, eps=0.001)#    (9): GaussianNoise(std=0.1, trainable=False, adapt=False, momentum=0.95)#    (10): ReLU()#    (11): Linear(in_features=8112, out_features=5, bias=True)#    (12): AbsBatchNorm1d(bias=True, abs_bias=False, momentum=0.1, eps=1e-05)#    (13): Softplus(beta=1, threshold=20)#  )#)#!0.43554732599432094!all!!0.1!0.15547746919848068!naturalscene!!!0.6702740087594297!-3.0561698389269107!512!-2.9712998648952635!absbnbncnn/absbnbncnn_74_lr0.005_chans[10, 12]!0.7781787991063845!0.5886101497184573!0.6040373932104386!0.7533415075977559!0.7534322549515013!!!!!!!!!!!!!!!!!!!!!!!!!!!!!0.3603105171805404!0.4878989824847091!0.33700987448942976!1.5713669061660769!0.5418189167976379
absbnbncnn!75!15-10-07!0.001!0.5565077066421509!85!AbsBNBNCNN!True![10, 14]!absbnbncnn/results.txt!0.005!!74.0!0.0001!False!0.6969092791976992!0.6931418706232897!AbsBNBNCNN(#  (sequential): Sequential(#    (0): Conv2d(40, 10, kernel_size=(15, 15), stride=(1, 1))#    (1): Flatten()#    (2): AbsBatchNorm1d(bias=True, abs_bias=False, momentum=0.99, eps=0.001)#    (3): GaussianNoise(std=0.1, trainable=False, adapt=False, momentum=0.95)#    (4): ReLU()#    (5): Reshape()#    (6): Conv2d(10, 14, kernel_size=(11, 11), stride=(1, 1))#    (7): Flatten()#    (8): AbsBatchNorm1d(bias=True, abs_bias=False, momentum=0.99, eps=0.001)#    (9): GaussianNoise(std=0.1, trainable=False, adapt=False, momentum=0.95)#    (10): ReLU()#    (11): Linear(in_features=9464, out_features=5, bias=True)#    (12): AbsBatchNorm1d(bias=True, abs_bias=False, momentum=0.1, eps=1e-05)#    (13): Softplus(beta=1, threshold=20)#  )#)#!0.4321431368400818!all!!0.1!0.16376224780224274!naturalscene!!!0.6858993690993018!-3.0836512432918286!512!-3.1115954628767213!absbnbncnn/absbnbncnn_75_lr0.005_chans[10, 14]!0.7742374039114235!0.6128503734039895!0.5833508550777101!0.7474541652021558!0.7666535983932171!!!!!!!!!!!!!!!!!!!!!!!!!!!!!0.3674402732264992!0.4899859096065335!0.30893926801795746!0.7363802194595337!0.4065226912498474
absbnbncnn!76!15-10-07!0.001!0.5613074898719788!85!AbsBNBNCNN!True![12, 14]!absbnbncnn/results.txt!0.005!!74.0!0.0001!False!0.6890370107605361!0.6872710488077697!AbsBNBNCNN(#  (sequential): Sequential(#    (0): Conv2d(40, 12, kernel_size=(15, 15), stride=(1, 1))#    (1): Flatten()#    (2): AbsBatchNorm1d(bias=True, abs_bias=False, momentum=0.99, eps=0.001)#    (3): GaussianNoise(std=0.1, trainable=False, adapt=False, momentum=0.95)#    (4): ReLU()#    (5): Reshape()#    (6): Conv2d(12, 14, kernel_size=(11, 11), stride=(1, 1))#    (7): Flatten()#    (8): AbsBatchNorm1d(bias=True, abs_bias=False, momentum=0.99, eps=0.001)#    (9): GaussianNoise(std=0.1, trainable=False, adapt=False, momentum=0.95)#    (10): ReLU()#    (11): Linear(in_features=9464, out_features=5, bias=True)#    (12): AbsBatchNorm1d(bias=True, abs_bias=False, momentum=0.1, eps=1e-05)#    (13): Softplus(beta=1, threshold=20)#  )#)#!0.41635791737454414!all!!0.1!0.1617431051053522!naturalscene!!!0.6421614053905672!-3.0545570634608894!512!-3.1526917913928627!absbnbncnn/absbnbncnn_76_lr0.005_chans[12, 14]!0.7696680111763501!0.600820882510323!0.6155235689034492!0.7139795919140192!0.7451929992985395!!!!!!!!!!!!!!!!!!!!!!!!!!!!!0.3661586168421241!0.4746752965224663!0.28044968034488194!0.9156333804130554!0.041848812252283096
absbnbncnn!77!15-10-07!0.001!0.6131240129470825!85!AbsBNBNCNN!True![10, 12]!absbnbncnn/results.txt!0.001!!74.0!0.0001!False!0.6623330821521952!0.7375524511893236!AbsBNBNCNN(#  (sequential): Sequential(#    (0): Conv2d(40, 10, kernel_size=(15, 15), stride=(1, 1))#    (1): Flatten()#    (2): AbsBatchNorm1d(bias=True, abs_bias=False, momentum=0.99, eps=0.001)#    (3): GaussianNoise(std=0.1, trainable=False, adapt=False, momentum=0.95)#    (4): ReLU()#    (5): Reshape()#    (6): Conv2d(10, 12, kernel_size=(11, 11), stride=(1, 1))#    (7): Flatten()#    (8): AbsBatchNorm1d(bias=True, abs_bias=False, momentum=0.99, eps=0.001)#    (9): GaussianNoise(std=0.1, trainable=False, adapt=False, momentum=0.95)#    (10): ReLU()#    (11): Linear(in_features=8112, out_features=5, bias=True)#    (12): AbsBatchNorm1d(bias=True, abs_bias=False, momentum=0.1, eps=1e-05)#    (13): Softplus(beta=1, threshold=20)#  )#)#!0.3646110034073279!all!!0.1!0.11622607743960862!naturalscene!!!0.5905617833707211!-3.4195965203045!512!-3.308094227466063!absbnbncnn/absbnbncnn_77_lr0.001_chans[10, 12]!0.7535923803816555!0.4708593353633963!0.5429412369243941!0.7489796238136974!0.7952928342778326!!!!!!!!!!!!!!!!!!!!!!!!!!!!!0.3043348434642871!0.41620890015334416!0.2566987709027553!1.0777193307876587!0.27515673637390137
absbnbncnn!78!15-10-07!0.001!0.6296961903572083!85!AbsBNBNCNN!True![10, 14]!absbnbncnn/results.txt!0.001!!74.0!0.0001!False!0.660895935412821!0.72266432447017!AbsBNBNCNN(#  (sequential): Sequential(#    (0): Conv2d(40, 10, kernel_size=(15, 15), stride=(1, 1))#    (1): Flatten()#    (2): AbsBatchNorm1d(bias=True, abs_bias=False, momentum=0.99, eps=0.001)#    (3): GaussianNoise(std=0.1, trainable=False, adapt=False, momentum=0.95)#    (4): ReLU()#    (5): Reshape()#    (6): Conv2d(10, 14, kernel_size=(11, 11), stride=(1, 1))#    (7): Flatten()#    (8): AbsBatchNorm1d(bias=True, abs_bias=False, momentum=0.99, eps=0.001)#    (9): GaussianNoise(std=0.1, trainable=False, adapt=False, momentum=0.95)#    (10): ReLU()#    (11): Linear(in_features=9464, out_features=5, bias=True)#    (12): AbsBatchNorm1d(bias=True, abs_bias=False, momentum=0.1, eps=1e-05)#    (13): Softplus(beta=1, threshold=20)#  )#)#!0.3709409245075213!all!!0.1!0.17857789938808175!naturalscene!!!0.6079057224208573!-3.4308779487782477!512!-3.5192758844568743!absbnbncnn/absbnbncnn_78_lr0.001_chans[10, 14]!0.7570547628259149!0.5129023828795557!0.5485988746550012!0.7248260491152263!0.7610976075884068!!!!!!!!!!!!!!!!!!!!!!!!!!!!!0.3344575497452271!0.4108470875308453!0.2795983935860003!0.8488262891769409!0.3125995099544525
absbnbncnn!79!15-10-07!0.001!0.6125084161758423!85!AbsBNBNCNN!True![12, 14]!absbnbncnn/results.txt!0.001!!74.0!0.0001!False!0.6659596815812232!0.7205945740632137!AbsBNBNCNN(#  (sequential): Sequential(#    (0): Conv2d(40, 12, kernel_size=(15, 15), stride=(1, 1))#    (1): Flatten()#    (2): AbsBatchNorm1d(bias=True, abs_bias=False, momentum=0.99, eps=0.001)#    (3): GaussianNoise(std=0.1, trainable=False, adapt=False, momentum=0.95)#    (4): ReLU()#    (5): Reshape()#    (6): Conv2d(12, 14, kernel_size=(11, 11), stride=(1, 1))#    (7): Flatten()#    (8): AbsBatchNorm1d(bias=True, abs_bias=False, momentum=0.99, eps=0.001)#    (9): GaussianNoise(std=0.1, trainable=False, adapt=False, momentum=0.95)#    (10): ReLU()#    (11): Linear(in_features=9464, out_features=5, bias=True)#    (12): AbsBatchNorm1d(bias=True, abs_bias=False, momentum=0.1, eps=1e-05)#    (13): Softplus(beta=1, threshold=20)#  )#)#!0.37635215073052747!all!!0.1!0.11828194104883988!naturalscene!!!0.6314144081926991!-3.4403310161909912!512!-3.3074370309739605!absbnbncnn/absbnbncnn_79_lr0.001_chans[12, 14]!0.7621795230660637!0.529214294734855!0.5240741284714073!0.695006031301058!0.8193244303327321!!!!!!!!!!!!!!!!!!!!!!!!!!!!!0.3022937652773839!0.4173954642463405!0.3108231766466447!1.1838637590408323!0.2149754762649536
absbnbncnn!80!15-10-07!0.001!0.6220482587814331!85!AbsBNBNCNN!True![10, 12]!absbnbncnn/results.txt!0.0005!!74.0!0.0001!False!0.6844212184185843!0.7356072142645731!AbsBNBNCNN(#  (sequential): Sequential(#    (0): Conv2d(40, 10, kernel_size=(15, 15), stride=(1, 1))#    (1): Flatten()#    (2): AbsBatchNorm1d(bias=True, abs_bias=False, momentum=0.99, eps=0.001)#    (3): GaussianNoise(std=0.1, trainable=False, adapt=False, momentum=0.95)#    (4): ReLU()#    (5): Reshape()#    (6): Conv2d(10, 12, kernel_size=(11, 11), stride=(1, 1))#    (7): Flatten()#    (8): AbsBatchNorm1d(bias=True, abs_bias=False, momentum=0.99, eps=0.001)#    (9): GaussianNois…
(4): ReLU()#    (5): Reshape()#    (6): Conv2d(8, 8, kernel_size=(11, 11), stride=(1, 1))#    (7): Flatten()#    (8): BatchNorm1d(5408, eps=0.001, momentum=0.99, affine=True, track_running_stats=True)#    (9): GaussianNoise(std=0.05, trainable=False, adapt=False, momentum=0.95)#    (10): ReLU()#    (11): Linear(in_features=5408, out_features=5, bias=True)#    (12): BatchNorm1d(5, eps=1e-05, momentum=0.1, affine=True, track_running_stats=True)#    (13): Softplus(beta=1, threshold=20)#  )#)#!0.33950015841296194!all!!0.05!0.0990840428998474!naturalscene!!!0.5892793347330554!-3.9590707562448033!512!-3.7276022565340097!bncnn/bncnn_4_lr0.001_l20.0001!0.6229829496444746!0.40675416802015424!0.15150651652436187!0.6834801929065283!0.6216433330376331!!!!!!!!!!!!!!!!!!!!!!!!!!!!!0.29803002261416145!0.3988831823193372!0.1936056367595701!0.6193294525146484!0.20356354117393494
bncnn!4!!0.01!0.2880056232213974!100!BNCNN!False!!bncnn/results.txt!0.01!5.0!!1e-06!!0.7081692783417758!0.673089647736963!BNCNN(#  (sequential): Sequential(#    (0): Conv2d(40, 8, kernel_size=(15, 15), stride=(1, 1), bias=False)#    (1): Flatten()#    (2): BatchNorm1d(10368, eps=0.001, momentum=0.99, affine=True, track_running_stats=True)#    (3): GaussianNoise(std=0.05)#    (4): ReLU()#    (5): Reshape()#    (6): Conv2d(8, 8, kernel_size=(11, 11), stride=(1, 1), bias=False)#    (7): Flatten()#    (8): BatchNorm1d(5408, eps=0.001, momentum=0.99, affine=True, track_running_stats=True)#    (9): GaussianNoise(std=0.05)#    (10): ReLU()#    (11): Linear(in_features=5408, out_features=5, bias=False)#    (12): BatchNorm1d(5, eps=1e-05, momentum=0.1, affine=True, track_running_stats=True)#    (13): Softplus(beta=1, threshold=20)#  )#)#!0.34261675013166915!!!0.05!0.10101587783521193!!!!0.5732710410800508!-3.070826592668329!512!-3.3504150211811066!bncnn/bncnn_4_lr0.01_l11e-06_l20.01!0.7513202322734565!0.606701844769976!0.6027003691812307!0.8025615506133579!0.7775623948708577!!!!!!!!!!!!!!!!!!!!!!!!!!!!!0.30316010062650217!0.3841741123653541!0.2486331686012996!1.3566304445266724!0.3987464904785156
bncnn!5!!0.005!0.2569849669933319!100!BNCNN!False!!bncnn/results.txt!0.01!5.0!!1e-06!!0.6264089165433906!0.6170729361148372!BNCNN(#  (sequential): Sequential(#    (0): Conv2d(40, 8, kernel_size=(15, 15), stride=(1, 1), bias=False)#    (1): Flatten()#    (2): BatchNorm1d(10368, eps=0.001, momentum=0.99, affine=True, track_running_stats=True)#    (3): GaussianNoise(std=0.05)#    (4): ReLU()#    (5): Reshape()#    (6): Conv2d(8, 8, kernel_size=(11, 11), stride=(1, 1), bias=False)#    (7): Flatten()#    (8): BatchNorm1d(5408, eps=0.001, momentum=0.99, affine=True, track_running_stats=True)#    (9): GaussianNoise(std=0.05)#    (10): ReLU()#    (11): Linear(in_features=5408, out_features=5, bias=False)#    (12): BatchNorm1d(5, eps=1e-05, momentum=0.1, affine=True, track_running_stats=True)#    (13): Softplus(beta=1, threshold=20)#  )#)#!0.3892652805900969!!!0.05!0.11580592727208047!!!!0.5905018165139432!-2.776932362877226!512!-2.702433913946152!bncnn/bncnn_5_lr0.01_l11e-06_l20.005!0.694701080848787!0.5316573560277724!0.5103515332826476!0.7706479314145115!0.6246866811432343!!!!!!!!!!!!!!!!!!!!!!!!!!!!!0.37200447865619707!0.43171307522955416!0.275346964842536!1.078557014465332!0.18451282382011414
bncnn!5!15-10-07!0.001!0.661774754524231!70!BNCNN!True![8, 8]!bncnn/results.txt!0.0005!!1.0!0.0001!False!0.545087972282705!0.6893112328725725!BNCNN(#  (sequential): Sequential(#    (0): Conv2d(40, 8, kernel_size=(15, 15), stride=(1, 1))#    (1): Flatten()#    (2): BatchNorm1d(10368, eps=0.001, momentum=0.99, affine=True, track_running_stats=True)#    (3): GaussianNoise(std=0.05, trainable=False, adapt=False, momentum=0.95)#    (4): ReLU()#    (5): Reshape()#    (6): Conv2d(8, 8, kernel_size=(11, 11), stride=(1, 1))#    (7): Flatten()#    (8): BatchNorm1d(5408, eps=0.001, momentum=0.99, affine=True, track_running_stats=True)#    (9): GaussianNoise(std=0.05, trainable=False, adapt=False, momentum=0.95)#    (10): ReLU()#    (11): Linear(in_features=5408, out_features=5, bias=True)#    (12): BatchNorm1d(5, eps=1e-05, momentum=0.1, affine=True, track_running_stats=True)#    (13): Softplus(beta=1, threshold=20)#  )#)#!0.33858247936086266!all!!0.05!0.10829852772400593!naturalscene!!!0.5746303580082076!-3.662562555677032!512!-3.8323723460278414!bncnn/bncnn_5_lr0.0005_l20.001!0.6236378527820388!0.33878868281788216!0.5357624024380669!0.5605185385242282!0.6667323848513091!!!!!!!!!!!!!!!!!!!!!!!!!!!!!0.2865608025609636!0.40083576998406895!0.19228391166894346!1.0814840793609621!0.2925655543804169
bncnn!5!!0.005!0.3120621919631958!100!BNCNN!False!!bncnn/results.txt!0.001!5.0!4.0!0.001!!0.606115825620315!0.6913329343710454!BNCNN(#  (sequential): Sequential(#    (0): Conv2d(40, 8, kernel_size=(15, 15), stride=(1, 1), bias=False)#    (1): Flatten()#    (2): BatchNorm1d(10368, eps=0.001, momentum=0.99, affine=True, track_running_stats=True)#    (3): GaussianNoise(std=0.05)#    (4): ReLU()#    (5): Reshape()#    (6): Conv2d(8, 8, kernel_size=(11, 11), stride=(1, 1), bias=False)#    (7): Flatten()#    (8): BatchNorm1d(5408, eps=0.001, momentum=0.99, affine=True, track_running_stats=True)#    (9): GaussianNoise(std=0.05)#    (10): ReLU()#    (11): Linear(in_features=5408, out_features=5, bias=False)#    (12): BatchNorm1d(5, eps=1e-05, momentum=0.1, affine=True, track_running_stats=True)#    (13): Softplus(beta=1, threshold=20)#  )#)#!0.3149741442316396!!!0.05!0.08654817313095557!!!!0.5851835942429938!-2.6421851229883417!512!-3.2650347352027893!bncnn/bncnn_5_lr0.001_l10.001_l20.005!0.7183240121043154!0.4246829276331585!0.4735514399647678!0.7211614186535245!0.6928593297458082!!!!!!!!!!!!!!!!!!!!!!!!!!!!!0.27382189106496085!0.3710247825580661!0.17882953727088838!1.1865742206573486!0.27303367853164673
bncnn!6!15-10-07!0.0001!0.6953994631767273!70!BNCNN!True![8, 8]!bncnn/results.txt!0.0005!!1.0!0.0001!False!0.447288093090095!0.6443476976410407!BNCNN(#  (sequential): Sequential(#    (0): Conv2d(40, 8, kernel_size=(15, 15), stride=(1, 1))#    (1): Flatten()#    (2): BatchNorm1d(10368, eps=0.001, momentum=0.99, affine=True, track_running_stats=True)#    (3): GaussianNoise(std=0.05, trainable=False, adapt=False, momentum=0.95)#    (4): ReLU()#    (5): Reshape()#    (6): Conv2d(8, 8, kernel_size=(11, 11), stride=(1, 1))#    (7): Flatten()#    (8): BatchNorm1d(5408, eps=0.001, momentum=0.99, affine=True, track_running_stats=True)#    (9): GaussianNoise(std=0.05, trainable=False, adapt=False, momentum=0.95)#    (10): ReLU()#    (11): Linear(in_features=5408, out_features=5, bias=True)#    (12): BatchNorm1d(5, eps=1e-05, momentum=0.1, affine=True, track_running_stats=True)#    (13): Softplus(beta=1, threshold=20)#  )#)#!!all!!0.05!!naturalscene!!!!-3.946459060340985!512!-3.6223994918342215!bncnn/bncnn_6_lr0.0005_l20.0001!0.483437136013868!0.31650500553902433!0.3480693355505408!0.4793778351074016!0.6090511532396404!!!!!!!!!!!!!!!!!!!!!!!!!!!!!!!!!
bncnn!6!!0.05!0.28103094696998604!100!BNCNN!False!!bncnn/results.txt!0.001!5.0!4.0!0.0005!!0.6838038163987434!0.6560782626357875!BNCNN(#  (sequential): Sequential(#    (0): Conv2d(40, 8, kernel_size=(15, 15), stride=(1, 1), bias=False)#    (1): Flatten()#    (2): BatchNorm1d(10368, eps=0.001, momentum=0.99, affine=True, track_running_stats=True)#    (3): GaussianNoise(std=0.05)#    (4): ReLU()#    (5): Reshape()#    (6): Conv2d(8, 8, kernel_size=(11, 11), stride=(1, 1), bias=False)#    (7): Flatten()#    (8): BatchNorm1d(5408, eps=0.001, momentum=0.99, affine=True, track_running_stats=True)#    (9): GaussianNoise(std=0.05)#    (10): ReLU()#    (11): Linear(in_features=5408, out_features=5, bias=False)#    (12): BatchNorm1d(5, eps=1e-05, momentum=0.1, affine=True, track_running_stats=True)#    (13): Softplus(beta=1, threshold=20)#  )#)#!0.3239424578161803!!!0.05!0.09605746519035947!!!!0.5511382911553668!-2.309814518483336!512!-2.9435167610645294!bncnn/bncnn_6_lr0.001_l10.0005_l20.05!0.7755346055582066!0.5824006814232053!0.6094605761001176!0.7596413226080508!0.6919818963041369!!!!!!!!!!!!!!!!!!!!!!!!!!!!!0.29470075791816025!0.3647039337458789!0.2244015743922116!0.9357126951217652!0.2396528720855713
bncnn!7!!0.005!0.3097404271364212!100!BNCNN!False!!bncnn/results.txt!0.001!5.0!4.0!0.0005!!0.6057952574964018!0.6973198078276559!BNCNN(#  (sequential): Sequential(#    (0): Conv2d(40, 8, kernel_size=(15, 15), stride=(1, 1), bias=False)#    (1): Flatten()#    (2): BatchNorm1d(10368, eps=0.001, momentum=0.99, affine=True, track_running_stats=True)#    (3): GaussianNoise(std=0.05)#    (4): ReLU()#    (5): Reshape()#    (6): Conv2d(8, 8, kernel_size=(11, 11), stride=(1, 1), bias=False)#    (7): Flatten()#    (8): BatchNorm1d(5408, eps=0.001, momentum=0.99, affine=True, track_running_stats=True)#    (9): GaussianNoise(std=0.05)#    (10): ReLU()#    (11): Linear(in_features=5408, out_features=5, bias=False)#    (12): BatchNorm1d(5, eps=1e-05, momentum=0.1, affine=True, track_running_stats=True)#    (13): Softplus(beta=1, threshold=20)#  )#)#!0.3083804043517655!!!0.05!0.1025898418928173!!!!0.5423800583387146!-2.958131029954683!512!-3.2007100582122803!bncnn/bncnn_7_lr0.001_l10.0005_l20.005!0.6996681143290658!0.4506325557394687!0.4798498188586715!0.6132389146266589!0.7855868839281438!!!!!!!!!!!!!!!!!!!!!!!!!!!!!0.262812578188433!0.3613625022146273!0.18487575333466089!1.0446773767471311!0.26914653182029724
bncnn!8!!0.05!0.2893591344356537!100!BNCNN!False!!bncnn/results.txt!0.0001!5.0!8.0!0.001!!0.6751874214095338!0.6834643989672569!BNCNN(#  (sequential): Sequential(#    (0): Conv2d(40, 8, kernel_size=(15, 15), stride=(1, 1), bias=False)#    (1): Flatten()#    (2): BatchNorm1d(10368, eps=0.001, momentum=0.99, affine=True, track_running_stats=True)#    (3): GaussianNoise(std=0.05)#    (4): ReLU()#    (5): Reshape()#    (6): Conv2d(8, 8, kernel_size=(11, 11), stride=(1, 1), bias=False)#    (7): Flatten()#    (8): BatchNorm1d(5408, eps=0.001, momentum=0.99, affine=True, track_running_stats=True)#    (9): GaussianNoise(std=0.05)#    (10): ReLU()#    (11): Linear(in_features=5408, out_features=5, bias=False)#    (12): BatchNorm1d(5, eps=1e-05, momentum=0.1, affine=True, track_running_stats=True)#    (13): Softplus(beta=1, threshold=20)#  )#)#!0.3171097832422538!!!0.05!0.093527431108374!!!!0.5445203276569459!-2.0004288054339665!512!-2.9295909702777863!bncnn/bncnn_8_lr0.0001_l10.001_l20.05!0.7244432500828192!0.5769463462089695!0.5403900154711748!0.7585662457522246!0.7755912495324809!!!!!!!!!!!!!!!!!!!!!!!!!!!!!0.2778268175768422!0.3710194560888069!0.1859341824423596!1.2699209451675415!0.2785082459449768
bncnn!9!!0.005!0.32908480167388915!100!BNCNN!False!!bncnn/results.txt!0.0001!5.0!8.0!0.001!!0.5114798920506921!0.6712703929006764!BNCNN(#  (sequential): Sequential(#    (0): Conv2d(40, 8, kernel_size=(15, 15), stride=(1, 1), bias=False)#    (1): Flatten()#    (2): BatchNorm1d(10368, eps=0.001, momentum=0.99, affine=True, track_running_stats=True)#    (3): GaussianNoise(std=0.05)#    (4): ReLU()#    (5): Reshape()#    (6): Conv2d(8, 8, kernel_size=(11, 11), stride=(1, 1), bias=False)#    (7): Flatten()#    (8): BatchNorm1d(5408, eps=0.001, momentum=0.99, affine=True, track_running_stats=True)#    (9): GaussianNoise(std=0.05)#    (10): ReLU()#    (11): Linear(in_features=5408, out_features=5, bias=False)#    (12): BatchNorm1d(5, eps=1e-05, momentum=0.1, affine=True, track_running_stats=True)#    (13): Softplus(beta=1, threshold=20)#  )#)#!0.30124684556384984!!!0.05!0.08338687594852857!!!!0.5669792190654105!-2.6795138825478406!512!-3.368282526731491!bncnn/bncnn_9_lr0.0001_l10.001_l20.005!0.6399534806354576!0.2914182803985748!0.3268294601510057!0.6438263733649702!0.6553718657034521!!!!!!!!!!!!!!!!!!!!!!!!!!!!!0.2649166259454247!0.3556409145689457!0.16632147602955938!1.2519068717956543!0.5703948736190796
bncnn!10!!0.05!0.2926563441753388!100!BNCNN!False!!bncnn/results.txt!0.0001!5.0!8.0!0.0005!!0.668126283286422!0.6794997165145769!BNCNN(#  (sequential): Sequential(#    (0): Conv2d(40, 8, kernel_size=(15, 15), stride=(1, 1), bias=False)#    (1): Flatten()#    (2): BatchNorm1d(10368, eps=0.001, momentum=0.99, affine=True, track_running_stats=True)#    (3): GaussianNoise(std=0.05)#    (4): ReLU()#    (5): Reshape()#    (6): Conv2d(8, 8, kernel_size=(11, 11), stride=(1, 1), bias=False)#    (7): Flatten()#    (8): BatchNorm1d(5408, eps=0.001, momentum=0.99, affine=True, track_running_stats=True)#    (9): GaussianNoise(std=0.05)#    (10): ReLU()#    (11): Linear(in_features=5408, out_features=5, bias=False)#    (12): BatchNorm1d(5, eps=1e-05, momentum=0.1, affine=True, track_running_stats=True)#    (13): Softplus(beta=1, threshold=20)#  )#)#!0.31184179989453176!!!0.05!0.0716856549470807!!!!0.5651015470285972!-2.449850166185589!512!-3.092540889978409!bncnn/bncnn_10_lr0.0001_l10.0005_l20.05!0.7106712239274696!0.5761101278644963!0.5492741456431973!0.7267365237641236!0.7778393952328232!!!!!!!!!!!!!!!!!!!!!!!!!!!!!0.26136835899975697!0.3693166040051695!0.1786745082585546!1.6376270055770874!0.38462576270103455
bncnn!11!!0.005!0.32011770009994506!100!BNCNN!False!!bncnn/results.txt!0.0001!5.0!8.0!0.0005!!0.5322616728138819!0.666556525081458!BNCNN(#  (sequential): Sequential(#    (0): Conv2d(40, 8, kernel_size=(15, 15), stride=(1, 1), bias=False)#    (1): Flatten()#    (2): BatchNorm1d(10368, eps=0.001, momentum=0.99, affine=True, track_running_stats=True)#    (3): GaussianNoise(std=0.05)#    (4): ReLU()#    (5): Reshape()#    (6): Conv2d(8, 8, kernel_size=(11, 11), stride=(1, 1), bias=False)#    (7): Flatten()#    (8): BatchNorm1d(5408, eps=0.001, momentum=0.99, affine=True, track_running_stats=True)#    (9): GaussianNoise(std=0.05)#    (10): ReLU()#    (11): Linear(in_features=5408, out_features=5, bias=False)#    (12): BatchNorm1d(5, eps=1e-05, momentum=0.1, affine=True, track_running_stats=True)#    (13): Softplus(beta=1, threshold=20)#  )#)#!0.3074646645810048!!!0.05!0.08009921774348529!!!!0.5772527251202679!-2.977392490992538!512!-3.3360692262649536!bncnn/bncnn_11_lr0.0001_l10.0005_l20.005!0.6379648904024083!0.5044549823096145!0.22177031570746653!0.6734115547157346!0.6237066209341856!!!!!!!!!!!!!!!!!!!!!!!!!!!!!0.25339117770291303!0.3653365056905197!0.17590629771319824!1.1586920022964478!0.3894613981246948
bncnn!12!!0.05!0.2699589729309082!200!BNCNN!False!!bncnn/results.txt!0.005!5.0!12.0!0.005!!0.657560988835032!0.6488477685974832!BNCNN(#  (sequential): Sequential(#    (0): Conv2d(40, 8, kernel_size=(15, 15), stride=(1, 1), bias=False)#    (1): Flatten()#    (2): BatchNorm1d(10368, eps=0.001, momentum=0.99, affine=True, track_running_stats=True)#    (3): GaussianNoise(std=0.05, trainable=False)#    (4): ReLU()#    (5): Reshape()#    (6): Conv2d(8, 8, kernel_size=(11, 11), stride=(1, 1), bias=False)#    (7): Flatten()#    (8): BatchNorm1d(5408, eps=0.001, momentum=0.99, affine=True, track_running_stats=True)#    (9): GaussianNoise(std=0.05, trainable=False)#    (10): ReLU()#    (11): Linear(in_features=5408, out_features=5, bias=False)#    (12): BatchNorm1d(5, eps=1e-05, momentum=0.1, affine=True, track_running_stats=True)#    (13): Softplus(beta=1, threshold=20)#  )#)#!0.3169603130737468!!!0.05!0.09303298973432284!!!!0.5927012998016478!-2.768273057007208!4112!-2.6782466769218445!bncnn/bncnn_12_lr0.005_l10.005_l20.05!0.7188661436735558!0.596985692936615!0.4673767372905828!0.7533759200251251!0.7512004502492816!!!!!!!!!!!!!!!!!!!!!!!!!!!!!0.2883749609542202!0.3659224445110581!0.19230697041033376!1.0417568683624268!0.176662415266037
bncnn!13!!0.01!0.3026782929897308!200!BNCNN!False!!bncnn/results.txt!0.005!5.0!12.0!0.005!!0.6557910896240584!0.6742859298958225!BNCNN(#  (sequential): Sequential(#    (0): Conv2d(40, 8, kernel_size=(15, 15), stride=(1, 1), bias=False)#    (1): Flatten()#    (2): BatchNorm1d(10368, eps=0.001, momentum=0.99, affine=True, track_running_stats=True)#    (3): GaussianNoise(std=0.05, trainable=False)#    (4): ReLU()#    (5): Reshape()#    (6): Conv2d(8, 8, kernel_size=(11, 11), stride=(1, 1), bias=False)#    (7): Flatten()#    (8): BatchNorm1d(5408, eps=0.001, momentum=0.99, affine=True, track_running_stats=True)#    (9): GaussianNoise(std=0.05, trainable=False)#    (10): ReLU()#    (11): Linear(in_features=5408, out_features=5, bias=False)#    (12): BatchNorm1d(5, eps=1e-05, momentum=0.1, affine=True, track_running_stats=True)#    (13): Softplus(beta=1, threshold=20)#  )#)#!0.3060945452706532!!!0.05!0.08793679852431538!!!!0.5599626266654948!-3.3871056161275725!4112!-3.2857366502285004!bncnn/bncnn_13_lr0.005_l10.005_l20.01!0.7439680457884024!0.4794831638681616!0.5711113547505818!0.724961974755621!0.7594309089575251!!!!!!!!!!!!!!!!!!!!!!!!!!!!!0.26134300661158266!0.3599407611824563!0.1793626498256321!0.922532856464386!0.1939060539007187
bncnn!14!!0.05!0.2803587347269058!200!BNCNN!False!!bncnn/results.txt!0.005!5.0!14.0!0.001!!0.6712563368189721!0.6529096656884538!BNCNN(#  (sequential): Sequential(#    (0): Conv2d(40, 8, kernel_size=(15, 15), stride=(1, 1), bias=False)#    (1): Flatten()#    (2): BatchNorm1d(10368, eps=0.001, momentum=0.99, affine=True, track_running_stats=True)#    (3): GaussianNoise(std=0.05, trainable=False)#    (4): ReLU()#    (5): Reshape()#    (6): Conv2d(8, 8, kernel_size=(11, 11), stride=(1, 1), bias=False)#    (7): Flatten()#    (8): BatchNorm1d(5408, eps=0.001, momentum=0.99, affine=True, track_running_stats=True)#    (9): GaussianNoise(std=0.05, trainable=False)#    (10): ReLU()#    (11): Linear(in_features=5408, out_features=5, bias=False)#    (12): BatchNorm1d(5, eps=1e-05, momentum=0.1, affine=True, track_running_stats=True)#    (13): Softplus(beta=1, threshold=20)#  )#)#!0.3255353519098235!!!0.05!0.11509494559408702!!!!0.5491593993344476!-2.9588926245526572!4112!-2.807759553194046!bncnn/bncnn_14_lr0.005_l10.001_l20.05!0.7473204482022667!0.5699899395237978!0.5740737990852648!0.7629709822534299!0.7019265150301016!!!!!!!!!!!!!!!!!!!!!!!!!!!!!0.27924621658120874!0.3764428963587879!0.20881537937407504!0.9149397015571594!0.2910453081130981
bncnn!15!!0.01!0.29968140125274656!200!BNCNN!False!!bncnn/results.txt!0.005!5.0!14.0!0.001!!0.6701518293026487!0.6596532938233544!BNCNN(#  (sequential): Sequential(#    (0): Conv2d(40, 8, kernel_size=(15, 15), stride=(1, 1), bias=False)#    (1): Flatten()#    (2): BatchNorm1d(10368, eps=0.001, momentum=0.99, affine=True, track_running_stats=True)#    (3): GaussianNoise(std=0.05, trainable=False)#    (4): ReLU()#    (5): Reshape()#    (6): Conv2d(8, 8, kernel_size=(11, 11), stride=(1, 1), bias=False)#    (7): Flatten()#    (8): BatchNorm1d(5408, eps=0.001, momentum=0.99, affine=True, track_running_stats=True)#    (9): GaussianNoise(std=0.05, trainable=False)#    (10): ReLU()#    (11): Linear(in_features=5408, out_features=5, bias=False)#    (12): BatchNorm1d(5, eps=1e-05, momentum=0.1, affine=True, track_running_stats=True)#    (13): Softplus(beta=1, threshold=20)#  )#)#!0.33592207924361744!!!0.05!0.1224791289410366!!!!0.5845826655094362!-3.446201449487268!4112!-3.30012121796608!bncnn/bncnn_15_lr0.005_l10.001_l20.01!0.7535968579034645!0.5843688904460316!0.4757622692515722!0.7870157536361854!0.7500153752759896!!!!!!!!!!!!!!!!!!!!!!!!!!!!!0.2796619001068345!0.3884462459251909!0.22210749630528387!1.388007402420044!0.7204341888427734
biasormomentum!0!15-10-07!0.001!0.6117659211158752!50!BNCNN!True![8, 8]!biasormomentum/results.txt!0.001!!0.0!0.0001!False!0.6762841349243989!0.7353097618831346!BNCNN(#  (sequential): Sequential(#    (0): Conv2d(40, 8, kernel_size=(15, 15), stride=(1, 1))#    (1): Flatten()#    (2): BatchNorm1d(10368, eps=0.001, momentum=0.01, affine=True, track_running_stats=True)#    (3): GaussianNoise(std=0.1, trainable=False, adapt=False, momentum=0.95)#    (4): ReLU()#    (5): Reshape()#    (6): Conv2d(8, 8, kernel_size=(11, 11), stride=(1, 1))#    (7): Flatten()#    (8): BatchNorm1d(5408, eps=0.001, momentum=0.01, affine=True, track_running_stats=True)#    (9): GaussianNoise(std=0.1, trainable=False, adapt=False, momentum=0.95)#    (10): ReLU()#    (11): Linear(in_features=5408, out_features=5, bias=True)#    (12): BatchNorm1d(5, eps=1e-05, momentum=0.1, affine=True, track_running_stats=True)#    (13): Softplus(beta=1, threshold=20)#  )#)#!0.34727189997720825!all!!0.1!0.10118017085911264!naturalscene!!!0.6141136356028795!-3.3111186176763217!512!-3.1907128124585142!biasormomentum/biasormomentum_0_bnorm_momentum0.01_linear_biasTrue!0.7496999214649681!0.5981095165387904!0.5983372158810749!0.7194077078099465!0.7158663129272143!!!!!!!!!!!!!!!!!!!!!!0.01!True!!!!!!0.2932622170698529!0.40497530884578176!0.2161692045216531!1.3556971549987793!0.2847276628017425
biasormomentum!1!15-10-07!0.001!0.6130890846252441!50!BNCNN!True![8, 8]!biasormomentum/results.txt!0.001!!0.0!0.0001!False!0.6964762193272105!0.727991923638574!BNCNN(#  (sequential): Sequential(#    (0): Conv2d(40, 8, kernel_size=(15, 15), stride=(1, 1))#    (1): Flatten()#    (2): BatchNorm1d(10368, eps=0.001, momentum=0.01, affine=True, track_running_stats=True)#    (3): GaussianNoise(std=0.1, trainable=False, adapt=False, momentum=0.95)#    (4): ReLU()#    (5): Reshape()#    (6): Conv2d(8, 8, kernel_size=(11, 11), stride=(1, 1))#    (7): Flatten()#    (8): BatchNorm1d(5408, eps=0.001, momentum=0.01, affine=True, track_running_stats=True)#    (9): GaussianNoise(std=0.1, trainable=False, adapt=False, momentum=0.95)#    (10): ReLU()#    (11): Linear(in_features=5408, out_features=5, bias=False)#    (12): BatchNorm1d(5, eps=1e-05, momentum=0.1, affine=True, track_running_stats=True)#    (13): Softplus(beta=1, threshold=20)#  )#)#!0.3359552564279097!all!!0.1!0.1099540473230384!naturalscene!!!0.5887164878134962!-3.304594254961201!512!-3.358531127393872!biasormomentum/biasormomentum_1_bnorm_momentum0.01_linear_biasFalse!0.7489224252663237!0.5993692444211631!0.5951228137552625!0.7484952367977942!0.7904713763955089!!!!!!!!!!!!!!!!!!!!!!0.01!False!!!!!!0.2840363357307561!0.3964423026164254!0.1948755006268156!0.9315128326416016!0.3626917600631714
biasormomentum!2!15-10-07!0.001!0.6225267648696899!50!BNCNN!True![8, 8]!biasormomentum/results.txt!0.001!!0.0!0.0001!False!0.6673283458213922!0.7309675322783532!BNCNN(#  (sequential): Sequential(#    (0): Conv2d(40, 8, kernel_size=(15, 15), stride=(1, 1))#    (1): Flatten()#    (2): BatchNorm1d(10368, eps=0.001, momentum=0.99, affine=True, track_running_stats=True)#    (3): GaussianNoise(std=0.1, trainable=False, adapt=False, momentum=0.95)#    (4): ReLU()#    (5): Reshape()#    (6): Conv2d(8, 8, kernel_size=(11, 11), stride=(1, 1))#    (7): Flatten()#    (8): BatchNorm1d(5408, eps=0.001, momentum=0.99, affine=True, track_running_stats=True)#    (9): GaussianNoise(std=0.1, trainable=False, adapt=False, momentum=0.95)#    (10): ReLU()#    (11): Linear(in_features=5408, out_features=5, bias=True)#    (12): BatchNorm1d(5, eps=1e-05, momentum=0.1, affine=True, track_running_stats=True)#    (13): Softplus(beta=1, threshold=20)#  )#)#!0.3579660963204697!all!!0.1!0.1376517660201137!naturalscene!!!0.5991882855962598!-3.29372832965707!512!-3.38863466186267!biasormomentum/biasormomentum_2_bnorm_momentum0.99_linear_biasTrue!0.7321025477461489!0.6042529511766545!0.5355344563687523!0.6792594095927275!0.7854923642226783!!!!!!!!!!!!!!!!!!!!!!0.99!True!!!!!!0.30737547551252964!0.4070411911780693!0.2500890723760688!0.9424738883972168!0.2762206196784973
biasormomentum!3!15-10-07!0.001!0.6061695218086243!50!BNCNN!True![8, 8]!biasormomentum/results.txt!0.001!!0.0!0.0001!False!0.6328881219310436!0.7128507912299159!BNCNN(#  (sequential): Sequential(#    (0): Conv2d(40, 8, kernel_size=(15, 15), stride=(1, 1))#    (1): Flatten()#    (2): BatchNorm1d(10368, eps=0.001, momentum=0.99, affine=True, track_running_stats=True)#    (3): GaussianNoise(std=0.1, trainable=False, adapt=False, momentum=0.95)#    (4): ReLU()#    (5): Reshape()#    (6): Conv2d(8, 8, kernel_size=(11, 11), stride=(1, 1))#    (7): Flatten()#    (8): BatchNorm1d(5408, eps=0.001, momentum=0.99, affine=True, track_running_stats=True)#    (9): GaussianNoise(std=0.1, trainable=False, adapt=False, momentum=0.95)#    (10): ReLU()#    (11): Linear(in_features=5408, out_features=5, bias=False)#    (12): BatchNorm1d(5, eps=1e-05, momentum=0.1, affine=True, track_running_stats=True)#    (13): Softplus(beta=1, threshold=20)#  )#)#!0.3363645457470643!all!!0.1!0.09768822911089282!naturalscene!!!0.5995377007064899!-3.304830090672362!512!-3.188229291920288!biasormomentum/biasormomentum_3_bnorm_momentum0.99_linear_biasFalse!0.7313958020395126!0.5429228069613267!0.4615595975387744!0.6483529183394916!0.7802094847761132!!!!!!!!!!!!!!!!!!!!!!0.99!False!!!!!!0.2986907722070397!0.3697132268756916!0.2656203262256463!0.9161812663078308!0.20845824480056765
decoupledlinear!0!15-10-07!0.001!0.19291952252388!50!LinearDecoupBNCNN!True![8, 8]!decoupledlinear/results.txt!0.005!!0.0!0.0001!False!0.2450137137751741!!LinearDecoupBNCNN(#  (sequential): Sequential(#    (0): Conv2d(40, 8, kernel_size=(15, 15), stride=(1, 1))#    (1): Flatten()#    (2): BatchNorm1d(10368, eps=0.001, momentum=0.01, affine=True, track_running_stats=True)#    (3): GaussianNoise(std=0.1, trainable=False, adapt=False, momentum=0.95)#    (4): ReLU()#    (5): Reshape()#    (6): Conv2d(8, 8, kernel_size=(11, 11), stride=(1, 1))#    (7): Flatten()#    (8): BatchNorm1d(5408, eps=0.001, momentum=0.01, affine=True, track_running_stats=True)#    (9): GaussianNoise(std=0.1, trainable=False, adapt=False, momentum=0.95)#    (10): ReLU()#    (11): DecoupledLinear(bias=True)#  )#)#!!all!!0.1!!naturalscene!!!!-0.579955399367041!512!-0.6381729387969244!decoupledlinear/decoupledlinear_0_lr0.005!0.26683093166319344!0.2123814613141451!0.21148409696943296!0.240101646012787!0.2942704329163119!!!!!!!!!!!!!!!!!!!!!!0.01!True!!PoissonNLLLoss!False!True!0.0!!!!!
decoupledlinear!1!15-10-07!0.001!0.3463149070739746!50!LinearDecoupBNCNN!True![8, 8]!decoupledlinear/results.txt!0.001!!0.0!0.0001!False!0.6659310452919533!!LinearDecoupBNCNN(#  (sequential): Sequential(#    (0): Conv2d(40, 8, kernel_size=(15, 15), stride=(1, 1))#    (1): Flatten()#    (2): BatchNorm1d(10368, eps=0.001, momentum=0.01, affine=True, track_running_stats=True)#    (3): GaussianNoise(std=0.1, trainable=False, adapt=False, momentum=0.95)#    (4): ReLU()#    (5): Reshape()#    (6): Conv2d(8, 8, kernel_size=(11, 11), stride=(1, 1))#    (7): Flatten()#    (8): BatchNorm1d(5408, eps=0.001, momentum=0.01, affine=True, track_running_stats=True)#    (9): GaussianNoise(std=0.1, trainable=False, adapt=False, momentum=0.95)#    (10): ReLU()#    (11): DecoupledLinear(bias=True)#  )#)#!0.3283861228977818!all!!0.1!0.09042909581035903!naturalscene!!!0.5769556969947208!-4.113357639960034!512!-3.6712446181743865!decoupledlinear/decoupledlinear_1_lr0.001!0.6769178463015545!0.5703701327752154!0.6009478929468084!0.7061841686249349!0.7752351858112535!!!!!!!!!!!!!!!!!!!!!!0.01!True!!PoissonNLLLoss!False!True!0.0!0.27768027105745224!0.3800656219815653!0.21278551041113208!0.8106368780136108!0.5641342401504517
decoupledlinear!2!15-10-07!0.001!0.3991979956626892!50!LinearDecoupBNCNN!True![8, 8]!decoupledlinear/results.txt!0.0005!!0.0!0.0001!False!0.7230035043278488!!LinearDecoupBNCNN(#  (sequential): Sequential(#    (0): Conv2d(40, 8, kernel_size=(15, 15), stride=(1, 1))#    (1): Flatten()#    (2): BatchNorm1d(10368, eps=0.001, momentum=0.01, affine=True, track_running_stats=True)#    (3): GaussianNoise(std=0.1, trainable=False, adapt=False, momentum=0.95)#    (4): ReLU()#    (5): Reshape()#    (6): Conv2d(8, 8, kernel_size=(11, 11), stride=(1, 1))#    (7): Flatten()#    (8): BatchNorm1d(5408, eps=0.001, momentum=0.01, affine=True, track_running_stats=True)#    (9): GaussianNoise(std=0.1, trainable=False, adapt=False, momentum=0.95)#    (10): ReLU()#    (11): DecoupledLinear(bias=True)#  )#)#!0.33668065165778505!all!!0.1!0.10366859047374223!naturalscene!!!0.5679553604273135!-4.1234790987558485!512!-3.857770172614255!decoupledlinear/decoupledlinear_2_lr0.0005!0.740723996687989!0.650477517491295!0.5986506770478943!0.7731951580282855!0.8519701723837798!!!!!!!!!!!!!!!!!!!!!!0.01!True!!PoissonNLLLoss!False!True!0.0!0.2914066053264544!0.3873368122859908!0.21992531691975856!1.2609554529190063!0.35043570399284363
decoupledlinear!3!15-10-07!0.001!0.41175633668899536!50!LinearDecoupBNCNN!True![8, 8]!decoupledlinear/results.txt!0.0001!!0.0!0.0001!False!0.6995660070930156!!LinearDecoupBNCNN(#  (sequential): Sequential(#    (0): Conv2d(40, 8, kernel_size=(15, 15), stride=(1, 1))#    (1): Flatten()#    (2): BatchNorm1d(10368, eps=0.001, momentum=0.01, affine=True, track_running_stats=True)#    (3): GaussianNoise(std=0.1, trainable=False, adapt=False, momentum=0.95)#    (4): ReLU()#    (5): Reshape()#    (6): Conv2d(8, 8, kernel_size=(11, 11), stride=(1, 1))#    (7): Flatten()#    (8): BatchNorm1d(5408, eps=0.001, momentum=0.01, affine=True, track_running_stats=True)#    (9): GaussianNoise(std=0.1, trainable=False, adapt=False, momentum=0.95)#    (10): ReLU()#    (11): DecoupledLinear(bias=True)#  )#)#!0.3297500677818689!all!!0.1!0.08971226304857945!naturalscene!!!0.5894322687349641!-3.947682505819053!512!-3.7313255613378713!decoupledlinear/decoupledlinear_3_lr0.0001!0.7568308916223474!0.6412658160997331!0.6133342659928079!0.7295040720470591!0.7568949897031308!!!!!!!!!!!!!!!!!!!!!!0.01!True!!PoissonNLLLoss!False!True!0.0!0.2831154860475344!0.39474110161276!0.1710483076381225!0.9480980038642884!0.18476152420043945
decoupledlinear!4!15-10-07!0.001!0.5696988701820374!50!LinearDecoupBNCNN!True![8, 8]!decoupledlinear/results.txt!0.005!!4.0!0.0001!False!0.6932516361388692!!LinearDecoupBNCNN(#  (sequential): Sequential(#    (0): Conv2d(40, 8, kernel_size=(15, 15), stride=(1, 1))#    (1): Flatten()#    (2): BatchNorm1d(10368, eps=0.001, momentum=0.01, affine=True, track_running_stats=True)#    (3): GaussianNoise(std=0.1, trainable=False, adapt=False, momentum=0.95)#    (4): ReLU()#    (5): Reshape()#    (6): Conv2d(8, 8, kernel_size=(11, 11), stride=(1, 1))#    (7): Flatten()#    (8): BatchNorm1d(5408, eps=0.001, momentum=0.01, affine=True, track_running_stats=True)#    (9): GaussianNoise(std=0.1, trainable=False, adapt=False, momentum=0.95)#    (10): ReLU()#    (11): DecoupledLinear(bias=True)#    (12): Softplus(beta=1, threshold=20)#  )#)#!0.4166666122016864!all!!0.1!0.14317641314503712!naturalscene!!!0.6870615079874202!-3.69030563809753!512!-3.595353318603884!decoupledlinear/decoupledlinear_4_lr0.005!0.7428252586510942!0.5860196902724691!0.6317726172892453!0.7393406956193523!0.7662999188621855!!!!!!!!!!!!!!!!!!!!!!0.01!True!!PoissonNLLLoss!False!False!1.0!0.3462115941398207!0.4700659813996562!0.3112668519892274!0.9142904281616212!0.287663996219635
decoupledlinear!5!15-10-07!0.001!0.5861372947692871!50!LinearDecoupBNCNN!True![8, 8]!decoupledlinear/results.txt!0.001!!4.0!0.0001!False!0.6812257377037694!!LinearDecoupBNCNN(#  (sequential): Sequential(#    (0): Conv2d(40, 8, kernel_size=(15, 15), stride=(1, 1))#    (1): Flatten()#    (2): BatchNorm1d(10368, eps=0.001, momentum=0.01, affine=True, track_running_stats=True)#    (3): GaussianNoise(std=0.1, trainable=False, adapt=False, momentum=0.95)#    (4): ReLU()#    (5): Reshape()#    (6): Conv2d(8, 8, kernel_size=(11, 11), stride=(1, 1))#    (7): Flatten()#    (8): BatchNorm1d(5408, eps=0.001, momentum=0.01, affine=True, track_running_stats=True)#    (9): GaussianNoise(std=0.1, trainable=False, adapt=False, momentum=0.95)#    (10): ReLU()#    (11): DecoupledLinear(bias=True)#    (12): Softplus(beta=1, threshold=20)#  )#)#!0.3596294864548777!all!!0.1!0.08492016612076668!naturalscene!!!0.6408667762945851!-3.954996506732693!512!-3.783378706668736!decoupledlinear/decoupledlinear_5_lr0.001!0.7096615392993946!0.6055884528155311!0.6116314422322606!0.7231022602535988!0.7561449939180616!!!!!!!!!!!!!!!!!!!!!!0.01!True!!PoissonNLLLoss!False!False!1.0!0.3008595017719972!0.4223547005918031!0.21716383213078666!0.9189202189445496!0.4030861556529999
decoupledlinear!6!15-10-07!0.001!0.6086172461509705!50!LinearDecoupBNCNN!True![8, 8]!decoupledlinear/results.txt!0.0005!!4.0!0.0001!False!0.7223201286906652!!LinearDecoupBNCNN(#  (sequential): Sequential(#    (0): Conv2d(40, 8, kernel_size=(15, 15), stride=(1, 1))#    (1): Flatten()#    (2): BatchNorm1d(10368, eps=0.001, momentum=0.01, affine=True, track_running_stats=True)#    (3): GaussianNoise(std=0.1, trainable=False, adapt=False, momentum=0.95)#    (4): ReLU()#    (5): Reshape()#    (6): Conv2d(8, 8, kernel_size=(11, 11), stride=(1, 1))#    (7): Flatten()#    (8): BatchNorm1d(5408, eps=0.001, momentum=0.01, affine=True, track_running_stats=True)#    (9): GaussianNoise(std=0.1, trainable=False, adapt=False, momentum=0.95)#    (10): ReLU()#    (11): DecoupledLinear(bias=True)#    (12): Softplus(beta=1, threshold=20)#  )#)#!0.3488840456805317!all!!0.1!0.1071815714864442!naturalscene!!!0.5987129085907149!-3.9591160370753364!512!-3.922731249729986!decoupledlinear/decoupledlinear_6_lr0.0005!0.7640841915580059!0.6451442450405367!0.6411338424059148!0.7710175965838519!0.7902207678650163!!!!!!!!!!!!!!!!!!!!!!0.01!True!!PoissonNLLLoss!False!False!1.0!0.3008593391395034!0.4106652657206276!0.20089293509215506!1.1264581680297852!0.4557932913303375
decoupledlinear!7!15-10-07!0.001!0.5648199915885925!50!LinearDecoupBNCNN!True![8, 8]!decoupledlinear/results.txt!0.0001!!4.0!0.0001!False!0.6903925680065659!!LinearDecoupBNCNN(#  (sequential): Sequential(#    (0): Conv2d(40, 8, kernel_size=(15, 15), stride=(1, 1))#    (1): Flatten()#    (2): BatchNorm1d(10368, eps=0.001, momentum=0.01, affine=True, track_running_stats=True)#    (3): GaussianNoise(std=0.1, trainable=False, adapt=False, momentum=0.95)#    (4): ReLU()#    (5): Reshape()#    (6): Conv2d(8, 8, kernel_size=(11, 11), stride=(1, 1))#    (7): Flatten()#    (8): BatchNorm1d(5408, eps=0.001, momentum=0.01, affine=True, track_running_stats=True)#    (9): GaussianNoise(std=0.1, trainable=False, adapt=False, momentum=0.95)#    (10): ReLU()#    (11): DecoupledLinear(bias=True)#    (12): Softplus(beta=1, threshold=20)#  )#)#!0.3706931165883204!all!!0.1!0.09072444834708483!naturalscene!!!0.6589580049131182!-3.727283077901665!512!-3.6119723190815423!decoupledlinear/decoupledlinear_7_lr0.0001!0.7338288105936966!0.6127316278161977!0.6309223152342908!0.7503270492904154!0.7241530370982292!!!!!!!!!!!!!!!!!!!!!!0.01!True!!PoissonNLLLoss!False!False!1.0!0.3063839629329945!0.44068121718766734!0.2107470454110883!1.1349728107452393!0.10057166963815688
decoupledlinear!8!15-10-07!0.001!0.1330987513065338!50!LinearDecoupBNCNN!True![8, 8]!decoupledlinear/results.txt!0.005!!8.0!0.0001!False!0.17867813681495726!0.1745420591823354!LinearDecoupBNCNN(#  (sequential): Sequential(#    (0): Conv2d(40, 8, kernel_size=(15, 15), stride=(1, 1))#    (1): Flatten()#    (2): BatchNorm1d(10368, eps=0.001, momentum=0.01, affine=True, track_running_stats=True)#    (3): GaussianNoise(std=0.1, trainable=False, adapt=False, momentum=0.95)#    (4): ReLU()#    (5): Reshape()#    (6): Conv2d(8, 8, kernel_size=(11, 11), stride=(1, 1))#    (7): Flatten()#    (8): BatchNorm1d(5408, eps=0.001, momentum=0.01, affine=True, track_running_stats=True)#    (9): GaussianNoise(std=0.1, trainable=False, adapt=False, momentum=0.95)#    (10): ReLU()#    (11): DecoupledLinear(bias=True)#    (12): Softplus(beta=1, threshold=20)#  )#)#!!all!!0.1!!naturalscene!!!!-0.18536961843736527!512!-0.184105844226724!decoupledlinear/decoupledlinear_8_lr0.005!0.247215660117638!0.10205944447373874!0.09683841938567446!0.07207356626795783!0.3752035938297773!!!!!!!!!!!!!!!!!!!!!!0.01!True!!PoissonNLLLoss!False!True!1.0!!!!!
decoupledlinear!9!15-10-07!0.001!0.6047762036323547!50!LinearDecoupBNCNN!True![8, 8]!decoupledlinear/results.txt!0.001!!8.0!0.0001!False!0.7053947354918477!0.723607708441475!LinearDecoupBNCNN(#  (sequential): Sequential(#    (0): Conv2d(40, 8, kernel_size=(15, 15), stride=(1, 1))#    (1): Flatten()#    (2): BatchNorm1d(10368, eps=0.001, momentum=0.01, affine=True, track_running_stats=True)#    (3): GaussianNoise(std=0.1, trainable=False, adapt=False, momentum=0.95)#    (4): ReLU()#    (5): Reshape()#    (6): Conv2d(8, 8, kernel_size=(11, 11), stride=(1, 1))#    (7): Flatten()#    (8): BatchNorm1d(5408, eps=0.001, momentum=0.01, affine=True, track_running_stats=True)#    (9): GaussianNoise(std=0.1, trainable=False, adapt=False, momentum=0.95)#    (10): ReLU()#    (11): DecoupledLinear(bias=True)#    (12): Softplus(beta=1, threshold=20)#  )#)#!0.3638528920815879!all!!0.1!0.09522256543806516!naturalscene!!!0.5968691461769676!-3.434523549374772!512!-3.303365875039526!decoupledlinear/decoupledlinear_9_lr0.001!0.7701119146914147!0.5812425240034076!0.5708516235609828!0.7759665593118414!0.8288010558915918!!!!!!!!!!!!!!!!!!!!!!0.01!True!!PoissonNLLLoss!False!True!1.0!0.2913472577631531!0.39006341105077336!0.3416146063105923!0.6648145914077759!0.1955522447824478
decoupledlinear!10!15-10-07!0.001!0.5953050255775452!50!LinearDecoupBNCNN!True![8, 8]!decoupledlinear/results.txt!0.0005!!8.0!0.0001!False!0.7127313607211586!0.7146656977212388!LinearDecoupBNCNN(#  (sequential): Sequential(#    (0): Conv2d(40, 8, kernel_size=(15, 15), stride=(1, 1))#    (1): Flatten()#    (2): BatchNorm1d(10368, eps=0.001, momentum=0.01, affine=True, track_running_stats=True)#    (3): GaussianNoise(std=0.1, trainable=False, adapt=False, momentum=0.95)#    (4): ReLU()#    (5): Reshape()#    (6): Conv2d(8, 8, kernel_size=(11, 11), stride=(1, 1))#    (7): Flatten()#    (8): BatchNorm1d(5408, eps=0.001, momentum=0.01, affine=True, track_running_stats=True)#    (9): GaussianNoise(std=0.1, trainable=False, adapt=False, momentum=0.95)#    (10): ReLU()#    (11): DecoupledLinear(bias=True)#    (12): Softplus(beta=1, threshold=20)#  )#)#!0.3467352300590184!all!!0.1!0.09569520565660944!naturalscene!!!0.6264737272157856!-3.4558058977127075!512!-3.0766412945846238!decoupledlinear/decoupledlinear_10_lr0.0005!0.7645358058462471!0.6191182172614415!0.5971622197121018!0.7499151117842695!0.8329254490017332!!!!!!!!!!!!!!!!!!!!!!0.01!True!!PoissonNLLLoss!False!True!1.0!0.30174766742029424!0.4079633310533664!0.1980412535727603!0.7362164258956909!0.2061731219291687
decoupledlinear!11!15-10-07!0.001!0.5830186009407043!50!LinearDecoupBNCNN!True![8, 8]!decoupledlinear/results.txt!0.0001!!8.0!0.0001!False!0.6844905148538143!0.7215668399365779!LinearDecoupBNCNN(#  (sequential): Sequential(#    (0): Conv2d(40, 8, kernel_size=(15, 15), stride=(1, 1))#    (1): Flatten()#    (2): BatchNorm1d(10368, eps=0.001, momentum=0.01, affine=True, track_running_stats=True)#    (3): GaussianNoise(std=0.1, trainable=False, adapt=False, momentum=0.95)#    (4): ReLU()#    (5): Reshape()#    (6): Conv2d(8, 8, kernel_size=(11, 11), stride=(1, 1))#    (7): Flatten()#    (8): BatchNorm1d(5408, eps=0.001, momentum=0.01, affine=True, track_running_stats=True)#    (9): GaussianNoise(std=0.1, trainable=False, adapt=False, momentum=0.95)#    (10): ReLU()#    (11): DecoupledLinear(bias=True)#    (12): Softplus(beta=1, threshold=20)#  )#)#!0.3417859772779161!all!!0.1!0.0938826167787314!naturalscene!!!0.5775746289321341!-3.23638268725365!512!-2.9535110437864205!decoupledlinear/decoupledlinear_11_lr0.0001!0.7568997933687514!0.6002448140874979!0.5809432097029017!0.7253487404329413!0.7590160166769792!!!!!!!!!!!!!!!!!!!!!!0.01!True!!PoissonNLLLoss!False!True!1.0!0.2988577879758391!0.4041719751154658!0.18801657544466024!1.196030855178833!0.1032089814543724
nologpoisson!0!15-10-07!0.001!0.5825544595718384!50!BNCNN!True![8, 8]!nologpoisson/results.txt!0.005!!0.0!0.0001!False!0.7174862018178633!!BNCNN(#  (sequential): Sequential(#    (0): Conv2d(40, 8, kernel_size=(15, 15), stride=(1, 1))#    (1): Flatten()#    (2): BatchNorm1d(10368, eps=0.001, momentum=0.01, affine=True, track_running_stats=True)#    (3): GaussianNoise(std=0.1, trainable=False, adapt=False, momentum=0.95)#    (4): ReLU()#    (5): Reshape()#    (6): Conv2d(8, 8, kernel_size=(11, 11), stride=(1, 1))#    (7): Flatten()#    (8): BatchNorm1d(5408, eps=0.001, momentum=0.01, affine=True, track_running_stats=True)#    (9): GaussianNoise(std=0.1, trainable=False, adapt=False, momentum=0.95)#    (10): ReLU()#    (11): Linear(in_features=5408, out_features=5, bias=True)#    (12): BatchNorm1d(5, eps=1e-05, momentum=0.1, affine=True, track_running_stats=True)#    (13): Softplus(beta=1, threshold=20)#  )#)#!0.3976697237492365!all!!0.1!0.10307751983469624!naturalscene!!!0.6634108906945!-3.71438244043612!512!-3.5910708507377422!nologpoisson/nologpoisson_0_lr0.005!0.7620705855014391!0.6274917479464828!0.646277460688666!0.7542573897094403!0.7973338252432882!!!!!!!!!!!!!!!!!!!!!!0.01!True!!PoissonNLLLoss!False!False!1.0!0.3498123736047513!0.4375050192607984!0.31538622066026195!0.6170235872268677!0.3152376115322113
nologpoisson!1!15-10-07!0.001!0.6036426424980164!50!BNCNN!True![8, 8]!nologpoisson/results.txt!0.001!!0.0!0.0001!False!0.7071419364546971!!BNCNN(#  (sequential): Sequential(#    (0): Conv2d(40, 8, kernel_size=(15, 15), stride=(1, 1))#    (1): Flatten()#    (2): BatchNorm1d(10368, eps=0.001, momentum=0.01, affine=True, track_running_stats=True)#    (3): GaussianNoise(std=0.1, trainable=False, adapt=False, momentum=0.95)#    (4): ReLU()#    (5): Reshape()#    (6): Conv2d(8, 8, kernel_size=(11, 11), stride=(1, 1))#    (7): Flatten()#    (8): BatchNorm1d(5408, eps=0.001, momentum=0.01, affine=True, track_running_stats=True)#    (9): GaussianNoise(std=0.1, trainable=False, adapt=False, momentum=0.95)#    (10): ReLU()#    (11): Linear(in_features=5408, out_features=5, bias=True)#    (12): BatchNorm1d(5, eps=1e-05, momentum=0.1, affine=True, track_running_stats=True)#    (13): Softplus(beta=1, threshold=20)#  )#)#!0.34473074032390305!all!!0.1!0.11950674119570925!naturalscene!!!0.5813149904774472!-3.959812243240092!512!-3.8303818711836364!nologpoisson/nologpoisson_1_lr0.001!0.7587786236646762!0.6058955038803621!0.6291311195448966!0.7780229584719808!0.7638814767115698!!!!!!!!!!!!!!!!!!!!!!0.01!True!!PoissonNLLLoss!False!False!1.0!0.3091674854996822!0.39197577732615896!0.2306559386248624!0.9430148005485536!0.1485792100429535
nologpoisson!2!15-10-07!0.001!0.6390930414199829!50!BNCNN!True![8, 8]!nologpoisson/results.txt!0.0005!!0.0!0.0001!False!0.7269726713997569!!BNCNN(#  (sequential): Sequential(#    (0): Conv2d(40, 8, kernel_size=(15, 15), stride=(1, 1))#    (1): Flatten()#    (2): BatchNorm1d(10368, eps=0.001, momentum=0.01, affine=True, track_running_stats=True)#    (3): GaussianNoise(std=0.1, trainable=False, adapt=False, momentum=0.95)#    (4): ReLU()#    (5): Reshape()#    (6): Conv2d(8, 8, kernel_size=(11, 11), stride=(1, 1))#    (7): Flatten()#    (8): BatchNorm1d(5408, eps=0.001, momentum=0.01, affine=True, track_running_stats=True)#    (9): GaussianNoise(std=0.1, trainable=False, adapt=False, momentum=0.95)#    (10): ReLU()#    (11): Linear(in_features=5408, out_features=5, bias=True)#    (12): BatchNorm1d(5, eps=1e-05, momentum=0.1, affine=True, track_running_stats=True)#    (13): Softplus(beta=1, threshold=20)#  )#)#!0.3458207533419121!all!!0.1!0.10182829137038404!naturalscene!!!0.6281489044176891!-4.0522953802284265!512!-4.152497172130096!nologpoisson/nologpoisson_2_lr0.0005!0.794324718491351!0.6139661139696398!0.6759946046522143!0.7808882641612424!0.7696896557243366!!!!!!!!!!!!!!!!!!!!!!0.01!True!!PoissonNLLLoss!False!False!1.0!0.2866443626411997!0.4108132192475457!0.19686943728112105!0.9072424173355104!0.17259596288204193
nologpoisson!3!15-10-07!0.001!0.6240850687026978!50!BNCNN!True![8, 8]!nologpoisson/results.txt!0.0001!!0.0!0.0001!False!0.7183135088628294!!BNCNN(#  (sequential): Sequential(#    (0): Conv2d(40, 8, kernel_size=(15, 15), stride=(1, 1))#    (1): Flatten()#    (2): BatchNorm1d(10368, eps=0.001, momentum=0.01, affine=True, track_running_stats=True)#    (3): GaussianNoise(std=0.1, trainable=False, adapt=False, momentum=0.95)#    (4): ReLU()#    (5): Reshape()#    (6): Conv2d(8, 8, kernel_size=(11, 11), stride=(1, 1))#    (7): Flatten()#    (8): BatchNorm1d(5408, eps=0.001, momentum=0.01, affine=True, track_running_stats=True)#    (9): GaussianNoise(std=0.1, trainable=False, adapt=False, momentum=0.95)#    (10): ReLU()#    (11): Linear(in_features=5408, out_features=5, bias=True)#    (12): BatchNorm1d(5, eps=1e-05, momentum=0.1, affine=True, track_running_stats=True)#    (13): Softplus(beta=1, threshold=20)#  )#)#!0.3339415872344732!all!!0.1!0.11361509092701462!naturalscene!!!0.5681457113402788!-3.1995723092897626!512!-3.2616223496181203!nologpoisson/nologpoisson_3_lr0.0001!0.7657333092434744!0.6418501511254122!0.6144951196733811!0.7908114270537321!0.7786775372181475!!!!!!!!!!!!!!!!!!!!!!0.01!True!!PoissonNLLLoss!False!False!1.0!0.2890834832453763!0.3933404425271533!0.19063465779239744!0.7938700914382935!0.11751534789800645
nosoftplus!0!15-10-07!0.001!0.4285210967063904!50!BNCNN!True![8, 8]!nosoftplus/results.txt!0.005!!0.0!0.0001!False!0.715078319739931!0.6847628461333267!BNCNN(#  (sequential): Sequential(#    (0): Conv2d(40, 8, kernel_size=(15, 15), stride=(1, 1))#    (1): Flatten()#    (2): BatchNorm1d(10368, eps=0.001, momentum=0.01, affine=True, track_running_stats=True)#    (3): GaussianNoise(std=0.1, trainable=False, adapt=False, momentum=0.95)#    (4): ReLU()#    (5): Reshape()#    (6): Conv2d(8, 8, kernel_size=(11, 11), stride=(1, 1))#    (7): Flatten()#    (8): BatchNorm1d(5408, eps=0.001, momentum=0.01, affine=True, track_running_stats=True)#    (9): GaussianNoise(std=0.1, trainable=False, adapt=False, momentum=0.95)#    (10): ReLU()#    (11): Linear(in_features=5408, out_features=5, bias=True)#    (12): BatchNorm1d(5, eps=1e-05, momentum=0.1, affine=True, track_running_stats=True)#  )#)#!0.4184002983435926!all!!0.1!0.14977601543783373!naturalscene!!!0.6792189451682596!-3.7483000336369416!512!-3.6678452919615667!nosoftplus/nosoftplus_0_lr0.005!0.7884564430887363!0.6317187624090759!0.6026147275072756!0.7668167289221189!0.7857849367724482!!!!!!!!!!!!!!!!!!!!!!0.01!True!!PoissonNLLLoss!False!True!0.0!0.3449742552867464!0.4661577654854408!0.332237041517817!0.6534217000007629!0.22606204450130465
nosoftplus!1!15-10-07!0.001!0.4283674359321594!50!BNCNN!True![8, 8]!nosoftplus/results.txt!0.001!!0.0!0.0001!False!0.6585862474140219!0.7041637994933343!BNCNN(#  (sequential): Sequential(#    (0): Conv2d(40, 8, kernel_size=(15, 15), stride=(1, 1))#    (1): Flatten()#    (2): BatchNorm1d(10368, eps=0.001, momentum=0.01, affine=True, track_running_stats=True)#    (3): GaussianNoise(std=0.1, trainable=False, adapt=False, momentum=0.95)#    (4): ReLU()#    (5): Reshape()#    (6): Conv2d(8, 8, kernel_size=(11, 11), stride=(1, 1))#    (7): Flatten()#    (8): BatchNorm1d(5408, eps=0.001, momentum=0.01, affine=True, track_running_stats=True)#    (9): GaussianNoise(std=0.1, trainable=False, adapt=False, momentum=0.95)#    (10): ReLU()#    (11): Linear(in_features=5408, out_features=5, bias=True)#    (12): BatchNorm1d(5, eps=1e-05, momentum=0.1, affine=True, track_running_stats=True)#  )#)#!0.32299899248047553!all!!0.1!0.09667696872245146!naturalscene!!!0.5300246115969304!-4.03847177787424!512!-3.97792361349857!nosoftplus/nosoftplus_1_lr0.001!0.7347154674494628!0.5401389014855211!0.4777235985163196!0.7404660867657723!0.7998871828530351!!!!!!!!!!!!!!!!!!!!!!0.01!True!!PoissonNLLLoss!False!True!0.0!0.2843202667399746!0.3712500283215615!0.20832933831094053!0.9626365900039672!0.14516688883304596
nosoftplus!2!15-10-07!0.001!0.4664233326911926!50!BNCNN!True![8, 8]!nosoftplus/results.txt!0.0005!!0.0!0.0001!False!0.6607197075870042!0.7093391460822008!BNCNN(#  (sequential): Sequential(#    (0): Conv2d(40, 8, kernel_size=(15, 15), stride=(1, 1))#    (1): Flatten()#    (2): BatchNorm1d(10368, eps=0.001, momentum=0.01, affine=True, track_running_stats=True)#    (3): GaussianNoise(std=0.1, trainable=False, adapt=False, momentum=0.95)#    (4): ReLU()#    (5): Reshape()#    (6): Conv2d(8, 8, kernel_size=(11, 11), stride=(1, 1))#    (7): Flatten()#    (8): BatchNorm1d(5408, eps=0.001, momentum=0.01, affine=True, track_running_stats=True)#    (9): GaussianNoise(std=0.1, trainable=False, adapt=False, momentum=0.95)#    (10): ReLU()#    (11): Linear(in_features=5408, out_features=5, bias=True)#    (12): BatchNorm1d(5, eps=1e-05, momentum=0.1, affine=True, track_running_stats=True)#  )#)#!0.3311851279589331!all!!0.1!0.10115682423712648!naturalscene!!!0.5796067805023737!-4.141248378818391!512!-4.177938303045813!nosoftplus/nosoftplus_2_lr0.0005!0.7478763818977046!0.5762636222809394!0.4915405134026146!0.7763610240522599!0.7115569963015024!!!!!!!!!!!!!!!!!!!!!!0.01!True!!PoissonNLLLoss!False!True!0.0!0.2759549026369604!0.3871298125517258!0.20630791609764487!0.7088238000869751!0.29124969244003296
nosoftplus!3!15-10-07!0.001!0.4892590641975403!50!BNCNN!True![8, 8]!nosoftplus/results.txt!0.0001!!0.0!0.0001!False!0.594217571640687!0.6673696598682104!BNCNN(#  (sequential): Sequential(#    (0): Conv2d(40, 8, kernel_size=(15, 15), stride=(1, 1))#    (1): Flatten()#    (2): BatchNorm1d(10368, eps=0.001, momentum=0.01, affine=True, track_running_stats=True)#    (3): GaussianNoise(std=0.1, trainable=False, adapt=False, momentum=0.95)#    (4): ReLU()#    (5): Reshape()#    (6): Conv2d(8, 8, kernel_size=(11, 11), stride=(1, 1))#    (7): Flatten()#    (8): BatchNorm1d(5408, eps=0.001, momentum=0.01, affine=True, track_running_stats=True)#    (9): GaussianNoise(std=0.1, trainable=False, adapt=False, momentum=0.95)#    (10): ReLU()#    (11): Linear(in_features=5408, out_features=5, bias=True)#    (12): BatchNorm1d(5, eps=1e-05, momentum=0.1, affine=True, track_running_stats=True)#  )#)#!0.3210829295238539!all!!0.1!0.08963008784446715!naturalscene!!!0.5793476825142395!-3.975329621525012!512!-3.9725010691297937!nosoftplus/nosoftplus_3_lr0.0001!0.7255854962641585!0.5007155717323951!0.4134681351738242!0.7146091820926089!0.6167094729404488!!!!!!!!!!!!!!!!!!!!!!0.01!True!!PoissonNLLLoss!False!True!0.0!0.26094271287273874!0.3834848840926695!0.1806527898793859!0.9016679525375366!0.07475266605615616
